model-service/models/load_dict/anomaly-detection/bookings_anomaly_detection.pth (torch, 59240 bytes, 10 tensors)

encoder.weight_ih_l0 f4 [128, 8]
000000 79 03 40 3e 1d 57 01 bd 35 69 cc 3e 1b 7c 14 be
       0.18751325 -0.03157722 0.39924017 -0.14500467
000010 62 b1 fc 3d a9 80 9d 3e c2 60 af 3d 47 e1 de 3e
       0.123385206 0.30762222 0.08563377 0.43531248
000020 bf b2 a2 be 59 62 84 3e ac dc ca bd f4 d6 15 bd
       -0.31776997 0.25856283 -0.09905371 -0.03658195
000030 52 00 ca 3d 96 23 56 3e c1 48 19 bf ad 67 5a bd
       0.09863342 0.20912012 -0.5987664 -0.05332153
000040 b2 69 8d be 65 34 d8 bd af 26 a1 be b2 4e e2 bd
       -0.27619702 -0.105568685 -0.31474826 -0.11050166
000050 91 13 28 3e a9 62 8a bb 12 f2 56 3e db 37 1e be
       0.16413714 -0.004223187 0.2099078 -0.15450995
000060 24 fc 96 3e 68 a0 26 3e c8 8c 9b 3e 06 a9 d4 3d
       0.29489243 0.16272128 0.30380845 0.10383801
000070 db 0b 12 be 7a cc 71 3e bd 8e 74 be 58 43 f1 3e
       -0.14262335 0.23613158 -0.23882575 0.47121692
000080 54 09 96 3d 7a 78 78 be de 4e e4 3e 00 c2 2f bc
       0.07325998 -0.24264708 0.4459142 -0.010727406
000090 67 24 1d 3e 95 32 89 be 32 e7 77 3e 6f 33 07 bd
       0.15345918 -0.26796404 0.24209288 -0.033008035
0000a0 a9 76 ab bc 08 66 e5 bd 98 3f 12 3f 41 d0 24 be
       -0.020930605 -0.112011015 0.57128286 -0.16095068
0000b0 7e 1e d5 bd 37 58 7e be 47 ed 36 be 90 0e 92 3e
       -0.104062065 -0.24838339 -0.17863952 0.28526735
0000c0 92 fc 4e 3e 80 71 3f be ec 6f c7 3e 34 7f 4f 3d
       0.20213535 -0.1869564 0.38952577 0.05065842
0000d0 0c 30 37 bd ea 1d 59 be 3c 36 0d 3e fc e3 00 3e
       -0.044723555 -0.21202818 0.1379022 0.12586969
0000e0 c9 a3 89 be 55 05 88 be ba da bf 3d c8 fa 07 bd
       -0.2688277 -0.26566568 0.09367891 -0.033198148
0000f0 59 bf c2 bd a2 8a 8c bd a5 04 92 3e c9 6e 3d be
       -0.09509153 -0.068623796 0.28519168 -0.18499292
000100 a7 91 79 bd 3e c2 0b bd 12 d4 82 be c7 3b 18 3e
       -0.06092992 -0.03412079 -0.25552422 0.14866553
000110 30 b9 8f 3c 07 c9 87 bc 7b 35 e9 bc 3c 1c 0e be
       0.017544359 -0.01657535 -0.028467884 -0.13877958
000120 bc 79 b9 3c f0 a7 c6 3d 7b 5d 62 be af 7e 24 be
       0.022641055 0.097 -0.22105972 -0.16063951
000130 a2 0a f0 3d 74 58 2b be 18 0f 88 3e c2 f6 00 3e
       0.11720778 -0.16732961 0.26574016 0.1259413
000140 a0 79 b7 3d 79 57 35 be 8c 84 21 3d 30 0f 4a bd
       0.08958745 -0.1770915 0.039433047 -0.04933089
000150 1a e6 b9 3d 55 00 a7 be cc a0 80 bd 7d 85 ec 3d
       0.090770915 -0.3261744 -0.062806696 0.11548898
000160 7f 78 26 3d fd bd af 3b eb 57 8b bd 40 22 1c bb
       0.040642258 0.0053632245 -0.068038784 -0.0023824126
000170 ce a5 ec 3d 3e 42 77 be 44 6e 98 bd 06 7c 22 be
       0.11555062 -0.24146363 -0.074429065 -0.15867624
000180 09 f3 d0 3e 58 2f b0 3e 8e 74 85 be 07 bb 0e 3e
       0.4081042 0.3441112 -0.26065487 0.13938533
000190 ae 98 bd bd 87 5f 68 be 1d 00 ae be ad c8 c3 be
       -0.09257637 -0.22692691 -0.3398446 -0.3823904
0001a0 64 be ed 3d c4 b0 2c 3d 36 71 21 bc fc 6e 18 3d
       0.1160858 0.042160764 -0.009853652 0.037215218
0001b0 b5 ed 21 3e 17 af 05 3e bd 15 aa 3e 11 c6 2d 3e
       0.15813334 0.13055073 0.3321971 0.16970088
0001c0 8b 48 ff bc 92 c8 46 3e a6 55 8c bd 38 1e 26 bd
       -0.03116252 0.19412449 -0.06852274 -0.040556163
0001d0 e8 d3 f3 bd c2 4f e4 3e 4b 69 12 bf 02 ea b8 3e
       -0.11905652 0.445921 -0.57191914 0.36116034
0001e0 d6 05 03 be 73 25 b4 3e 98 a0 01 3f c7 ef 04 be
       -0.12795195 0.3518482 0.5063567 -0.12982093
0001f0 52 3f 21 be 01 6c fa 3d 14 14 59 bf 27 f5 42 bd
       -0.15746811 0.12227631 -0.8479626 -0.047597077
000200 d7 ee 47 3e e4 6d fc bd 75 e3 ac be 06 76 f7 3d
       0.19524704 -0.123256475 -0.33767286 0.12083058
000210 c7 2f ac bd d8 28 05 be 95 59 31 3e cc d3 6b be
       -0.0840755 -0.13003862 0.17319329 -0.23030013
000220 08 44 7f 3e 14 6e 16 bf 0a 9f c1 3e 20 0a 11 3d
       0.24928296 -0.58761716 0.3781665 0.035410047
000230 61 d4 20 3e 0f c4 25 be c8 54 a5 3e 92 99 05 3e
       0.15706016 -0.16188072 0.32291245 0.13046864
000240 6f 99 a7 bd 0f 68 10 be 79 34 90 3e af 38 18 3e
       -0.08183562 -0.14102195 0.28165033 0.14865373
000250 76 cc a2 3d 3d 18 70 be 46 50 b3 3e a3 8e 08 be
       0.07949154 -0.23446746 0.3502218 -0.13335662
000260 d8 9b 8c 3d b8 e0 8e bd f0 cf 19 3f af ec 9b bd
       0.06865662 -0.069764555 0.6008291 -0.07613503
000270 ae a3 ad 3d 2a 94 0b be 01 4a 17 3e 63 05 27 3e
       0.08478485 -0.13630739 0.14774324 0.16310649
000280 04 69 15 3e 38 78 96 be 02 36 3d 3f c6 af 2a be
       0.14590842 -0.29388595 0.73910534 -0.16668615
000290 cf b9 c7 bd d9 24 a7 be 2f 34 d0 3e d7 da 4b bd
       -0.09752237 -0.326453 0.40664813 -0.04976925
0002a0 bb a6 d6 bd ec 04 58 3d 65 c8 ad 3e d4 2f c8 bd
       -0.1048102 0.05273907 0.3394195 -0.097747475
0002b0 aa b8 0d be 2b b6 b0 be 3f fd 85 be e2 c6 2d be
       -0.13839975 -0.34513983 -0.26169774 -0.16970399
0002c0 cb 97 00 bd 4b 77 30 be 8a f7 3e bd f9 45 02 3e
       -0.03139476 -0.17233007 -0.04662279 0.12722005
0002d0 b0 fd d8 3c 43 46 d4 bd 6a 5e 3c 3e 53 39 9f be
       0.026488155 -0.10364964 0.18395391 -0.31098422
0002e0 de 32 86 3c 85 0d af be 28 7c 38 3e 25 2b 20 be
       0.016381677 -0.34190002 0.18016112 -0.15641458
0002f0 e2 46 dd 3d 3f 85 9a bd 8e 42 da 3e 06 53 53 3e
       0.108045354 -0.07544946 0.42628902 0.2063714
000300 ae e8 26 3e f3 01 c9 be 83 91 2c 3e 6a 30 c2 3d
       0.16299698 -0.392593 0.16852383 0.094818905
000310 a0 7b 4d bc 3c c9 31 3c ea fb 58 3e aa e6 c2 3d
       -0.0125416815 0.010851201 0.21189848 0.09516652
000320 26 ac 18 3e 63 56 0b 3d 8e 80 d9 3e 48 df d2 bc
       0.1490942 0.03401793 0.42480892 -0.025741234
000330 62 02 f7 bd ed 6a a6 bd 71 c3 1e 3e 48 38 0b 3e
       -0.12061001 -0.08125863 0.15504242 0.13595688
000340 b5 0e 93 be cd 43 8c bc 47 c8 7f be 08 ed ff 3c
       -0.28722158 -0.017122174 -0.24978743 0.031240955
000350 a9 a8 d4 bd c0 80 5b bd 16 6e 7f be a3 6d ea be
       -0.10383732 -0.053589582 -0.24944338 -0.4578677
000360 18 21 14 3c 1a 11 02 3f 0c 3f 96 3e 36 a5 df 3d
       0.009041093 0.50807345 0.29344976 0.10920183
000370 a2 ef 1f be df 7c 3c bd 96 a7 9c be 19 bd 7e 3e
       -0.15618756 -0.046017524 -0.30596608 0.24876823
000380 e5 c4 9d bd 6e d4 19 bd e3 6f 6f 3e cd 52 1b be
       -0.0770357 -0.037556104 0.23382525 -0.15168305
000390 54 38 91 3d 6f 37 a6 3d 90 a2 ec be 7b 0b 67 be
       0.07090822 0.08116042 -0.46217775 -0.22562973
0003a0 36 8e 18 3e d4 dd 54 3d f7 4d b4 3e 86 cd 5b bd
       0.14897999 0.051969364 0.35215732 -0.0536628
0003b0 7d f8 24 be a1 9b 3f be b1 96 ba be 7d 1e e6 bd
       -0.16110416 -0.18711711 -0.36443093 -0.11236284
0003c0 b6 98 ca 3e 98 07 f0 3d d1 cb 13 3e 48 7b 02 3d
       0.39569634 0.117201984 0.14433219 0.03185585
0003d0 00 3b f3 3b 6c 6c 8e bd 4e 38 14 3e f7 33 94 be
       0.007422805 -0.069542736 0.14474604 -0.28945896
0003e0 62 f8 64 be 5c 67 c8 3e ab 86 84 3e 19 ee d4 bd
       -0.22360376 0.39141357 0.25883994 -0.10396976
0003f0 89 77 20 be 36 b1 91 be 82 6a d4 bd 51 c9 76 be
       -0.15670599 -0.28455514 -0.10371877 -0.24100234

encoder.weight_hh_l0 f4 [128, 32]
000000 44 53 e8 3d fa ba 3b be 2d 5f 29 3e 7e d1 64 be
       0.11344007 -0.18333045 0.16540213 -0.2234554
000010 47 e3 e4 bd 1e 84 c6 3d 7c 60 8b 3e a8 74 cd 3d
       -0.11176162 0.09693168 0.2722205 0.10032016
000020 a9 6b c5 bd b9 9f a7 3d 12 05 20 3d 04 d0 15 3c
       -0.09639675 0.081847616 0.039067335 0.009143833
000030 95 e1 bd bd db 63 87 3d 70 9c 36 3e e0 49 26 3d
       -0.09271542 0.06610843 0.17833114 0.040597796
000040 2f f7 be ba 38 28 a4 be 7e 6a a3 3e 8f c6 d9 3d
       -0.0014569516 -0.32061934 0.31917185 0.10633575
000050 24 b6 b1 3d d3 41 63 be 24 d0 81 bd 79 dd 5e bb
       0.08677319 -0.22193079 -0.06338528 -0.003400652
000060 ea ee 83 3b 1f d7 98 bd c2 c4 60 3e 4a 5d 27 be
       0.0040262835 -0.07462906 0.21950057 -0.1634418
000070 e4 3c a9 3d de 56 44 be 3e 61 ba bd 5f b8 19 3d
       0.08263567 -0.19173762 -0.09100579 0.037529346
000080 12 2f 98 be dc 69 25 3e 30 fb bb bb aa e0 7d 3e
       -0.29723412 0.16153663 -0.005736731 0.24792734
000090 8b 4e bf 3d bf 9e 7e be c3 ca c0 bd 47 86 58 be
       0.09341153 -0.24865244 -0.09413674 -0.21144973
0000a0 2e 7c 43 bd 3a ce 31 bd 83 27 3e bd b2 41 a2 bd
       -0.04772585 -0.043409564 -0.0464244 -0.07922687
0000b0 68 39 d0 bd f6 49 3a 3e 2c 64 96 be 33 9b 5a be
       -0.101671994 0.18192276 -0.293733 -0.21348266
0000c0 56 a4 d8 3d c9 2e 93 3e 01 ba 4b 3c 46 b4 0d bc
       0.105782196 0.28746632 0.0124344835 -0.008648938
0000d0 81 e2 86 3d 94 49 9e 3e da 3c 49 be 1a a3 b0 3c
       0.06586171 0.3091551 -0.1965212 0.021562148
0000e0 73 70 7b bc 15 42 35 be 51 6a 25 be f1 79 0d 3e
       -0.015346634 -0.1770099 -0.16153838 0.13816048
0000f0 9c 3a e4 3d 6a 77 10 3e 14 e3 52 be 65 14 23 be
       0.11143991 0.14108053 -0.20594436 -0.15925749
000100 e7 5c 11 3c 9d c7 e8 3d 0b 57 e2 3d 39 43 93 bd
       0.008872247 0.11366198 0.110517584 -0.07190556
000110 95 f9 5c 3e dc bd 94 bd 46 92 98 3e 99 04 d7 3d
       0.21579583 -0.07262775 0.29799098 0.10498924
000120 5a 58 33 3e d0 b1 d7 3d 33 b9 ac 3d d0 1b 05 3e
       0.17514172 0.10531962 0.084337614 0.12998891
000130 57 20 9c 3e 2c 7a 0e bd 3d 36 22 3d cc 83 be bd
       0.30493423 -0.03478448 0.039602507 -0.09302482
000140 f3 be 25 bd 35 b0 0f 3c 98 a3 a7 bc 75 1b 8a 3e
       -0.040465306 0.008770038 -0.02046375 0.26974073
000150 c6 7e 0a be 7e 3d 69 be a7 fa cb bd 8a 26 3c be
       -0.13524923 -0.22777364 -0.099599175 -0.18374076
000160 03 12 f9 bd 7b 04 88 3c 28 95 ae 3d c1 a1 4d be
       -0.121616386 0.016603699 0.08524543 -0.20081235
000170 ff d5 ea bd 35 76 53 3b d0 ea 7d be 6c b7 33 be
       -0.11466598 0.0032266502 -0.24796605 -0.17550439
000180 f7 5b 03 3e 1c 38 39 3e 33 9c eb 3d fc 19 cb 3d
       0.1282805 0.1808781 0.11504402 0.099170655
000190 e8 0d 4e 3e ac 8f 9a 3d 7b 3a ac bd 00 e8 93 3c
       0.20122492 0.075469345 -0.08409592 0.018054962
0001a0 a9 96 ea 3c a7 cf 93 be c5 8b 88 bd fc fb ac bd
       0.028636293 -0.28869364 -0.06667284 -0.084465
0001b0 7c 05 74 bd 19 00 28 3e 07 aa 98 3d 23 3c 1a be
       -0.059575543 0.16406287 0.07454305 -0.15062003
0001c0 5b c4 df bd 3c 4f 1f bc 69 fa 33 bc 7f 67 8b bd
       -0.10926124 -0.009723481 -0.010984995 -0.0680685
0001d0 83 de 6f 3e bb c4 07 3c c1 8f 28 bd 08 33 5b bd
       0.23424725 0.00828665 -0.04115272 -0.053515464
0001e0 2d 4b c6 bd 71 cd 8a bd 98 65 54 3e 18 de bd bd
       -0.096823074 -0.06777466 0.2074188 -0.09270877
0001f0 db 5c 08 bd 99 70 a8 be d3 c5 c9 bd 14 ec d2 3c
       -0.03329168 -0.32898405 -0.09852185 0.025747336
000200 8c 58 06 3e b4 8b be 3c e7 87 45 be 6c 9b 51 be
       0.13119715 0.023259975 -0.19290124 -0.20469445
000210 7f 74 aa 3d b7 50 32 3d 92 a7 45 3e a3 98 a4 bd
       0.08323001 0.043534007 0.19302204 -0.08036926
000220 96 24 8f bc be de 90 3b 2d 8f 7b 3d 53 d8 7e 3e
       -0.0174735 0.004421084 0.06141584 0.24887209
000230 9d bd 51 3e 52 7f 75 3c f6 49 02 bd 64 e2 c6 3d
       0.20482488 0.014983969 -0.031808816 0.09711149
000240 74 e8 10 3d 28 74 2b 3e d5 6f 98 bd 1f 0d e5 3d
       0.035377935 0.16743529 -0.07443205 0.11184143
000250 d0 ba b9 bd 8a d7 9b bb 3c 14 be 3d ad 6d 5a 3e
       -0.09068835 -0.004755919 0.09281203 0.213309
000260 0d 4f ec 3a f9 d7 36 3d 73 c2 36 3e 53 a9 90 bd
       0.001802893 0.04463956 0.17847614 -0.07063546
000270 f8 3d 3d be d5 ab 31 be 84 5a 6e bd 0c 8a 17 3e
       -0.1848067 -0.17350705 -0.05819179 0.14798754
000280 f2 55 a1 3d fa e9 64 3e f5 85 b0 3b e8 ff 34 3e
       0.07877721 0.2235488 0.0053870627 0.17675745
000290 a7 6f fd 3c a0 7c 44 be 10 b2 14 3c 74 37 7d 3d
       0.030937029 -0.19188166 0.0090756565 0.061820462
0002a0 bb 02 35 3e d5 f0 6c be 00 e0 61 be ed 8a d1 3d
       0.17676823 -0.23138745 -0.22058105 0.10231576
0002b0 35 ea 62 3e 22 b7 72 bd 5e 9c 02 be 33 d0 a2 be
       0.22159655 -0.05925668 -0.12754962 -0.31799468
0002c0 26 4f c8 bd 57 89 62 bd 1e 2b ac 3d a1 e3 18 be
       -0.09780721 -0.05530676 0.084066615 -0.14930584
0002d0 29 92 24 bd 75 95 3d 3c e1 15 4e be d3 7c 77 3e
       -0.04017845 0.011571278 -0.20125534 0.2416871
0002e0 f4 ff c6 3d e0 a5 07 bd 4e 68 56 3d d4 fc e5 bc
       0.09716788 -0.033117175 0.052345566 -0.02807466
0002f0 9e 4e 3c be 4d 95 5d be 7e ec ba bd a6 18 01 be
       -0.18389365 -0.21638985 -0.091271386 -0.12607059
000300 a5 9a 34 3e 88 ac 3e bb 89 26 80 be ad e7 ac bd
       0.17637117 -0.0029094536 -0.250294 -0.08442626
000310 8e 55 1d be b6 07 d6 3d ee 14 1c be 10 25 a5 bd
       -0.15364668 0.104506895 -0.15242359 -0.0806371
000320 f5 f6 16 3e 15 28 88 be 48 77 db bd 56 ec 69 3e
       0.14742644 -0.2659308 -0.107161105 0.22844061
000330 5a e7 dd bc 18 bf 34 bd 31 ce 91 be 01 6e 59 3e
       -0.027087856 -0.044127554 -0.28477624 0.2123337
000340 a3 7f 1b be 97 93 c5 3d 9d 67 e8 3d 63 99 9c 3e
       -0.15185408 0.09647291 0.11347888 0.30585775
000350 ec 9b 8f bd b6 ee cf bd 24 38 45 be ef 3d cd bc
       -0.070121616 -0.101529524 -0.19259697 -0.025053946
000360 d2 80 b3 3e 58 db 7b 3e a8 bd b3 3d bc 6e d1 bd
       0.3505922 0.24595392 0.087764084 -0.10226199
000370 7d fd 2f 3e c0 36 30 3d f7 f9 5d 3d f0 30 44 be
       0.17186542 0.043020964 0.054193463 -0.19159293
000380 31 c0 a7 bc 24 bf 8e 3e 35 7e 8a bd 0a d0 bc bc
       -0.020477386 0.27880204 -0.06762353 -0.02304842
000390 26 81 0b 3e c3 17 81 be 89 4b 01 3c 1e 79 85 be
       0.13623485 -0.2521344 0.007891544 -0.26068968
0003a0 dc 10 1c 3c d9 b8 5a 3e ff 7d 84 be 20 84 23 bd
       0.009525504 0.21359576 -0.25877377 -0.039920926
0003b0 8a 6c e6 3e 5f 84 e1 bd 7f 8f 10 3e 26 ee 15 be
       0.45004684 -0.11011576 0.1411724 -0.14641628
0003c0 17 1a 03 be 6f aa 39 3d ad f9 2e be 65 52 06 3e
       -0.12802921 0.045328554 -0.17087431 0.13117369
0003d0 e9 7c 89 be 16 55 8a 3e 0f 1f 63 3d dc 30 ac 3d
       -0.2685311 0.2701804 0.05544954 0.08407757
0003e0 36 97 45 be bd e7 b0 3d d1 9a b5 be 11 1a 12 be
       -0.19295964 0.086379506 -0.35469678 -0.14267756
0003f0 9a a8 bf be 43 b5 bd bd 15 ef 92 ba bf 7b 2c bf
       -0.3743332 -0.092630886 -0.0011210168 -0.6737632

encoder.bias_ih_l0 f4 [128]
000000 c4 79 33 3d 76 99 04 bd 0f 08 46 bd 61 84 26 be
       0.043817297 -0.032372914 -0.04834753 -0.16261436
000010 6c 56 9d 3c 18 fc 00 be e5 03 9c 3d e2 14 2c be
       0.019206248 -0.12596166 0.0761793 -0.16804841
000020 c6 86 c2 3b 2a 31 5d bd ff 43 8c 3e 61 e3 80 3d
       0.0059364764 -0.054001965 0.27395627 0.06293369
000030 d5 f0 2d 3e ac 8a 56 3d 2e 1e 9a 3d 48 63 61 bc
       0.16986401 0.05237834 0.075252876 -0.013756581
000040 ce 57 2b be 84 55 66 3e 1d 42 1b 3e 65 13 14 be
       -0.16732714 0.22493559 0.15161939 -0.14460523
000050 de a1 50 3e b7 f9 71 be d3 7b 7c 3c 32 1a 40 3d
       0.20374247 -0.23630415 0.015410381 0.04689998
000060 e8 5a c4 3c 4d b5 c5 3d c9 e8 f9 bd 59 8f 8f 3d
       0.023969129 0.09653721 -0.12202603 0.07009763
000070 be 27 c4 3d 07 0b 3a 3d 36 da 84 bc 1a db 8e bd
       0.09577893 0.045420673 -0.016217332 -0.06975384
000080 7a ae 49 bd ee ad 0b be 3d e5 83 3d e7 92 69 bd
       -0.04923866 -0.13640568 0.06440208 -0.057024863
000090 8e 48 c3 bd 58 cd cc bd fb cb 2d 3e c5 1e 1b bd
       -0.09535323 -0.10000104 0.16972344 -0.03787114
0000a0 34 4a 79 3d e9 fc 38 be b9 80 1e 3e 03 50 03 3e
       0.06086178 -0.18065228 0.15478791 0.12823491
0000b0 9e 01 13 3e e0 a8 cf 3d 7a 64 b5 3e f6 1a 73 3e
       0.14356086 0.10139632 0.3542822 0.23740754
0000c0 9b 75 16 bc 3c 89 84 3e c2 2b ad 3c 7f 85 89 be
       -0.009183313 0.25885952 0.02113903 -0.26859662
0000d0 96 ef 64 3e 2e 43 17 be 4e bf d7 bd d4 81 3f 3d
       0.2235702 -0.14771721 -0.10534535 0.046754673
0000e0 b3 e4 9c bc 62 e9 c8 3c 9b ca 32 bd 3f 7e 96 3e
       -0.019152021 0.024525348 -0.04365025 0.29393193
0000f0 50 c9 1f 3e 31 54 88 3e ce d8 72 3d fc 88 14 be
       0.15604138 0.26626733 0.059288792 -0.1450538
000100 07 dd 79 3d 6c c0 ad bc 07 d8 5c 3d 8f 04 ac bc
       0.061001804 -0.021209918 0.053916957 -0.020998267
000110 ef 72 9e bd c7 00 5c 3c e8 de 75 bc a4 87 af bd
       -0.077367656 0.01342792 -0.015006758 -0.08570793
000120 50 69 2b be 09 e6 d0 3d cf 13 cf 3d 55 a5 1a be
       -0.16739392 0.10200126 0.101112 -0.15102132
000130 f0 0e 51 be 2f 84 30 3d 87 01 a2 3d 97 b9 0b 3d
       -0.20415854 0.04309481 0.079104476 0.03411254
000140 32 83 20 3e 95 9b c4 3d ec 2f 86 bb 7d 22 47 3c
       0.15675047 0.095999874 -0.004095068 0.012154219
000150 4c 96 19 3e bc 69 05 be 22 1c 19 bd 1b ee 3e bd
       0.1499874 -0.13028616 -0.037380345 -0.046613794
000160 f6 9a 0e 3e f6 13 f7 3d 26 06 80 3d ae 8b 15 3e
       0.139263 0.12064354 0.06251173 0.14604065
000170 c7 f8 77 3d 2b fd 32 3e 5a fc 8e bc f4 75 e2 3d
       0.060539987 0.17479388 -0.017454315 0.11057654
000180 e0 73 e7 3d 50 71 2b be b7 59 7a 3d 13 59 16 3e
       0.11301398 -0.16742444 0.061120715 0.14682417
000190 60 d5 2e bd 3f 42 6b bd 86 58 a7 3c 51 69 6f bd
       -0.04268396 -0.057436224 0.020427953 -0.058450047
0001a0 7c 9b d4 bd cf 53 bd 3c c0 38 30 3e f0 eb fc bd
       -0.10381219 0.023111252 0.17209148 -0.12349689
0001b0 9d 32 da 3b cf 2e 7a 3d fc 2a ee 3c 44 bb f8 3c
       0.0066588656 0.061079796 0.02907323 0.030362733
0001c0 c4 14 af 3a d9 47 0e 3d eb fd 77 3d 78 a1 b4 bd
       0.0013357629 0.034736488 0.06054489 -0.0881986
0001d0 62 a7 41 3e 76 09 ff bb c6 1f c1 3d 6f 31 c6 bc
       0.18911508 -0.0077831103 0.094298884 -0.024193494
0001e0 f3 6f dd 3d 7f 3e 67 3d 11 9e 46 bd dd df 67 3e
       0.10812368 0.056456085 -0.048490588 0.22643991
0001f0 7c e1 d7 3b 16 e8 13 3c 07 53 93 bc 04 5c 27 be
       0.006588159 0.009027502 -0.017983926 -0.16343695

encoder.bias_hh_l0 f4 [128]
000000 f4 66 9f 3d e6 ea a0 be 01 a8 0b 3e bf 41 ee 3a
       0.077833086 -0.31429213 0.13638307 0.0018177553
000010 c9 d5 1c be 8e 23 1e be 11 ef 00 3d e6 fd d1 bd
       -0.15315928 -0.1544325 0.03147799 -0.102535054
000020 4a ba 1c 3d f1 f4 b9 bd d4 e2 52 3c 6d 16 f1 bd
       0.038263597 -0.09079922 0.012871463 -0.117718555
000030 8a a1 74 3d d1 96 9b bd e2 c1 63 3e b2 c5 9e 3d
       0.05972437 -0.07597125 0.22241929 0.07752551
000040 fe 49 77 3d 63 11 b4 bb 41 ce 11 3e 79 6b a9 3d
       0.0603733 -0.0054952367 0.14238836 0.08272452
000050 94 bd 1c 3e 3d f1 86 3d 5c f5 26 be 27 32 af bd
       0.15306693 0.06588981 -0.16304535 -0.08554488
000060 7a bb e8 3d 50 04 bc 3c bd a1 0c be 1d c5 21 3e
       0.11363883 0.022951275 -0.13733573 0.15797849
000070 68 06 71 bb 7b 2d d4 bd 50 52 27 bd ff b5 f1 3d
       -0.00367775 -0.10360237 -0.040849984 0.11802291
000080 77 a2 27 3d 0a 67 85 bd c7 73 ff 3d 1f c3 37 bd
       0.040926423 -0.06513794 0.12473255 -0.044863816
000090 01 5d a8 be 76 9f 11 be e5 f8 29 3e 20 fd 88 be
       -0.32883456 -0.14220986 0.16598852 -0.2675562
0000a0 f7 a8 d2 bc a3 70 92 3d be 2b 86 bd 11 89 81 bd
       -0.025715334 0.0715039 -0.06551312 -0.063249715
0000b0 05 57 81 3e 2a 02 7e 3e d3 73 74 3e 46 6c a0 3d
       0.25261703 0.24805513 0.23872308 0.078331515
0000c0 2e ae e3 3d bf 90 5d ba e4 c9 9e 3c 14 33 0a be
       0.111172065 -0.000845205 0.019383378 -0.13496047
0000d0 90 65 0c 3d 01 45 00 3d 42 81 e6 3d 14 2b 63 3e
       0.034276545 0.031315807 0.11255123 0.22184402
0000e0 24 5a cd 3d 6a 44 4e 3e a4 84 e2 bc 12 9c 10 3e
       0.100269586 0.20143285 -0.027651139 0.14122036
0000f0 96 6f c1 bd ac 95 86 3e a9 7d 8f bc 98 66 63 3c
       -0.094451115 0.26286066 -0.017515974 0.013879441
000100 83 a9 ff bd ea ba b7 bb 19 49 41 3c 05 5d 81 bc
       -0.12483504 -0.0056069987 0.011797213 -0.015791425
000110 e6 92 06 bd c2 33 ad 3d 4f c3 4c 3d 4f 1c 7b 3d
       -0.032854937 0.08457138 0.04999095 0.061306294
000120 e1 1c 08 3e 1a 85 4c 39 54 a1 4c 3e b5 9f 44 3c
       0.13292266 0.0001950454 0.19983417 0.012000968
000130 ee 3d 3a bd ec 62 db 3d 75 d4 e6 bd ae c3 64 bd
       -0.045469217 0.10712227 -0.11270992 -0.055850677
000140 72 3b 05 bd e8 19 16 be e3 ee 34 3e e9 bf 46 bd
       -0.032527395 -0.1465832 0.17669253 -0.048522864
000150 43 ae 7a 3d 8a c7 06 3d 4f 1c 82 3e 61 53 0c 3d
       0.061201345 0.03290514 0.25412223 0.034259204
000160 49 ea 08 be b1 98 fc bd 85 7f cd 3d 16 5c 4e bd
       -0.13370623 -0.12333811 0.10034088 -0.05038079
000170 df 2b c1 3c e7 06 5f bb 83 96 80 3c 54 04 aa 3d
       0.02358049 -0.0034031214 0.01569677 0.08301607
000180 8f 2d 43 bd 6a df cb 3a ac 71 0a be 34 5c dd 3d
       -0.04765087 0.0015554253 -0.13519925 0.10808602
000190 65 8d fb bc d9 1d de 3d 1a ab 8f 3d de 70 5c be
       -0.03070707 0.10845537 0.07015057 -0.2152743
0001a0 65 c7 e5 bd b9 49 48 3b b1 b7 10 3e da a9 5d bd
       -0.11219672 0.003056152 0.14132573 -0.05411706
0001b0 49 57 04 3e 3e 7c f7 3d f4 85 62 3e 8d 4d 77 3e
       0.12923922 0.12084244 0.22121412 0.24150677
0001c0 fe 13 fa 3d 95 99 46 3e 9c d1 14 3e 50 5e 43 be
       0.122108445 0.19394524 0.14533085 -0.19078946
0001d0 67 19 03 3e 0a ac cf bd d2 cb 71 3d a2 be 44 3d
       0.12802659 -0.10140236 0.05903227 0.048033364
0001e0 ed 19 19 ba 56 e3 44 3e 23 b5 da bd 27 ab a5 3e
       -0.000584035 0.19227347 -0.1067908 0.3235714
0001f0 82 35 3e 3c c3 e1 11 3d 8e 88 22 3d 35 e8 a4 3b
       0.011609437 0.035615694 0.03968101 0.005032564

decoder.weight_ih_l0 f4 [128, 32]
000000 92 09 67 3d 6e a1 82 bd 69 71 bb bc 96 bd 13 3d
       0.05640561 -0.063784465 -0.022881227 0.036069475
000010 96 4f 3e 3e 4e dd 28 be c8 73 74 3e bd e9 8b bd
       0.18585047 -0.16490671 0.23872292 -0.068316914
000020 10 8b b6 3c 7f d1 8d bd f8 1b 66 bd 69 6d 37 be
       0.022283107 -0.06924724 -0.056179017 -0.1791283
000030 72 a2 00 3e 60 c5 a5 be 54 ce 62 bd 79 ee 20 bd
       0.12561968 -0.32377148 -0.05537255 -0.039289925
000040 0c 37 3d 3e 47 40 b1 3b ec 84 c7 bd 4b e9 50 3e
       0.1847803 0.005409274 -0.0974215 0.20401494
000050 3f a3 79 bd 29 4e 13 3c c7 dd c2 3b f4 cb 82 3e
       -0.0609467 0.008990803 0.005946848 0.2554623
000060 d9 4a 82 bd 15 d2 e8 bc e5 fa 60 bd 67 d6 3f bd
       -0.06361932 -0.028420487 -0.05492677 -0.04683533
000070 f5 19 08 be 15 55 fe 3d fe 3b 21 3e f9 f1 12 bd
       -0.13291152 0.12418572 0.15745541 -0.035875294
000080 ff 16 86 3e d6 e4 8b 3d ee 3b 30 be 93 62 f4 bd
       0.2618942 0.06830756 -0.17210361 -0.11932864
000090 a3 8b 5a be 21 2e 80 be e1 57 c5 bc bd af 0d bf
       -0.2134233 -0.25035194 -0.024089755 -0.5534628
0000a0 3a 10 04 3f d1 e8 a2 be 91 3b f4 bc 95 dc 79 3e
       0.5158726 -0.3181825 -0.02981356 0.24400552
0000b0 95 4b 33 3e f4 05 e0 3e f2 5d a3 be fe 4e 08 be
       0.17509301 0.43754542 -0.31907612 -0.13311383
0000c0 92 bc 45 be a2 35 0c 3f 44 b9 c2 be a8 76 90 3e
       -0.19310215 0.5476934 -0.3803197 0.28215528
0000d0 a1 f9 e7 be 8f ce 78 be e6 5e 28 bd 5c e7 e6 be
       -0.4530764 -0.24297546 -0.041106127 -0.45098388
0000e0 97 76 ea 3e 16 64 e1 3e 94 86 28 be 67 89 d3 bc
       0.45793602 0.44021672 -0.16457587 -0.025822354
0000f0 c2 ae c0 3e f3 2a 9b be 96 75 dd be b0 61 b4 bd
       0.3763333 -0.30306205 -0.43253773 -0.08807695
000100 c1 c9 c1 bd 8f b6 93 bd 8d 0a fa 3b 77 8c 0e bd
       -0.0946231 -0.07212555 0.0076306523 -0.034801926
000110 b1 19 8a bd e8 49 b4 3d f6 db 16 3d a6 02 a1 bd
       -0.067431815 0.08803159 0.036830865 -0.07861833
000120 32 ab b4 3d bf 6f 2c be 0a 7c 39 be f3 c1 60 3e
       0.088217154 -0.16839503 -0.18113723 0.21948986
000130 e2 05 02 be 3f 6f be 3d 2f 5d b8 be 8c 28 ea 3c
       -0.12697557 0.09298562 -0.36008593 0.028583787
000140 b5 a3 43 be 0f c1 0a be 4b 2c 62 3e 76 20 3c 3e
       -0.19105418 -0.13550209 0.22087209 0.18371758
000150 31 c9 80 3e dd 5d e6 be 75 f3 45 3d 76 45 57 3b
       0.25153497 -0.44993487 0.04832788 0.0032847798
000160 8c 18 66 bd 40 7b 91 bc 15 eb df 3d 52 c6 bb 3e
       -0.056175753 -0.017758965 0.1093351 0.36674744
000170 08 b0 91 3e a6 e8 1a be 54 8b 53 3c d3 44 03 3e
       0.28454614 -0.15127811 0.012911636 0.12819223
000180 ad a0 82 bc 25 83 8e 3e 0c e2 23 be 2d 01 13 3d
       -0.015945757 0.2783443 -0.16004199 0.035889793
000190 c7 7b 25 3e 6e d8 5e be e3 cc 7f be 4e 6f e0 3d
       0.16160499 -0.21762249 -0.24980502 0.1095873
0001a0 c1 7c 43 3e 69 61 51 be 4f b9 28 be 63 52 1a 3e
       0.19090559 -0.20447315 -0.1647694 0.1507049
0001b0 59 9f 07 be 09 79 0c 3c 54 75 7b bd 09 6b 3d be
       -0.1324438 0.008573779 -0.06139119 -0.18497862
0001c0 b2 3c b2 bd 21 f4 0f 3e 05 b6 7a be c6 c6 ab 3d
       -0.08702983 0.14057972 -0.24483497 0.083875224
0001d0 d3 b2 91 be be 39 dd bd 13 99 24 be b7 f3 d7 bd
       -0.28456745 -0.10802029 -0.16074018 -0.10544532
0001e0 f7 7b a7 bb 69 f4 d3 3d d8 49 8b be 95 c5 ff 3d
       -0.0051112133 0.10349352 -0.27204776 0.12488858
0001f0 0c bf 1e bd 96 64 88 bd 9b c0 fb 3d 9f 10 b0 bb
       -0.038756415 -0.0665981 0.12292596 -0.005373075
000200 81 d8 82 be 91 54 90 3e 7c e0 d7 bc 3a 33 ab 3d
       -0.25555804 0.2818952 -0.02635216 0.0835938
000210 b9 a5 61 3d 34 cc 6d be 5b 4a b3 3d fe 49 42 3d
       0.055089686 -0.23222429 0.087544166 0.047433846
000220 22 01 15 3e 4f cb be 3d 20 aa 70 bd 1d fc 63 3e
       0.14551213 0.09316122 -0.058755994 0.22264142
000230 ac 25 94 3e 13 14 44 bd 60 0b 7d be d3 75 e6 3b
       0.2893499 -0.047870707 -0.2471137 0.0070330887
000240 87 c3 12 be 5c cc 89 3e f7 36 32 be 4d ba c9 3d
       -0.143324 0.26913726 -0.1740378 0.09849987
000250 27 bc da be 1c b3 1a bd 6c 10 63 be 2d 92 9e 3d
       -0.42721674 -0.03776847 -0.22174233 0.077427246
000260 19 78 ee 3d 9a c6 ce 3d 3a e2 54 bd 95 7d 5e be
       0.116440006 0.10096474 -0.05197356 -0.21727593
000270 aa e5 0b be 80 36 20 be 3c 22 1f be 2e bd b8 3c
       -0.13661829 -0.1564579 -0.15540403 0.022551145
000280 52 73 69 be 0e 40 1a 3e b7 07 31 bd 41 fe 61 3e
       -0.22797897 0.15063497 -0.043220248 0.22069646
000290 44 9e e9 3c bc 36 78 be f5 ab 50 be d4 28 05 be
       0.02851785 -0.2423963 -0.20378096 -0.13003856
0002a0 bf 1a 65 bb 7a 28 a1 be 4d 0c c8 be 26 a6 2e 3e
       -0.003495857 -0.31476194 -0.39071885 0.17055568
0002b0 fb 17 16 3c ec d7 24 bd 1f fa 48 be c0 1a 28 be
       0.009160991 -0.04024498 -0.19626664 -0.16416454
0002c0 e7 a3 2f be c6 c8 9b 3e fe 05 91 be ec e7 74 be
       -0.17152368 0.30426615 -0.28324884 -0.23916596
0002d0 26 87 49 be 6d 39 94 bc c1 34 49 be 54 ad 35 be
       -0.19680461 -0.018093789 -0.1964903 -0.177419
0002e0 6f 1b f6 bd c6 ec 84 3e c1 94 21 be 6d a3 d2 3d
       -0.12016951 0.25961894 -0.15779401 0.10285077
0002f0 e9 e1 b0 3c 2e a5 eb bc 95 f2 64 be f6 e2 1d 3d
       0.021592097 -0.028765287 -0.22358163 0.038546525
000300 c9 24 3f 3e d6 89 9d 3e 4f 18 83 be 90 28 c7 bd
       0.18666376 0.30769223 -0.25604483 -0.097245336
000310 fc 3c 7d 3e 33 fa 30 be 08 d7 8a be fe f2 83 be
       0.24730295 -0.17282943 -0.2711718 -0.25771326
000320 e1 2a a0 3d cb 03 d7 be 43 ef 20 be bb 36 63 3e
       0.078206785 -0.4199508 -0.15716271 0.22188847
000330 20 dc 12 3e 2f 8f 98 bb 86 ea 97 bd ad 7a a8 be
       0.14341784 -0.0046557407 -0.07417779 -0.32906094
000340 63 10 96 be 0f e5 62 3d 81 8b a3 be 0c ac 8c 3e
       -0.29309377 0.05539423 -0.3194237 0.2747501
000350 ec c3 82 be 96 51 78 bd 4b eb 65 be c1 17 cb bc
       -0.25540102 -0.06062468 -0.22453038 -0.0247916
000360 d9 5a fd 3d dc 52 6b 3e 2f 53 08 be 18 02 33 bd
       0.123708434 0.22980827 -0.13312982 -0.04370317
000370 14 3c 31 bd ef 2b 6b be d9 3a 81 bd a4 bc c4 3d
       -0.043270186 -0.22965978 -0.063100524 0.09606293
000380 bf 4f 83 3e d5 86 24 bd 95 59 76 bd 67 b6 a8 bd
       0.2564678 -0.04016765 -0.060144026 -0.082379155
000390 c6 30 1f 3d 6b 54 74 3d 63 07 54 be 71 7f 24 be
       0.038864873 0.05965082 -0.20705943 -0.1606424
0003a0 7f 19 ca 3c 86 fe 9a bd 21 ab d2 3d a9 48 c4 3e
       0.02467036 -0.07568078 0.102865465 0.38336685
0003b0 69 85 b1 3d 64 fb 64 3d 41 bd c0 3c ec 32 a2 be
       0.08668024 0.055903807 0.023527743 -0.31679475
0003c0 51 34 f0 be 9a 08 5d 3e 50 3e 80 3d 2c 94 d1 3e
       -0.46914914 0.21585312 0.06261885 0.4093336
0003d0 44 53 d0 bd a1 81 aa be ad 79 6d bc ea 4e c6 be
       -0.10172132 -0.33302024 -0.014494342 -0.38732082
0003e0 e9 bc 2a 3e 97 a2 dc 3e 4a 9d 77 3d fb 9f f5 3d
       0.16673626 0.43092796 0.060452737 0.119934045
0003f0 ca 22 bd 3e eb da db be 91 9e 6b be 83 81 29 3e
       0.36940604 -0.4294046 -0.23009707 0.16553311

decoder.weight_hh_l0 f4 [128, 32]
000000 ce c1 1d 3e 56 c5 94 bd 0e 93 4c bc 43 0b 60 3e
       0.15405962 -0.07264201 -0.012486232 0.21879296
000010 10 15 9c bd 56 71 05 bf f4 ff 1b 3d 4d 70 3e 3e
       -0.07621205 -0.5212606 0.038085893 0.18597527
000020 a0 c0 c2 3e 3b cc 30 3e 04 81 09 3e 24 3b 4d 3e
       0.38037586 0.17265408 0.13428122 0.20042092
000030 ad e5 e2 3d e4 7a 61 3d fc 18 d8 be 04 9b c4 3d
       0.110789634 0.05504884 -0.42206562 0.095998794
000040 53 c8 16 3c d9 30 81 be 3c 4d 7a 3e 5d da cd bc
       0.009203034 -0.2523258 0.24443525 -0.025128538
000050 59 97 92 3e 21 95 b6 bd 11 e9 32 be 20 2a 7e be
       0.28631094 -0.08915163 -0.1747172 -0.24820757
000060 46 5a 8f bd 06 59 b8 3d ab f7 e9 bd 75 b0 cc 3e
       -0.0699964 0.09001355 -0.11424192 0.39978376
000070 40 6f 09 3e ae 9f a9 3e 41 67 a0 be f7 73 01 3e
       0.13421345 0.33129638 -0.31328776 0.12641893
000080 d1 a5 f8 bd e4 b9 84 be b8 c4 4e bd 6c 21 7f 3e
       -0.12141002 -0.25923073 -0.050480574 0.24915093
000090 0a 10 02 3e ec 75 41 be 8a a0 ea be fb cc b0 bd
       0.12701431 -0.1889264 -0.45825607 -0.08632847
0000a0 55 f2 0e 3f d0 1c 14 3f ba 63 49 be ef e0 26 be
       0.5583852 0.57856464 -0.19666949 -0.16296743
0000b0 1b 36 ef 3d 36 30 2e be b4 7a 3c bd df e2 85 be
       0.11680242 -0.17010579 -0.046015456 -0.2614965
0000c0 56 ca 81 be ef 52 e1 bc fe a5 d9 bc b6 7a 80 bd
       -0.25349683 -0.027505366 -0.026568409 -0.06273405
0000d0 dd 55 18 be f7 19 b3 be aa 3e 81 3e 42 1b f6 3d
       -0.14876504 -0.34980747 0.2524312 0.12016918
0000e0 b5 a7 21 3e 6c 9d 36 be 89 89 45 3e bc db 0e 3e
       0.15786631 -0.17833489 0.19290747 0.1395101
0000f0 c9 19 de 3e 16 c5 78 3e 9a 31 2b 3e af 31 6d 3d
       0.43379048 0.24293932 0.1671814 0.05790871
000100 ca 10 43 3e ce b8 a0 be f8 76 9c 3e b3 12 02 3f
       0.19049373 -0.31390995 0.30559516 0.5080978
000110 97 6e e4 bd ac 51 31 be bf 32 ac bd a9 bf 7d 3e
       -0.11153906 -0.17316312 -0.084081165 0.24780144
000120 ff 11 dd bc b0 81 7e 3e f7 84 d8 3d 4a 6b bd 3a
       -0.02698612 0.2485416 0.10572236 0.001445153
000130 a4 ce 92 bd d3 e9 18 be e5 dc 22 3d 5f 15 03 bd
       -0.0716832 -0.14932947 0.039761443 -0.032002803
000140 8e 08 20 bf 7e ef a5 3c e3 d8 1e 3e 53 bf 31 3e
       -0.62513053 0.0202558 0.15512423 0.1735814
000150 a9 20 a9 3d aa 8c ff 3e d8 0d fe 3e 2c 51 a0 3d
       0.082581826 0.49912006 0.49619937 0.07827982
000160 58 2a b6 bd 48 0c 5c 3d 8f ed bb 3d 1e 12 f4 3d
       -0.08894795 0.05372265 0.0917617 0.11917518
000170 2f 95 63 3e 41 ae 15 3e 40 50 0d 3e 98 b6 af 3e
       0.22224878 0.14617254 0.13800144 0.34318995
000180 14 1d 0f 3d a3 93 41 bf 6e d5 dc 3c d5 c0 2f 3e
       0.03493984 -0.756159 0.02695724 0.17163403
000190 09 e1 d7 3c ee 93 74 be 0a ae 88 be ed a1 6d be
       0.026352422 -0.23884556 -0.2669528 -0.23206301
0001a0 5f 27 1d 3d 85 0d f0 3e 4e 8d 9c be 81 8e 37 be
       0.038367625 0.46885315 -0.30576557 -0.17925455
0001b0 9d 35 cb be 49 47 84 be 16 85 c5 be 36 cd d1 bd
       -0.3968934 -0.25835636 -0.385781 -0.10244219
0001c0 0e 40 3a be d3 64 cc be 67 ae 34 be 42 74 38 be
       -0.18188497 -0.39920673 -0.17644654 -0.18013099
0001d0 7d 21 c0 bd f3 27 04 be 87 72 fd 3e e4 f8 2c be
       -0.093813874 -0.12905864 0.4950144 -0.16891819
0001e0 2e 19 89 3e 03 2f c9 bd 3b 9d 84 3e b6 58 60 3e
       0.26777023 -0.0982342 0.25901207 0.2190884
0001f0 fd 93 b6 3d f2 3c cc 3e 15 ca cd be 00 70 6a 3e
       0.08914945 0.39890248 -0.4019324 0.22894287
000200 27 7f 20 be d1 4c ab be b9 f7 56 bd 76 aa d4 3e
       -0.15673505 -0.33457044 -0.05248234 0.415363
000210 0d 61 a1 3d 82 2e 5d be d9 e5 28 bf 32 f1 d7 bd
       0.07879839 -0.21599773 -0.6597572 -0.10544051
000220 76 17 8b 3e b4 35 8d 3e b7 9f f3 bd dc 03 47 3e
       0.27166337 0.27580035 -0.118956976 0.19435066
000230 f8 92 cb bd 0b 76 43 be 69 ba 49 be 14 67 5e be
       -0.099401414 -0.19087999 -0.19700016 -0.21719009
000240 c6 37 c7 be af c8 74 be f0 96 9b be a1 01 bc 3d
       -0.3890974 -0.2390468 -0.30388594 0.09179998
000250 39 8e 09 3e 51 ec b6 bd 39 8b 14 3e 9f 37 13 be
       0.1343316 -0.089317925 0.14506234 -0.14376687
000260 d9 cb a3 3e 53 45 54 be e3 87 27 3e 01 c0 98 3d
       0.3199146 -0.2072957 0.1636043 0.07458497
000270 e7 e0 05 3f f1 89 1d 3f a7 04 a7 3d 07 cf 21 be
       0.522963 0.61538607 0.08155184 -0.15801631
000280 a1 9e 0e 3e ce c8 09 be 05 72 c6 be 3a a3 b6 bd
       0.139277 -0.13455507 -0.38758865 -0.08917852
000290 fa 1d fa be d8 de ff bd 55 53 cf 3e 60 9d d3 3e
       -0.48850995 -0.12493676 0.40493265 0.41331005
0002a0 79 a0 01 be 0d 20 52 3e 59 f0 24 3e 95 b7 37 be
       -0.12658872 0.20520039 0.1610731 -0.17941125
0002b0 ce db 88 3c 0c c1 58 3e e0 3a a4 bc 8b 3b c5 3e
       0.016706374 0.21167392 -0.020047605 0.3852199
0002c0 c0 04 7f 3e 6a aa 7d be 06 de f4 bd bf 81 9e be
       0.24904156 -0.24772039 -0.1195641 -0.30958363
0002d0 0c 19 8a bd ac 4d 89 be ed e5 36 3e 36 e3 9c be
       -0.067430586 -0.2681707 0.17861147 -0.30642098
0002e0 e4 59 88 be 69 49 c9 be 35 54 d8 3c 32 ea 3d bc
       -0.2663108 -0.3931382 0.02640734 -0.011591481
0002f0 3f 2b 93 bd 04 65 89 be e2 57 10 bf 3a 8b a4 3d
       -0.07185983 -0.2683488 -0.563841 0.08034368
000300 bf c9 7e 3e 9a 62 de be 9e 3b b8 bd 31 22 06 3c
       0.24881648 -0.43434602 -0.08995746 0.008186863
000310 23 dc b8 be 86 6a 92 3d 87 c6 48 bb 97 79 3f 3c
       -0.3610545 0.07149224 -0.003063591 0.011686704
000320 30 38 1a be 9d d4 aa 3e 36 16 65 ba c9 5c f5 bc
       -0.15060496 0.33365336 -0.00087389664 -0.02995147
000330 0e 5e 69 be 96 18 c1 be 3c aa 3c bb 3a 0f 23 3d
       -0.22789785 -0.3771407 -0.002878799 0.039809443
000340 18 eb 9d be 58 72 c5 be d8 ce 8d be 0a 7d e5 bb
       -0.30843425 -0.385638 -0.27696872 -0.007003431
000350 89 e0 7d be 46 05 01 3d 84 1f e6 3e 71 b1 94 be
       -0.24792685 0.03149917 0.4494592 -0.29041627
000360 ce 26 04 bc d4 dd cc be 4b 0c 9f be 24 30 20 3d
       -0.008065892 -0.4001299 -0.31064066 0.03910841
000370 7a 5a da 3d 4e 99 0b 3e e4 e7 15 bf 52 2e 31 bc
       0.10661788 0.136327 -0.5855696 -0.010814266
000380 05 ef d6 3e ef b9 b3 bc c0 f6 78 3b 2f 73 4c be
       0.41979232 -0.021939246 0.0037988871 -0.19965814
000390 54 fd a6 be b5 6a 84 be cb a6 07 3e 05 5d 4a be
       -0.3261515 -0.2586266 0.1324722 -0.19762047
0003a0 73 5b 46 be ec b3 a9 3e 30 d0 8e 3e 41 a8 8e be
       -0.19370823 0.33145082 0.2789321 -0.27862743
0003b0 80 52 55 be 94 50 3e be f4 5d 3e be 27 b0 ea 3d
       -0.20832253 -0.18585426 -0.18590528 0.1145938
0003c0 c5 77 83 3e 42 b3 f7 be b1 5b b1 be c7 33 4e be
       0.25677314 -0.4837895 -0.34640267 -0.20136939
0003d0 e1 37 ff be c6 35 9a be d8 08 61 3e 91 4f cc be
       -0.4984732 -0.3011915 0.2197603 -0.39904454
0003e0 1a 41 b2 bd ec fb 48 be 35 f0 80 be 60 35 c0 be
       -0.087038234 -0.1962735 -0.25183263 -0.37540722
0003f0 ed d9 ca bc 58 db 00 3f b2 d1 c0 be 70 8c aa bd
       -0.024762118 0.5033469 -0.37659985 -0.083275676

decoder.bias_ih_l0 f4 [128]
000000 3a 45 2e be 2a 2c bf 3d ce d1 7e 3d 77 8e ab be
       -0.17018595 0.093345955 0.062211804 -0.3350713
000010 07 16 0a 3d 4f 31 44 bd 5a bf 8d 3e 82 06 78 3e
       0.033712413 -0.047898587 0.27685052 0.24221233
000020 b9 a1 3b 3e ce 41 d1 3e 3d 00 cc bd e2 59 a2 bd
       0.18323411 0.40870517 -0.09960983 -0.079273
000030 e0 40 fe bd eb ed bb 3d a1 a3 b9 3c ec fa 74 3d
       -0.12414718 0.091762386 0.022661032 0.05980961
000040 6b 19 b0 bd 1a ee 29 be 82 3f 07 3e 9c 57 01 be
       -0.08598598 -0.16594735 0.1320782 -0.12631077
000050 44 ef 86 be 5b a4 6e 3e b8 54 49 bd 6d ce b1 bc
       -0.2635442 0.23304884 -0.04915306 -0.021704877
000060 21 26 42 3e 26 0a 32 3b 7f 1a 28 be 81 a8 92 be
       0.18959858 0.0027166693 -0.16416357 -0.28644183
000070 54 47 15 be 5d 12 61 3e 4f 82 24 3e 4c 3e 98 bc
       -0.14577991 0.21979661 0.16065334 -0.018584393
000080 bf b0 e4 bd 92 42 2c bd 79 43 94 be 50 e8 c5 3d
       -0.11166524 -0.042055674 -0.28957728 0.09663451
000090 9f 02 16 3e ad 5a 04 3c 55 ce 6c 3d 98 7f 3a bd
       0.14649437 0.008078259 0.05781396 -0.04553184
0000a0 84 d7 48 bc 11 ca 20 3e 3e 1e cb bc ac ec 73 be
       -0.012258414 0.15702082 -0.024794694 -0.23820752
0000b0 a1 04 bc 3d 69 9d f3 3d 1a ec 5f 3e df f9 5f 3e
       0.091805704 0.11895258 0.2186741 0.21872662
0000c0 61 b9 11 3e df d9 34 3e 90 29 29 be 07 e0 75 be
       0.14230873 0.17661236 -0.16519761 -0.24011241
0000d0 89 e1 48 be b7 6b 6e 3a 30 70 84 be 0d ab 8e 3d
       -0.19617285 0.000909503 -0.25866842 0.06966219
0000e0 bb 98 59 3d e2 99 33 be 78 75 0b be 9a 3c 0a be
       0.05312417 -0.1753917 -0.1361903 -0.1349968
0000f0 9b b3 e7 3d 86 c9 f5 3d a4 ce d1 3c 9d b1 38 3e
       0.11313554 0.12001328 0.02561123 0.18036504
000100 04 21 0d bd 5c ba c2 3d 48 35 a3 bd 24 50 c7 3d
       -0.034455314 0.095082015 -0.07969147 0.097320825
000110 47 6f 32 be 72 be 0f be 1c 0e 4e be 91 bb f5 bd
       -0.17425261 -0.14037493 -0.2012257 -0.11998666
000120 ae 45 8d 3d d1 64 fb bd d2 2b d7 3d 6f c3 10 be
       0.06898056 -0.122750886 0.10506405 -0.14137052
000130 4e 6a 92 bd 93 f3 9f 3b d9 cb 19 3d 89 98 9e 3d
       -0.07149182 0.004881331 0.03754792 0.077439375
000140 2f 07 2b 3e 24 91 b4 bc f6 96 44 3d 0d fd 7f 3d
       0.16701959 -0.022041865 0.04799553 0.062497187
000150 2e ba ff bd aa 56 a2 bd d3 be ca bc 57 a9 f1 bd
       -0.12486683 -0.07926686 -0.024749195 -0.11799877
000160 11 0a bd bd 47 39 10 3d ba 06 24 3d e3 00 0b 3d
       -0.09230436 0.035210874 0.040045477 0.033936393
000170 81 44 8c 3d 39 d6 26 3e c7 3f 91 3e 1d c7 3f bd
       0.068490036 0.16292657 0.2836897 -0.04682075
000180 69 5e cb bd fc 2a c1 3e d5 32 9c 3d 80 15 5a be
       -0.09930117 0.37728107 0.07626883 -0.21297264
000190 8b 0e 0d 3e 91 73 b0 bd 67 78 c1 3d 91 4e 54 bc
       0.13775079 -0.086157925 0.09446793 -0.012958185
0001a0 85 e4 9b 3d 0d 3a 7a 3e 53 28 33 bb ce 8f 8e bd
       0.07611946 0.24436207 -0.0027337268 -0.06961022
0001b0 df 82 14 3e 1c d1 da 3d ab 00 87 3e ff c2 9f bd
       0.14503048 0.10684416 0.26367697 -0.078008644
0001c0 74 b8 f4 bd da f3 e6 3d 80 8c ab 3d b7 1a bc be
       -0.11949244 0.1127698 0.083764076 -0.36739132
0001d0 ed 5c 8f bb 90 3d 8c 3c 22 a8 a1 be 72 50 e8 bc
       -0.0043750913 0.017119199 -0.31573588 -0.028358672
0001e0 31 a6 8a bd 1b 2b 16 bd f5 56 92 be 93 38 9a bc
       -0.0676998 -0.036662202 -0.28581968 -0.018825805
0001f0 f8 f1 84 3d 44 c1 6a 3e d2 0d 86 3e d3 9f 94 bd
       0.064914644 0.22925287 0.2618242 -0.072570466

decoder.bias_hh_l0 f4 [128]
000000 32 26 db bd a9 9b 84 3e 11 3b 21 3e 7b 9b 0d be
       -0.107006446 0.2590001 0.15745188 -0.13828842
000010 d0 85 5f 3d 5c e0 09 be 43 e1 81 3e 79 4a fd 3d
       0.054570973 -0.13464493 0.25367174 0.1236772
000020 95 bd 47 3d 36 e6 87 3e bd ba 49 be f2 49 36 bd
       0.048764784 0.26542825 -0.19700141 -0.044504113
000030 eb e8 7d 3d b4 4b 14 3d f8 e4 2d 3d b7 72 67 3d
       0.061989706 0.03620501 0.04245469 0.056505885
000040 66 ce 0c 3d ed 00 e1 3d 3f 4f 44 bd e0 05 d0 bd
       0.034376524 0.10986505 -0.047927137 -0.101573706
000050 38 dc 7b 3b ea 9e 90 bc 7c 92 54 be da 98 1e 3e
       0.003843082 -0.017653901 -0.20759004 0.15487996
000060 d3 ec 0f 3d 01 52 13 3e 65 fe 54 3c b8 79 eb bc
       0.035137963 0.14386751 0.0130001055 -0.028744563
000070 e8 16 f1 3d ec af 30 3e e7 08 96 3e 0d c6 15 bd
       0.11771947 0.17254609 0.29303667 -0.03656583
000080 7e c2 b6 bd 48 0a b9 bd cc fa 1e 3c 10 b1 44 3c
       -0.08923815 -0.09035164 0.009703349 0.012005106
000090 3c 34 1d 3d 9e db d4 3d a7 58 31 3e 45 76 53 3d
       0.038379893 0.10393451 0.17318974 0.051626462
0000a0 0e 80 61 3d 7d 99 86 bb a3 81 27 bd b6 50 3b be
       0.055053763 -0.0041076527 -0.040895116 -0.18292508
0000b0 41 5a 12 be 07 4e 11 3e 73 b7 0e 3e 88 3e 2e 3d
       -0.14292242 0.14189921 0.13937168 0.042540103
0000c0 ee be 50 3e 12 a8 12 3e 5f 99 49 be 9f ab 7b be
       0.20385334 0.14321926 -0.19687413 -0.24577187
0000d0 ed de 7f be 57 f8 68 3e 08 39 ac bd 1e 22 da 3d
       -0.24987383 0.22750984 -0.08409315 0.106510386
0000e0 21 0f 18 be 0f 3c b7 3d c4 5b b0 bc 3c 64 91 bd
       -0.14849521 0.08947002 -0.021528132 -0.07099196
0000f0 54 a2 0d bb c5 cd c2 3d ed a7 7c 3e 9f 6c 8c bd
       -0.0021611648 0.09511904 0.24673434 -0.06856655
000100 53 5b f7 bc 92 08 5e be ca 5e eb 3d 9b 49 aa bc
       -0.030194914 -0.21682957 0.11492689 -0.020787051
000110 b8 f3 8f 3d 4b 9d 05 bd f9 35 60 be 18 a9 dc 3d
       0.070289075 -0.03262071 -0.21895589 0.107744396
000120 a4 de 2f 3e 08 90 44 3c dd 0a f8 3c 72 e1 e7 3d
       0.17174774 0.01199723 0.030278618 0.11322297
000130 cf fc 08 3d 06 e0 67 bd 46 34 7c bd db 3b 0a 3d
       0.033444222 -0.05661013 -0.06157329 0.03374849
000140 8e f0 d1 bd 48 73 af bd 70 b0 55 bd 02 2e d0 bd
       -0.1025096 -0.0856691 -0.052170217 -0.10165025
000150 94 c6 04 3e b7 a6 d2 3d f9 53 7e 3d b4 f5 18 3e
       0.12966377 0.102857046 0.0620918 0.14937478
000160 cd c9 7f 3d 7e 4c 19 be 0b be d6 3b e9 76 66 bd
       0.06244831 -0.14970586 0.0065534166 -0.056265745
000170 93 46 03 3e f5 4f 0d bc 9c dc a3 bc b9 64 4e 3d
       0.1281989 -0.00862502 -0.020002656 0.050389025
000180 07 ff 00 bd ea d6 27 3e da 4b 30 3e a5 df 7f 3b
       -0.031493213 0.16390577 0.17216435 0.0039043215
000190 41 59 fe bc b8 96 22 be cc 01 7f 3e 75 0c 63 3e
       -0.031048419 -0.15877807 0.24903029 0.2217272
0001a0 a3 a7 cf 3d 4a 5d d0 3e 42 35 1d be fd ce 39 bd
       0.10139396 0.40696174 -0.15352347 -0.045363415
0001b0 1f b9 a5 3d e7 fb c6 3d 6a 8c 92 3e 3e f8 cf bd
       0.0809195 0.09716015 0.28622752 -0.1015477
0001c0 d9 4c b2 3b 62 54 48 bd b3 92 3a bd 18 f6 58 be
       0.00544129 -0.0489086 -0.04555006 -0.21187627
0001d0 0a 7c 8b 3c 83 00 1f 3d 39 28 86 be cf f5 2e 3e
       0.01702692 0.038818847 -0.26202562 0.17085956
0001e0 59 ff 75 bd bc 6b a3 3d 5d c8 87 bd 21 bf 15 be
       -0.06005797 0.07979533 -0.06630013 -0.14623691
0001f0 5b 0a bf bc da b4 4c bd 7f 36 29 3e c1 9c 48 3e
       -0.023320368 -0.04997716 0.16524695 0.19591047

output_layer.weight f4 [8, 32]
000000 9e 75 4f 3e 4a cb dc bc 03 aa bf bd 46 28 22 bd
       0.20259711 -0.026952405 -0.09358599 -0.03958919
000010 92 95 86 be 6b 7f 41 be 70 2b 92 3b de e0 b6 3d
       -0.26285988 -0.18896262 0.0044607446 0.08929609
000020 09 c9 06 be ec ca 54 be 49 57 b6 3d 1a fa c4 3e
       -0.13162626 -0.20780534 0.08903367 0.38472062
000030 03 2e 22 3e 1d 3c 16 be 1a 28 eb 3d e4 72 3a 3c
       0.15837865 -0.14671369 0.11482258 0.011379931
000040 25 75 21 be 01 68 2c be fd 95 49 be 6c 21 38 3e
       -0.15767343 -0.1683655 -0.19686122 0.179815
000050 a7 91 ac bd 65 2c 04 be b5 45 be 3b 47 cb 1e be
       -0.084262185 -0.1290756 0.0058066496 -0.15507232
000060 5a 2f 3f 3d e3 cf 29 be ae bc 2e be 2c 5a 1f 3e
       0.046676017 -0.16583209 -0.17064163 0.15561742
000070 96 2f cf 3d f9 83 45 be d0 bf 00 be c1 7c 93 3d
       0.10116498 -0.19288625 -0.1257317 0.07201529
000080 b2 00 b0 bd e1 fe fa 3d 3a c1 81 3e c0 bc cd 3b
       -0.085938826 0.122556455 0.25342733 0.0062786043
000090 66 18 69 bb 30 c6 7f bb 8d 2f 25 bd 57 74 f4 3c
       -0.003556752 -0.003902804 -0.04032855 0.029840631
0000a0 7e 7d 13 be 76 b6 2e 3e a3 10 10 bd fa c6 15 3e
       -0.1440334 0.17061791 -0.035172116 0.14626685
0000b0 d3 54 ea 3d d9 46 ee bc e0 87 98 3d 78 05 85 bc
       0.1144196 -0.029086517 0.07447791 -0.01623796
0000c0 39 f9 2e be 76 08 c7 bb 82 2d 03 3e 66 67 26 3e
       -0.17087258 -0.0060740067 0.12810329 0.16250381
0000d0 13 e2 b1 3d 71 ab dc 3c 37 ef 63 be 6f 0c 57 3d
       0.08685698 0.026937218 -0.22259222 0.052502092
0000e0 86 eb 8c bc b6 d6 24 3e 9d 6d 3e 3e 15 bb 1e 3e
       -0.01720215 0.1609753 0.18596502 0.15501054
0000f0 03 c0 28 bc 7d 93 85 bd f4 e1 bb 3c bb 11 02 be
       -0.010299685 -0.06522272 0.022934891 -0.12702076
000100 77 2e 0b be a2 97 98 be 7f 8a 9f be 24 a4 3a 3e
       -0.13591944 -0.29803187 -0.31160352 0.18226677
000110 96 91 57 3e df 0c 64 3d fc 89 04 be 7e 5f 20 be
       0.2105163 0.055676337 -0.12943262 -0.15661427
000120 f9 59 02 bd 7a 1b 7b 3e 4a 66 34 be c6 84 f2 3e
       -0.031824086 0.245222 -0.17617145 0.47366923
000130 3d 7e af bd 72 9b 1c 3d 58 a0 fc 3c 69 53 a1 be
       -0.08569 0.03823418 0.030838177 -0.3150895
000140 43 e2 99 be 20 50 82 3d 68 a5 0a be 9a c9 f8 bd
       -0.30055436 0.06362939 -0.1353966 -0.121478274
000150 00 d3 f4 bd e9 c0 b0 bc 54 75 66 3d 8f 94 90 3c
       -0.119543076 -0.021576362 0.056264237 0.017648963
000160 a8 ab 6b 3e 97 a3 43 be 1e ae d7 ba 3d 96 26 bd
       0.230147 -0.19105373 -0.0016455089 -0.040670622
000170 9f 6c e4 3d 02 9b d7 bd 50 ae 97 be cd f6 12 bd
       0.1115353 -0.10527612 -0.29625177 -0.0358799
000180 4f 23 bd bd 6e 47 7c 3d b3 d0 0d 3e 7f 1f 3a be
       -0.0923525 0.06159156 0.13849144 -0.18176077
000190 97 90 12 bc 40 45 0e 3d 14 40 8c 3d 06 c9 7a bd
       -0.008945606 0.03473401 0.068481594 -0.061226867
0001a0 c1 fe 62 be 84 85 2e 3e 5c 1d 48 3d 12 70 b8 3e
       -0.22167493 0.1704312 0.048856124 0.36023003
0001b0 3b a7 3a 3e 96 03 54 3e 6f 0b 83 bc e5 a2 99 3c
       0.18227856 0.20704493 -0.015996663 0.018754432
0001c0 c4 0d 60 bd b2 b1 b1 3e 0b 92 92 3d 25 06 2e 3e
       -0.054700628 0.34705883 0.07156762 0.16994531
0001d0 78 20 84 3e 35 8a e5 bd 5c 8d 6e 3d 82 90 8f bd
       0.25806022 -0.112080015 0.05824028 -0.070099846
0001e0 a2 12 02 bd ef 6b 12 3e 21 1f 3b 3d e9 33 90 bc
       -0.03175605 0.14298986 0.045683984 -0.017602878
0001f0 d5 81 3d be d6 d2 d9 3c 40 d0 a2 bd cd 1f 0c 3c
       -0.18506558 0.026589792 -0.07949877 0.008552504
000200 c2 82 74 3c 89 29 56 bd 28 05 06 bd 06 1c 94 bd
       0.014923753 -0.052285705 -0.03271976 -0.072319075
000210 7f 80 2a 3e b7 6c 02 bd 5d 24 2b be 25 fe 87 3c
       0.1665058 -0.03184196 -0.1671309 0.016600678
000220 81 6d 47 bd 31 c7 13 3e 38 ee 01 be ea 7d 94 3d
       -0.048688415 0.14431454 -0.1268853 0.07250579
000230 bd 1e 27 3c 4a b5 25 3e c9 9a 0a 3e e2 ba bf 3d
       0.0102002 0.16182438 0.13535608 0.09361817
000240 98 9e a3 bc f8 e4 51 bc 35 71 5a 3d 0f d1 6c 3e
       -0.019973084 -0.012810938 0.05333062 0.23126625
000250 de 6b 0c 3e fa aa 10 3e 2f 30 ea bc a6 20 f7 bd
       0.13713023 0.14127722 -0.028587429 -0.12066774
000260 c0 32 4b 3e 72 b4 f2 3d b7 70 4d bd 6a 01 b8 3d
       0.19843578 0.118508235 -0.05015632 0.08984645
000270 0d 5a 2c 3d d0 f1 4b bd 59 61 d0 bd 65 b7 87 3d
       0.042078067 -0.049791157 -0.101748176 0.066267766
000280 fc db 67 be 38 18 cf 3d 4b 67 d9 bc fa 4d d5 bd
       -0.22642511 0.10112041 -0.026538512 -0.104152635
000290 4a ea 0c be 69 b5 a5 3c 2c 5b fd 3d 30 4a 25 be
       -0.13761249 0.020228105 0.12370905 -0.16141582
0002a0 d2 92 77 3d 66 c8 57 3c 72 8c 3d 3e 3e c4 01 be
       0.060442753 0.013170337 0.18510607 -0.12672517
0002b0 a1 cf bc bd 10 dd 5b 3d ed 70 35 3d f1 78 a9 3e
       -0.092192896 0.05367762 0.044297148 0.33100083
0002c0 aa 7e e5 3d 13 ca 35 3e 9b 5b a1 3d 88 3b 02 be
       0.112058 0.17752866 0.078788005 -0.12718022
0002d0 ec 45 c7 3c 58 93 d0 3d fb 26 c2 bd d9 4d 85 3c
       0.024325334 0.101843536 -0.09480091 0.016272472
0002e0 07 4e 35 be b8 70 a2 3e b1 a0 ae 3c fc 0c 36 be
       -0.17705546 0.31726623 0.021316858 -0.1777839
0002f0 d2 85 42 be d8 e3 82 3e d7 2d 84 3d f1 be 61 3c
       -0.18996361 0.25564456 0.06454056 0.013778434
000300 91 89 30 3d 84 f6 0e 3f 00 8e ec bc f2 06 48 3e
       0.043099944 0.55844903 -0.028876305 0.195339
000310 3b 31 8e 3e 67 86 ac 3e 28 46 c9 3e 14 9c b2 3e
       0.27771935 0.3369629 0.39311337 0.34884703
000320 5b b6 fd be 81 0b 57 be 0c 55 90 be 11 5a 86 3e
       -0.4955319 -0.21000482 -0.28189886 0.2624059
000330 c1 96 2c 3e 4d e9 8f bd 84 9a c5 3d e7 8a 0a bd
       0.16854383 -0.070269205 0.09648612 -0.033823874
000340 f0 a1 8b be 2d 03 45 3e 10 5f 26 be 42 b0 6d 3e
       -0.27271986 0.19239493 -0.16247201 0.23211768
000350 54 42 0c 3e 8e 54 11 3f b7 96 98 be bd f9 88 3d
       0.13697177 0.56769645 -0.29802486 0.06688259
000360 26 c5 b0 bd 29 ec ba 3e 32 64 79 be 22 34 54 be
       -0.08631353 0.365083 -0.24354628 -0.20723012
000370 44 96 36 be 24 04 23 bd f2 13 32 be 4e 1b 09 3f
       -0.1783076 -0.03979887 -0.17390421 0.5355729
000380 43 2d 1f 3e 07 9e 1c be c3 1d 7d bd 88 9d 3c bc
       0.1554461 -0.15294658 -0.06179596 -0.011512168
000390 37 6b 14 be 9d ce 13 3e 54 ee 11 bd c2 40 ed bd
       -0.14494024 0.14434285 -0.035627678 -0.11584617
0003a0 af f7 ff bd 22 66 12 bd 93 a4 f7 3c 79 0d bb 3d
       -0.12498414 -0.035741933 0.030229842 0.09133429
0003b0 94 68 3c bd d7 ae 16 bd 77 38 4e 3e fd 62 19 be
       -0.04599817 -0.036787834 0.20138727 -0.14979167
0003c0 db 1b f9 bd 1d 16 d4 3d 69 05 c7 bd f3 01 e9 3d
       -0.12163516 0.1035578 -0.09717829 0.11377325
0003d0 22 57 b8 bd 78 7c 2e be 19 87 8c bc dc f2 41 be
       -0.09000994 -0.17039669 -0.017154263 -0.189403
0003e0 04 9e 6e 3d 4f 71 8c be 78 38 7f 3c f7 82 89 3b
       0.058256164 -0.27430198 0.015577428 0.0041965204
0003f0 18 83 4d bd 98 3f 2a 3d f4 f2 10 3e cc 67 be 3b
       -0.05017385 0.041564554 0.1415518 0.0058107134

output_layer.bias f4 [8]
000000 a4 24 92 3d e9 74 73 be a9 25 a9 bd 9e 24 43 bd
       0.07135895 -0.23775066 -0.08259136 -0.047642343
000010 9c 2b 4b be 9a 2a f2 3d ff f1 ed bd d6 2e f3 3d
       -0.19840854 0.11824532 -0.11618423 0.118741676
