model-service/models/load_dict/anomaly-detection/bookings_anomaly_detection.pth (torch, 57960 bytes, 10 tensors)

encoder.weight_ih_l0 f4 [128, 6]
000000 41 30 81 3e b6 7f 42 be 7f 3b 66 3e e9 ea f7 bd
       0.25232127 -0.1899403 0.22483633 -0.121053524
000010 42 ea 22 be ba 5d 54 3e 09 fe 54 3c f7 48 da be
       -0.15909675 0.20738879 0.01300002 -0.42633793
000020 4a cf 8c 3e f4 fb 1a be c0 b8 84 bc d0 23 c2 bd
       0.275019 -0.15135175 -0.016201377 -0.09479487
000030 88 07 33 3e ed 7d a2 3e 87 f6 e9 3e 64 aa 63 bd
       0.17483342 0.317367 0.45695898 -0.05558242
000040 1d 95 2c 3e 6c 1a 02 3f 12 2a 0f 3d d3 85 77 3d
       0.16853757 0.50821567 0.03495223 0.06043036
000050 52 df 8b 3c 5b aa e6 bd b8 05 4e bd c5 d3 03 3e
       0.01707426 -0.112629615 -0.050298423 0.12873752
000060 d0 0a 8f 3d 17 e3 13 3f 48 8b 14 3e 70 6f 3d 3d
       0.06984484 0.57768387 0.14506257 0.046248853
000070 f0 6a ee bc 97 69 b0 3e 69 c2 41 bb 0e ed 47 be
       -0.029103726 0.3445556 -0.002956534 -0.19524023
000080 c6 ff bd 3e cc 20 1b bd 2c fa 00 3d d2 ca 57 3e
       0.37109202 -0.037873074 0.031488582 0.21073464
000090 5e d7 5b 3e 7d 1b 00 3e cc 69 c2 bd 26 f8 de 3d
       0.21468875 0.12510486 -0.094928354 0.10887174
0000a0 8b 8e 1c 3e c0 ad 74 be 11 6e be 3c 59 6d d2 bd
       0.15288751 -0.23894405 0.023245843 -0.10274763
0000b0 38 2e 99 bd 51 20 19 3e 6a 52 84 3d 23 13 57 3e
       -0.07479519 0.14953734 0.06461032 0.21003394
0000c0 55 31 e0 bd 59 de 02 3e 3d 09 19 3e 2a 7e d1 3d
       -0.10946909 0.12780131 0.1494493 0.10229142
0000d0 2b d0 1c 3e 97 c5 0e 3e 85 fb a1 3e af 9b b8 3e
       0.15313785 0.13942562 0.31637207 0.36056277
0000e0 14 2a a1 3e c0 d4 af 3c de c0 e5 3d 4e cc f4 3b
       0.31477416 0.021463752 0.11218427 0.007470644
0000f0 12 6f 50 3d 28 49 e4 bd 0c a1 09 be 8c 57 5f bd
       0.050887175 -0.11146766 -0.13440341 -0.05452685
000100 21 11 25 3e 22 54 57 be 0c ff 39 be a5 17 65 3d
       0.16119815 -0.21028188 -0.18163699 0.055930752
000110 1d 6e 93 bc 90 64 a2 bd 18 09 95 bc 42 77 e9 3d
       -0.017996842 -0.07929337 -0.018192813 0.113997
000120 87 67 68 bc d2 cc 16 3e 79 e1 44 3d 82 27 d5 3d
       -0.014184839 0.1472657 0.04806659 0.10407926
000130 0e cb a2 3d 9f ed 89 bb 5a 3b 8f 3d 3c 01 96 bc
       0.07948886 -0.004209235 0.06993742 -0.018311135
000140 fa 0c 70 3d f3 0c 04 3e 7f 58 03 3e 19 43 36 bd
       0.058606125 0.12895565 0.12826727 -0.044497583
000150 be ef 7a bd 06 19 86 3e 39 11 cf 3d b6 ad aa 3d
       -0.061263792 0.26190966 0.10110707 0.08333914
000160 ba 79 df 3d c5 e6 7c 3e 61 ef 43 3e 9f 06 15 3e
       0.109118894 0.24697407 0.19134285 0.14553307
000170 1a 32 d6 3e 13 05 24 3e 46 49 ca bd a2 58 e4 3d
       0.418351 0.1601756 -0.09877257 0.11149718
000180 24 ec 61 be b5 69 3b bd fb e1 b4 be 62 f6 dc 3d
       -0.22062737 -0.045755107 -0.3532866 0.10789181
000190 26 82 12 be f8 08 f4 3d 23 03 57 3e 9f b6 b6 bd
       -0.1430746 0.11915773 0.2099729 -0.08921551
0001a0 9c a6 18 3f b8 2c de bc 03 d3 00 be a4 51 33 3d
       0.59629226 -0.027120933 -0.12580495 0.04377903
0001b0 fc 0f 95 3e a0 a3 ea 3e b3 47 ff 3d 4e 93 d7 3d
       0.29113758 0.4582796 0.124648474 0.10526143
0001c0 b4 70 52 3d 61 a5 a9 3e ec b5 d4 3e 0d f5 2c be
       0.051377013 0.33133987 0.41545045 -0.16890354
0001d0 08 eb 05 3f 59 af 19 be 80 23 4e 3b 0b 5c 7b 3e
       0.52311754 -0.15008296 0.0031454265 0.2454683
0001e0 d7 38 e8 3d ff 5a 42 3e 58 49 d8 bd 6f cd 1c be
       0.11338966 0.18980025 -0.10560864 -0.15312742
0001f0 51 50 9f bd e7 c0 70 3e f0 fe 3d be f7 cc 7f 3c
       -0.07778991 0.23511086 -0.18554282 0.015612832
000200 38 aa 90 be 10 9b 34 3d 8f f3 1c be 86 5f 6d be
       -0.28254867 0.04409319 -0.15327285 -0.2318097
000210 03 47 bd bd 63 9c 1f 3e 5b 11 64 3e 00 30 bc 3a
       -0.0924206 0.15587 0.22272246 0.0014357567
000220 c8 68 15 3d 97 f6 7b 3e 73 f8 a2 bd 57 81 14 bc
       0.03647688 0.24605785 -0.07957544 -0.00906404
000230 bd e3 a1 3d f5 52 a5 bd f0 6d e4 3c d5 e7 39 3e
       0.07904766 -0.080724634 0.027884454 0.18154843
000240 21 9b 90 3e f4 96 94 3e 3f c4 c5 3e 6c f4 20 3d
       0.28243354 0.29021418 0.38626286 0.0392956
000250 3f fa 26 3e 94 22 88 3e 8d c1 0a be 56 25 4e 3d
       0.16306399 0.2658888 -0.13550396 0.050328575
000260 fe 2d 45 3d 63 1c 20 3e 89 30 06 3e 08 cd 4a 3e
       0.048139565 0.15635829 0.13104452 0.19804776
000270 84 a8 af 3e 91 bd d5 3e 51 d8 b6 3c 90 2f 3c 3c
       0.34308255 0.4174619 0.022319945 0.011485949
000280 9d 79 2c 3e 8e cc 55 3e 21 64 75 3b ab f6 63 3e
       0.16843267 0.20878813 0.0037443715 0.22262065
000290 de de 97 be 57 4c 0e be 0a d9 d1 3d fa cc 63 bd
       -0.29662222 -0.13896309 0.10246475 -0.055615403
0002a0 67 26 b0 3d db 2e fc 3b 88 6e 92 be 4b cd 0c be
       0.08601075 0.0076960153 -0.28599954 -0.13750188
0002b0 62 9c da 3d 2a de 82 be ad ef 55 3b c5 24 88 3e
       0.10674359 -0.25560123 0.0032644079 0.26590553
0002c0 2c ca 87 3e 4c a5 6a bd 1c 1d 11 be 82 30 86 3d
       0.26521432 -0.057286546 -0.1417126 0.06552221
0002d0 e2 52 ce 3d ac f1 bd 3c 62 08 7a 3e 48 ee 39 bd
       0.100744024 0.023186527 0.2441726 -0.04539326
0002e0 bd e4 a2 bd bd 47 c7 3c 33 c0 b2 3d ac cc e8 3d
       -0.079537846 0.0243262 0.08728065 0.11367163
0002f0 51 3f 98 3c f0 21 2f 3c 5c 06 15 be 41 20 aa 3e
       0.01858488 0.010689244 -0.14553207 0.33227733
000300 2e a1 5e 3e 5b 1c 44 3e 3b 99 86 3e 9a f5 e8 3d
       0.21741173 0.19151442 0.2628878 0.1137497
000310 aa b2 16 be 91 e9 61 3a 1f ae 96 3d 24 95 16 3d
       -0.14716592 0.0008617873 0.0735743 0.036763325
000320 c2 c9 e4 bd c5 6e 9c bd 30 5e dd bd 20 89 0e be
       -0.11171295 -0.07638315 -0.108089805 -0.13919497
000330 9f 21 89 3e 97 e4 21 3f d6 a2 a9 3e 9a 52 67 bd
       0.26783463 0.63239425 0.33132046 -0.05647526
000340 b1 ca 14 3e fd 53 6c 3e c6 f9 85 3c cb 0c 40 3e
       0.14530446 0.23078914 0.016354453 0.1875488
000350 e5 36 f9 bd 5e c0 a4 bd fc 3c 24 bd aa 31 f5 bd
       -0.121686734 -0.08044504 -0.04009722 -0.11972363
000360 f9 af 10 3d 38 b4 9f bd 2d f6 83 3d 40 bc eb bd
       0.03532407 -0.07798046 0.06443439 -0.11510515
000370 be 34 5c bd 01 af 0e 3e ce ad 43 3c 92 c6 1f 3d
       -0.053761236 0.13933946 0.011943294 0.03900773
000380 67 a8 e4 3e ad 9a 19 3e ad 43 0d 3e 70 ea 6c 3e
       0.4465973 0.1500041 0.13795348 0.23136306
000390 c6 f7 94 bd 84 ac bd 3c fd 8c 17 be 07 6c 22 be
       -0.072738215 0.02315355 -0.14799877 -0.15861522
0003a0 08 ca 20 bd 04 6c 66 be 1b 54 05 3e c7 66 b0 be
       -0.039255172 -0.22502142 0.13020365 -0.34453413
0003b0 58 f0 bd bd 6d a5 19 3e 55 17 25 3e ca 4a 20 3e
       -0.092743576 0.15004511 0.16122182 0.1565353
0003c0 96 e3 91 3d 23 fe ae 3d eb 9f 40 bd 58 20 37 bd
       0.07123487 0.085445665 -0.04702751 -0.04470858
0003d0 f0 2f b2 3c 57 e8 4c 3e 61 94 92 3e 1f 01 fe be
       0.021751374 0.20010506 0.2862883 -0.4961023
0003e0 1c ec 17 3e e8 19 94 3c 94 86 8d 3d a2 1f 16 be
       0.14836162 0.01807876 0.06910434 -0.14660504
0003f0 b9 f2 82 be 42 8d 7e be 05 54 f1 bd fa 8b dd 3d
       -0.25575808 -0.24858573 -0.117836036 0.10817714

encoder.weight_hh_l0 f4 [128, 32]
000000 15 44 1a 3e 86 d0 7f ba d3 08 80 3e ee 81 38 bd
       0.15065034 -0.00097585504 0.25006732 -0.045045786
000010 51 86 96 bd c7 b3 4a 3d 59 96 a8 3d a7 61 a7 3d
       -0.073498376 0.049487855 0.082318015 0.081729226
000020 8f 11 a9 bd 38 3b 6d bd eb 56 87 be 82 b4 33 3e
       -0.08255302 -0.057917804 -0.264335 0.17549327
000030 11 cb 7d 3d 47 5a db 3d f0 33 0b be 67 b3 b3 3d
       0.061961237 0.107105784 -0.13594031 0.08774453
000040 40 be 03 be 1a b2 ad 3a f9 d1 0a 3e 40 df 4b 3e
       -0.12865543 0.0013251931 0.1355666 0.19909382
000050 5e ab 56 3d 45 04 e6 bd 89 ee 2c 3e b3 c1 02 bd
       0.052409522 -0.11231283 0.16887869 -0.031923007
000060 06 02 0d 3e 46 49 9c 3d 4a 36 dc 3d 56 08 2e 3e
       0.13770303 0.07631163 0.10752542 0.16995367
000070 7f aa 55 3e 05 86 d5 bd 22 d5 9b bd a3 cb 02 3e
       0.2086582 -0.10425953 -0.07609011 0.12772994
000080 82 e0 0c be 08 10 0a 3d c6 9f 56 bd d6 5c 19 3e
       -0.13757518 0.033706695 -0.052398466 0.1497682
000090 99 ac ab bc a0 cb e7 3c c4 2a ab 3d 16 1b 61 bd
       -0.020956324 0.028295338 0.08357766 -0.05495747
0000a0 ff 81 95 bd 9a 51 65 bd 30 72 fe 3d af 23 36 bd
       -0.073001854 -0.055986024 0.12424123 -0.044467624
0000b0 10 56 a0 3d cc 81 40 3e 2a a3 c6 3c ed df 02 3e
       0.07828915 0.18799514 0.024247725 0.12780733
0000c0 5c b2 aa 3d ad a9 8c bd 8e da 1f 3e 65 44 36 3e
       0.083348006 -0.068683006 0.15610716 0.17799528
0000d0 c1 6e ae bb 46 e7 cf 3d 3c 70 14 bc 14 70 17 be
       -0.0053232615 0.10151534 -0.009059962 -0.14788848
0000e0 73 0c 90 be ee a1 b2 3d b7 cc a4 be d8 7d e4 bd
       -0.28134498 0.08722292 -0.32187435 -0.11156815
0000f0 20 66 a0 3e 40 34 cc bd 9a b0 9c bd 06 fd 01 be
       0.31327915 -0.099709034 -0.076508716 -0.12694177
000100 de 51 90 be df 15 f2 3e 19 69 be 3e 9c dc 0b bb
       -0.2818746 0.4728231 0.37189558 -0.002134121
000110 2c b6 92 be d3 02 8b be 7e ea fc bd 6e 7a 88 3c
       -0.2865461 -0.27150592 -0.12349413 0.016659942
000120 22 2d 9f 3d 39 8b 28 3e 9e 15 df 3d 28 ac 08 3e
       0.0777228 0.16459359 0.10892795 0.13346922
000130 81 8d 19 be 47 74 71 be dc 5c 39 be b7 26 36 3e
       -0.14995386 -0.23579513 -0.1810183 0.17788206
000140 77 43 61 be dd 7e 0d be 66 30 88 bd 52 25 41 3d
       -0.21998392 -0.13817926 -0.06649856 0.047154732
000150 92 1b d9 be e8 40 e5 3d c5 de e7 3d 01 59 d9 bd
       -0.42403847 0.111940205 0.11321787 -0.10612679
000160 50 bc 97 bd ac ac 7a be e1 02 20 be 03 d8 3d be
       -0.07408965 -0.24479932 -0.15626098 -0.18539433
000170 9d 41 57 3e 8a bb 1f 3d 9f da 2e bd 82 88 10 be
       0.21021123 0.03899721 -0.042688962 -0.14114574
000180 1c 06 53 3e 95 1a 92 3c 3d 02 37 bf db 2b 87 3d
       0.206078 0.01783494 -0.7148779 0.06600162
000190 fe a5 f6 bd ff 36 90 3e f0 3f 4c be 8d 6a c3 3d
       -0.12043379 0.2816696 -0.19946265 0.09541807
0001a0 bf 01 64 bd 7b 82 8f 3e 2d 37 28 3e de cc a1 be
       -0.055665728 0.28029236 0.16427298 -0.31601614
0001b0 95 3a 25 3e 99 fd 8b 3e 86 b6 e7 3d 40 ff ac 3d
       0.16135629 0.27341917 0.113141105 0.084471226
0001c0 04 e8 b7 3d 15 9e 82 3e 10 22 5c be be ce b9 bb
       0.089798 0.25511232 -0.21497369 -0.0056703975
0001d0 5d ba 0c be 8f 4f 8f 3d 62 98 41 be 8d ea 33 be
       -0.13742967 0.069975965 -0.18905786 -0.17569943
0001e0 5c cd 13 bd ef d5 58 3e 64 2e bf 3d 27 c8 61 be
       -0.036084518 0.21175359 0.0933502 -0.22049008
0001f0 59 1e d4 3d f9 8c 16 be d1 08 6c be 01 fb 72 3e
       0.10357351 -0.14702214 -0.23050238 0.23728563
000200 38 89 4a be 20 fb 19 3c bd 8a 95 3e 3b c8 05 3f
       -0.19778907 0.009398252 0.2920741 0.5225865
000210 34 e0 a7 3c 95 56 d2 bd 7d cd 37 3e 6f 4a 9a be
       0.02049265 -0.102704205 0.17949481 -0.30134913
000220 91 85 e5 3e 9c 53 c0 be f0 b1 69 3e b8 b6 61 3e
       0.44828466 -0.3756379 0.22821784 0.22042358
000230 e6 92 db be 63 ec 02 bd 6b c0 91 be ce 29 c2 3c
       -0.42885512 -0.031963717 -0.28467116 0.023701575
000240 de ab 53 be 7d 07 ee bd 70 e2 84 be fe 5e 18 3e
       -0.20671031 -0.11622522 -0.25954008 0.14879987
000250 68 40 65 bd 9c b3 7a 3e 19 8c 24 3e a4 6b cb 3e
       -0.055969626 0.24482578 0.16069068 0.3973056
000260 ee f5 be be ee 8b 89 be d5 2a 7f be 10 05 16 bf
       -0.37297004 -0.2686457 -0.24918683 -0.58601475
000270 44 ff 89 3e 3f bc 90 3e 09 11 8c 3e 8a 81 3e 3d
       0.26952565 0.2826862 0.27356747 0.046510257
000280 f8 c4 77 be 47 26 2b bd b0 a4 a4 be 09 d5 18 3d
       -0.24196231 -0.04178455 -0.32156897 0.03731254
000290 91 fd d4 38 94 e1 ec bd ba ec 08 3c 63 fd 36 3d
       0.00010156178 -0.11566463 0.008357221 0.044675242
0002a0 5e 56 1f bd 26 f5 90 3d 71 f4 00 3e e1 38 83 3d
       -0.038900726 0.07078008 0.12593247 0.06407333
0002b0 52 f6 3c be fb 80 e3 bd 75 e1 40 bd f2 7d 4e be
       -0.18453339 -0.111085854 -0.047090013 -0.20165232
0002c0 57 21 53 be 78 d4 06 be 36 82 e3 3d 2c 63 c1 bd
       -0.20618187 -0.13166988 0.1110882 -0.09442744
0002d0 39 2b 8e bd 7b ca 29 3e de c4 c2 bd b7 28 ec bd
       -0.06941838 0.16581146 -0.09510206 -0.11531203
0002e0 6e 88 32 3c 25 4c 35 bd 94 ef 01 3e 48 ee 4b bd
       0.010896785 -0.04426207 0.12689048 -0.04978779
0002f0 ee bd ea 3d b2 52 36 be 35 9b 0a 3e ec a6 4a be
       0.114620075 -0.17804983 0.1353577 -0.19790238
000300 b5 47 14 3e 8d 40 c0 3c e9 8d f9 bd fd 01 6e 3e
       0.14480479 0.02346828 -0.1218527 0.23242946
000310 8b 35 ca 3d e0 37 2c 3e 3a 8a 1d be aa ad 70 bd
       0.09873494 0.1681819 -0.1538476 -0.05875937
000320 30 8b 30 be 81 62 7a be 6a c3 56 bd d1 ee 2d be
       -0.17240596 -0.24451639 -0.052432455 -0.16985632
000330 ae 73 05 3d 5d 30 2e 3e 22 70 16 be ca bc 9e bd
       0.032581024 0.17010637 -0.14691213 -0.077508524
000340 12 63 d1 bd 3f 79 1e 3e d7 53 8c 3c 4a 63 e2 3d
       -0.10223974 0.15475939 0.017129822 0.11054094
000350 f6 68 db 3e 27 d9 47 bd fc d0 59 3c da 1a b5 bb
       0.42853516 -0.048791077 0.013294455 -0.0055268826
000360 58 2e 92 be 7a 49 40 3c 79 84 3a bd 78 7a 1b be
       -0.28550982 0.011736268 -0.045536492 -0.15183437
000370 04 a8 6b be ff 7d 8b bd bb ab c8 bc 91 cf af 3d
       -0.23013312 -0.06811141 -0.02449595 0.08584512
000380 c3 57 d6 3d ef 55 6c 3c c5 18 6b bc 96 dc ee bd
       0.10465958 0.014424785 -0.014349167 -0.11663167
000390 3b 01 7a 3e fb 83 0a 3e 40 69 1f 3e cb 89 18 bd
       0.24414532 0.13526909 0.15567493 -0.037240785
0003a0 64 f6 88 3d eb 56 c5 be 5f 0a 5a 3d 3b 33 12 be
       0.0668762 -0.38542876 0.053232547 -0.14277355
0003b0 0e 6f 3a 3e 18 8d f2 3d 0d 18 13 3c f3 1d ce 3c
       0.18206427 0.11843318 0.008977902 0.025160765
0003c0 a4 66 55 bd 68 8d 53 3d cd 10 d5 bb 05 f5 ae bb
       -0.05209984 0.051648527 -0.006502247 -0.005339267
0003d0 66 ee d5 3e e9 73 25 3d fd 20 40 bd 95 3f ff 3c
       0.41783446 0.040393744 -0.04690646 0.031158248
0003e0 52 e4 9c bc da 9e bc 3d 2b d9 8c be ec 98 8f bd
       -0.01915184 0.09209986 -0.27509436 -0.070115894
0003f0 b2 d4 be 3c c2 f6 1b be cd 10 e8 3d dd 62 85 3c
       0.02329478 -0.1523085 0.113313295 0.016282493

encoder.bias_ih_l0 f4 [128]
000000 0d 73 03 bd b0 f7 05 be 9e f6 05 3e 30 3b 6d be
       -0.032092143 -0.13082767 0.13082358 -0.2316711
000010 d6 23 97 3e e1 1c b5 3d 33 ac 18 3e a1 74 a7 bc
       0.29519528 0.08843399 0.14909439 -0.020441355
000020 99 c4 10 3e f9 41 d4 bb 5e a8 c0 bd c5 29 aa bc
       0.14137496 -0.006477591 -0.094071135 -0.02077187
000030 4c da 3b 3d d7 bc c9 3d c3 de 30 3e af ab 85 bb
       0.04586248 0.098504715 0.17272477 -0.004079304
000040 ec e6 0e bd 1f 0d 67 3d c5 91 70 3e 55 74 66 bd
       -0.034888193 0.056408998 0.23493107 -0.056263287
000050 31 16 6d 3e c2 e3 4f be 89 83 e9 3d 8b 84 82 3e
       0.23152997 -0.20301726 0.114020415 0.25491747
000060 07 c1 79 3e d1 18 fb bc 19 7e a7 3e ea fa bb 3e
       0.2439004 -0.030651482 0.32713392 0.3671487
000070 f6 4d bb bd 38 ce a6 3e 17 64 56 bd f7 97 bc bd
       -0.09145729 0.32579207 -0.052341547 -0.092086725
000080 39 c4 40 3c 81 a9 81 be 06 19 e1 3d 85 56 02 3e
       0.011765533 -0.25324634 0.10991101 0.12728317
000090 80 9d 3a 3d d6 43 93 3c 1b 9a 8f 3d 6d 0b 87 3d
       0.04556036 0.017976683 0.07011815 0.06593976
0000a0 ad 84 32 bd 63 5e 0b bd de e2 46 bd 9e 42 3d bd
       -0.04358356 -0.03402556 -0.0485562 -0.04620611
0000b0 90 ba 1e be ed cd 2f 3e 98 38 49 3e c0 95 6e 3b
       -0.15500855 0.17168398 0.19650495 0.0036405176
0000c0 2f 65 0f 3d 07 01 c3 bd 5a bf a4 3e 19 27 0f be
       0.035008606 -0.0952168 0.3217724 -0.13979758
0000d0 b8 9a 01 3e d1 db 33 be 8e 35 1b 3e 0a 08 a2 bb
       0.12656677 -0.17564322 0.15157148 -0.004944806
0000e0 12 f4 9f 3e b9 f4 33 bd 2c cc 75 3e d7 21 a8 3e
       0.31240898 -0.043934558 0.24003667 0.32838318
0000f0 13 03 b7 bd ab 4d 79 3e 77 19 a8 3d d1 87 3d 3e
       -0.08936133 0.24346034 0.08207982 0.18508841
000100 31 71 b8 bd 6b 5f 14 be ae f2 87 bc cd f5 1e 3e
       -0.090059645 -0.14489524 -0.01659521 0.15523453
000110 bb 3c 02 be fc f7 2d be f7 51 85 3d 82 f1 aa 3c
       -0.1271848 -0.1698913 0.06509774 0.020867113
000120 be 81 77 3e 10 d7 df 3d 1c ab 3f bd 34 54 f0 3d
       0.24170586 0.10929692 -0.046794042 0.117348105
000130 9f 51 0d be 90 b7 d4 bd 11 7d 91 bd 03 8b 9f 3c
       -0.13800667 -0.10386574 -0.07103933 0.019475466
000140 8e 03 37 be 70 f4 03 be 56 23 75 bd 2d 52 ab bd
       -0.1787245 -0.12886214 -0.059848152 -0.08365283
000150 5c 62 10 be 2c 0b 19 3e c0 00 8b bc ef 17 5e 3e
       -0.14100021 0.14945668 -0.016968131 0.21688817
000160 d8 c2 0a 3e 94 bc f3 bc 59 a4 51 3d ff 00 9a 3d
       0.1355089 -0.029753007 0.051182125 0.07519721
000170 b6 e8 5e 3d 32 08 24 bb 9e e2 46 3e 17 1d 06 3d
       0.05442115 -0.00250293 0.19422385 0.032742586
000180 a9 93 fa 3c 6a f0 05 be 00 1a e8 3e 44 c2 4e 3d
       0.030587988 -0.13079992 0.45332336 0.050478235
000190 b3 c6 3f 3e af f3 cf 3d 72 70 1f 3e 43 dc 20 3e
       0.18728141 0.10153901 0.15570238 0.15709023
0001a0 ea d3 31 3d a8 47 8b 3e 9c 2a b8 bd 5d f1 e2 bc
       0.043414988 0.27203107 -0.08992502 -0.027702982
0001b0 5d 8f c7 bc 2c f9 2e be d7 c0 77 bd d3 54 54 3e
       -0.024360353 -0.17087239 -0.06048664 0.20735483
0001c0 a4 de 24 3e 1e 55 97 bd 93 21 91 3e e8 ad a8 3d
       0.16100556 -0.07389282 0.28345928 0.08236295
0001d0 d3 84 84 bd 8e 66 0d 3c 11 e6 9c bb 1e 75 e6 3d
       -0.06470647 0.008630408 -0.0047881682 0.11252807
0001e0 58 b7 d5 3d 0f 0c 57 bd ea 35 94 3e 1f db 2e 3e
       0.10435361 -0.052501734 0.28947383 0.17075776
0001f0 74 36 c8 35 a7 7e 5e 3e 3f 77 9a bd 7f 93 ca 3d
       1.4917009e-06 0.21728002 -0.07542276 0.09891414

encoder.bias_hh_l0 f4 [128]
000000 e4 18 72 3d 54 51 b2 3d a5 cf a5 3e 5d d7 23 be
       0.05910577 0.08706918 0.32384983 -0.16000123
000010 3f c5 80 3e b9 79 f3 3c 55 c3 0c be e4 0b e1 bd
       0.25150487 0.029721128 -0.13746388 -0.10988596
000020 7f 9e 47 3e 39 5f 7d 3e 14 2f 36 be b2 ae a5 bd
       0.19494055 0.24743356 -0.17791396 -0.08089961
000030 6f 22 02 be 93 55 00 3e 8d 61 68 bd e0 f2 c3 3d
       -0.12708448 0.12532644 -0.056733657 0.09567809
000040 cc fc aa 3d bd 28 b7 bd e0 e4 c7 3e 73 ee f0 bd
       0.083489984 -0.08943317 0.39041805 -0.117642306
000050 51 bb a9 bd 80 e0 db bd de 87 be bd 23 f0 f5 3d
       -0.08287681 -0.10736179 -0.09303258 0.12008693
000060 93 ff 34 3e 7e 43 50 3e 56 03 00 3e 05 69 47 3e
       0.17675619 0.20338246 0.12501273 0.19473656
000070 8b 71 54 3e b0 33 25 3e 05 5c f3 bd af 4a 51 3e
       0.20746438 0.16132998 -0.11882786 0.20438646
000080 dc 18 7c 3d 82 e6 1d be 02 b0 c0 3d 7b d1 2f be
       0.061547145 -0.15419963 0.09408571 -0.17169754
000090 7b 3e 9a 3d c5 e4 fa bc 50 66 39 bd c8 f7 3f 3d
       0.075314485 -0.030626664 -0.04526359 0.046867162
0000a0 00 27 bc 3c 16 77 78 3e f8 bb 83 3d ec 18 af 3d
       0.022967815 0.24264178 0.064323366 0.08549675
0000b0 1b 89 bb 3d ae 72 fa 3d d7 25 32 3e ad 1b 42 3e
       0.0915701 0.12228905 0.17397247 0.1895587
0000c0 0d ec 8b 3d 20 59 93 3d ca ed b5 3e 06 3b 76 3c
       0.068321325 0.071947336 0.3553298 0.015028721
0000d0 dc 88 9f bc b3 ef 71 be f4 9f 34 3e d9 cc 0d bd
       -0.01947444 -0.23626594 0.17639142 -0.034619186
0000e0 9e fe 57 3e 8f 77 bc bd 5d 02 71 3e d6 46 3d 3e
       0.21093222 -0.092024915 0.23536058 0.18484053
0000f0 07 77 53 bd e7 2c 26 3e 5a ac b7 3b e5 09 7a bd
       -0.051627185 0.16228066 0.0056052627 -0.061044592
000100 74 0c 37 be 39 26 de ba 60 79 8a be 11 4c dd bd
       -0.17875844 -0.0016948647 -0.27045727 -0.10805524
000110 7c b8 49 bd a0 44 28 be 33 32 04 3e db a9 23 be
       -0.049248204 -0.16432428 0.12909774 -0.15982763
000120 f5 fc 10 3e 25 cd 94 bd 2d be 7f 3a a8 c8 20 be
       0.14158995 -0.07265691 0.00097558164 -0.15701544
000130 2f 8e 34 bd e9 26 6d bd 21 7e a1 bd 5a f3 07 be
       -0.04408091 -0.057898436 -0.07885385 -0.13276425
000140 53 e9 f3 bd d6 82 f1 bc 4d 34 ea 3d 24 77 2c 3d
       -0.119097374 -0.029481333 0.11435757 0.04210581
000150 0e 24 cf 3c 10 0c 3f bd 9a 1d 8b 3d 01 9f 00 bd
       0.025285747 -0.046642363 0.067927554 -0.031401638
000160 46 fc 08 be dd eb 23 be 87 3d 9f bd 0f fb a5 bc
       -0.13377485 -0.16007943 -0.07775407 -0.020261316
000170 b3 b2 2c 3e 62 1b d5 3d ff a3 1f 3d e3 55 3b be
       0.16865043 0.104056135 0.03897476 -0.18294482
000180 59 10 34 3e b9 7d 75 3d 78 73 79 3e 7b 16 0e bd
       0.17584361 0.05993435 0.24360454 -0.034689408
000190 df 0d a5 3e 85 cf 0a be 72 c7 3a be e0 13 ef 3b
       0.32237145 -0.13555725 -0.18240145 0.0072960705
0001a0 bd 8c 44 3e db 9c 8e 3e e1 69 7f be 96 3a 10 be
       0.19194312 0.27854046 -0.24942733 -0.14084849
0001b0 f0 e3 0e 3e fb c2 17 be 96 83 6b 3d e5 11 09 3d
       0.13954139 -0.14820473 0.057498537 0.03346433
0001c0 85 2d bc bd 5a 63 6a 3e 9d 21 01 3e a9 64 31 3e
       -0.0918837 0.22889462 0.12610479 0.17323555
0001d0 19 72 20 be 91 fa 98 ba 55 dd e0 bd 4c 55 4a 3e
       -0.15668525 -0.0011671354 -0.10979716 0.197591
0001e0 51 41 b3 3e 50 91 88 bc b4 6e 9d 3d 8f f8 9d 3e
       0.3501077 -0.016670853 0.076871306 0.30853698
0001f0 3d 07 c6 bd 3d 02 3f 3e e5 ed 2a 3e 2b 72 6f 3e
       -0.09669349 0.18653198 0.16692312 0.23383395

decoder.weight_ih_l0 f4 [128, 32]
000000 e1 7a 88 be f3 e0 51 3e f5 8c d5 bd 34 c7 3d be
       -0.2665625 0.20495968 -0.10427276 -0.18533021
000010 9c fc 86 bd a3 2a 26 be 3b 25 f7 3d 02 b2 15 3d
       -0.0659115 -0.16227202 0.12067648 0.036546715
000020 ac 7e 85 3e ec 21 88 3e 5b 98 1c be 16 09 d9 3d
       0.26073205 0.2658838 -0.15292494 0.10597436
000030 92 f6 7f bd 41 10 19 bd f3 13 18 3d 44 7d 60 bd
       -0.062491007 -0.037369017 0.0371284 -0.054806963
000040 3c f3 87 be a9 b5 81 be 77 d6 ce 3d af 9c 17 3e
       -0.2655276 -0.25333908 0.100995 0.14805864
000050 d2 53 18 be 39 aa a5 bd c7 8b 85 3e d8 44 3d 3c
       -0.14875725 -0.08089108 0.26083204 0.011552058
000060 e7 5e ba 3d c9 7e e0 3c 23 ab 15 3e bb 9d 06 bd
       0.091001324 0.027404206 0.14616065 -0.032865267
000070 89 98 06 3e 7e 2e 84 3e ef 42 0e 3e c3 c3 08 bd
       0.13144125 0.2581672 0.1389272 -0.033389818
000080 69 4b 01 3d 52 6d 8f 3e 5a 3f 80 be 70 73 b6 3d
       0.031566057 0.28013092 -0.25048333 0.08908737
000090 28 63 96 3e ba 08 12 be 6c 28 52 be ab 31 be 3d
       0.29372525 -0.14261141 -0.20523232 0.09286817
0000a0 ac 31 db bd 01 08 2b 3d 3c d2 c0 3d 36 c3 51 be
       -0.107028335 0.04175568 0.09415099 -0.20484623
0000b0 9e 5c 36 be dc 92 18 bd 75 65 5d b8 c8 a6 8d bd
       -0.17808768 -0.03724943 -5.2784995e-05 -0.069165766
0000c0 fa ed dd 3c 47 22 a7 3d 06 de 13 be 50 20 89 3c
       0.027091015 0.08160835 -0.14440164 0.01673904
0000d0 2a c9 02 be eb 0c e3 bd b5 1c da 3a e3 26 a1 3c
       -0.1277205 -0.11086448 0.0016640635 0.019671863
0000e0 6c 4c 11 3e cd b9 35 3c d1 39 5c bb 79 c6 80 3e
       0.14189309 0.011091662 -0.0033603797 0.25151423
0000f0 23 fb 9b 3d 68 9d 62 be 9f 25 6a 3d 87 e3 2b be
       0.0761626 -0.22130358 0.057164785 -0.16786014
000100 e2 11 6f 3e 39 6d 86 3d 13 29 1a bf 5e 50 d2 3e
       0.23346666 0.06563801 -0.60218924 0.4107694
000110 05 22 07 3e 58 08 64 3e 1c 31 b2 3e 34 1a 80 bc
       0.13196571 0.22268808 0.34803092 -0.015637495
000120 17 33 9a bd 35 61 73 be ad 26 cf 3e 6d e7 97 be
       -0.07529276 -0.2376755 0.40459195 -0.2966875
000130 3b 69 a2 bd fd f9 21 3e 89 91 87 be a8 a6 d9 bc
       -0.07930227 0.15818019 -0.26478222 -0.026568726
000140 8d 3f b4 be 4f b9 6f 3e 91 f8 c8 be eb 8d 8a bd
       -0.35204735 0.23410533 -0.3925214 -0.0676535
000150 0a 31 c9 3d 75 57 b0 3e f7 e7 80 bd c9 89 2f 3e
       0.098238066 0.34441724 -0.06294244 0.17142405
000160 a5 84 31 bf d7 54 15 bd 45 93 82 be e6 8a 24 bf
       -0.69343024 -0.036457863 -0.25502983 -0.6427444
000170 e1 ea f4 3d 8a 88 cb 3e d0 11 4c 3d 57 8a 93 3e
       0.11958862 0.3975261 0.049821675 0.28816482
000180 b6 b7 7a bd 32 be 67 3c f1 70 08 be 79 06 e1 bd
       -0.061210357 0.014144467 -0.13324334 -0.10987563
000190 5a 99 88 3d 31 2d 06 be 25 40 f3 3d c1 fb f5 bd
       0.066698745 -0.13103177 0.11877469 -0.12010909
0001a0 72 d1 f6 3c ac 04 c7 bd d9 62 a2 3d a0 ae 34 bd
       0.030129168 -0.09717688 0.0792901 -0.044111848
0001b0 a2 48 f7 bd 36 c6 a2 bc e9 21 04 be c0 8a 66 bd
       -0.120744005 -0.019869905 -0.1290356 -0.056284666
0001c0 9a dc 46 bd 66 ed 15 be bf ab b3 bc e0 e0 41 3c
       -0.048550226 -0.14641342 -0.02193248 0.0118333995
0001d0 72 1b 99 bd 47 ef 1e be 50 69 af 3d 33 2c cd bb
       -0.07475938 -0.15520965 0.08565009 -0.0062613725
0001e0 55 3f 03 be b5 fb cf 3c 4e db 8e be bd 3f 0c be
       -0.12817128 0.025388578 -0.2790169 -0.13696189
0001f0 34 7f 73 bd 84 27 63 be 6e 35 c1 3c b1 79 4a be
       -0.059447482 -0.22183043 0.023585048 -0.19772984
000200 3e 50 cc bd cf f2 a6 3e 4f 4a 90 be 42 e0 81 3e
       -0.099762425 0.32607123 -0.28181693 0.25366408
000210 35 86 2b 3e ea 54 5b be 0c 14 b5 bd 59 9a 92 3c
       0.16750415 -0.21419111 -0.08841714 0.017895864
000220 e7 33 a1 3e bd e6 29 3e 58 1d 2b 3e e8 05 20 bd
       0.3148491 0.16591926 0.16710413 -0.039068133
000230 38 ab 03 3e 6e 80 41 3c 94 bb ef bd c5 43 8d be
       0.12858284 0.011810405 -0.117056996 -0.27590767
000240 66 69 1c be ac 77 c2 bd 31 ce c7 bc 32 79 96 3e
       -0.15274581 -0.09495482 -0.024390312 0.2938934
000250 c9 65 ae bc b0 07 ba 3d fe 45 79 3d cd 28 70 3e
       -0.02128877 0.090834975 0.060857765 0.23453064
000260 7f d7 a9 3d 9c 9f 1c 3e ce b5 84 bd 40 9c dc 3d
       0.08293056 0.15295261 -0.06479989 0.1077199
000270 45 dd 9e 3e de 50 76 be 6b c6 c6 3d 6c e1 81 be
       0.3102819 -0.24054286 0.09705814 -0.25367296
000280 c2 02 f9 bd d1 68 14 3e de 9a 34 bd 2b 44 0c 3f
       -0.12158729 0.1449311 -0.044093005 0.54791516
000290 25 de 34 be 04 5a 02 be b1 6e 83 3e 7b 3a a4 3d
       -0.17662866 -0.1272965 0.25670388 0.08018967
0002a0 76 5b a1 3e 39 68 e3 3e 00 7d a1 bc 83 6a 06 3e
       0.31515092 0.44415453 -0.019712925 0.13126568
0002b0 91 51 84 bd 9b 86 85 3d 70 73 94 be 52 aa 9c bd
       -0.0646087 0.065198146 -0.28994322 -0.076496735
0002c0 a7 e9 b4 be 66 70 d5 be ad 94 02 bf df 3e 80 3e
       -0.35334513 -0.41687316 -0.5100811 0.25047967
0002d0 dd 17 b5 be 6d 55 43 3c 47 3b 6c 3e be 57 16 be
       -0.3536977 0.011922223 0.23069488 -0.14681908
0002e0 7a 8c 50 3d 65 b5 7b be 86 bb 3f 3e fb e2 57 bf
       0.05091522 -0.24580915 0.18723878 -0.8433072
0002f0 d6 0f cb bd 7c 02 56 3e 99 88 99 3e 1b 80 e3 3c
       -0.0991513 0.20899385 0.29987028 0.027771046
000300 58 f2 dc be f7 90 7f 3e ba b2 f9 bd 1a 4e 86 3e
       -0.43153644 0.24957643 -0.121922925 0.26231462
000310 9c d8 e3 3e 32 85 8c bc fe 5b 65 3e 2f be 7e be
       0.44501197 -0.017153356 0.22398373 -0.24877237
000320 00 51 11 bd a1 d5 44 bf 68 bc 91 bd 9c fb 84 be
       -0.03547764 -0.7688847 -0.07116014 -0.25973213
000330 ab d9 b4 be ec ea 3d bd 4d f7 10 be 65 e2 1f bf
       -0.35322317 -0.046366617 -0.14156838 -0.62454826
000340 1b 99 87 be bf e2 df be 7a b5 eb 3e ea 73 05 3f
       -0.26483998 -0.4372768 0.46036893 0.52129996
000350 45 70 ee 3d 34 ee 42 bd 1f 8b 9b 3e b1 0c 63 3e
       0.116425075 -0.04759045 0.30379578 0.2217281
000360 e9 a7 42 3e 19 f2 81 be f2 c9 7b be d6 85 0c 3d
       0.19009365 -0.25380018 -0.24588755 0.034307323
000370 db be 7e 3d aa 21 c8 3d 56 1c af 3e af 78 7c be
       0.062193733 0.09772046 0.34201306 -0.24655412
000380 f8 8e 21 bf ef 14 d6 3e af 38 c2 be f8 f9 58 3d
       -0.6310878 0.41812846 -0.3793387 0.052972764
000390 8a af 3c 3f 1f 8e ea be df 6c b4 3e 4f bf 06 bf
       0.7370535 -0.45811555 0.35239312 -0.52635664
0003a0 f2 a2 19 bc 3c 99 30 bf 94 25 86 bc 52 8f ad be
       -0.009377228 -0.6898382 -0.01637534 -0.33898407
0003b0 04 0b ab be 31 80 af be 43 50 fd bd b2 94 74 bf
       -0.33406842 -0.3427749 -0.12368824 -0.9553939
0003c0 0a 1c 97 be 15 b6 e4 be 97 f3 76 3f 25 58 35 3f
       -0.2951358 -0.44670168 0.9646544 0.7083762
0003d0 48 f2 a3 bc 8f 94 c3 3d f0 34 a5 3e 0f 06 b9 3e
       -0.02001299 0.0954982 0.3226695 0.36137435
0003e0 03 29 26 bc d1 7a 23 be 10 02 58 be e1 37 98 3e
       -0.010141614 -0.1596482 -0.21094537 0.29730132
0003f0 2c d3 50 3f 13 18 b0 be 23 94 ae 3e bc e6 36 bf
       0.8157222 -0.34393367 0.34097394 -0.7144582

decoder.weight_hh_l0 f4 [128, 32]
000000 f5 93 d6 3d 37 9e ca bd eb 73 b6 3b e9 bc 60 3d
       0.10477439 -0.09893458 0.0055680177 0.05486766
000010 31 56 fe 3d 2b 1d 62 be 55 43 ee 3a c3 4b a2 be
       0.124187835 -0.22081439 0.0018178025 -0.31698427
000020 e9 a9 f9 3d 03 ff c0 bd 13 71 3e 3e 34 11 01 bc
       0.12190611 -0.094236396 0.18597822 -0.007877637
000030 9b 9a 63 be 9f 10 54 3e c9 6c 38 be 76 f5 70 bd
       -0.22226946 0.20709465 -0.18010248 -0.05882784
000040 d5 8f 4d 3e 75 77 ae bc e4 75 e3 3d d0 16 0e 3d
       0.20074399 -0.021297196 0.1110647 0.034689724
000050 f4 8c 01 be 88 ce 13 3e 52 5f 2c bd 3b 64 b7 3d
       -0.12651426 0.14434254 -0.042083092 0.08954664
000060 d2 ad 57 3e dd 5a 95 bd 4a 4a a6 3d 08 20 89 3d
       0.21062401 -0.072927214 0.08119638 0.066955626
000070 a7 46 0a bd eb 2b 30 be 6d e0 54 be 1b 6d 25 be
       -0.033758786 -0.17204253 -0.20788737 -0.16154902
000080 7c 22 06 be af 1f c6 bd 50 b1 06 be de b5 8a bd
       -0.13099092 -0.09674012 -0.13153577 -0.0677297
000090 2c 00 2b 3e 05 8a 99 bd 5f 8f ac 3c a0 93 4f be
       0.16699284 -0.07497028 0.021064458 -0.20271158
0000a0 57 ff a1 bc d2 a6 13 3e f7 7d 08 be cb 1a 77 bd
       -0.019775076 0.14419106 -0.13329302 -0.060328286
0000b0 64 87 3d 3d 49 aa 8c 3e 11 da ec bc 48 a3 02 bf
       0.046271697 0.27473667 -0.028912576 -0.510304
0000c0 c1 d0 ef 3e 44 2d ec bd 3e 93 41 3d 47 df 4d 3c
       0.46838954 -0.11532071 0.04725956 0.0125654405
0000d0 da 56 f3 3d e0 61 45 3f d9 b5 b5 3d 40 da 7c bd
       0.118818 0.7710247 0.08872575 -0.061731577
0000e0 81 d2 45 3e 89 f4 96 3d 95 15 cf 3d 02 5f 26 3e
       0.19318582 0.0737086 0.10111538 0.1624718
0000f0 e2 bf 47 be dc df aa be 07 3d 8b be ad e2 54 be
       -0.19506791 -0.33373916 -0.27194998 -0.20789595
000100 37 21 d7 be 4c 73 88 be 56 40 14 3f 2e 98 da be
       -0.42017528 -0.26650465 0.5791067 -0.4269423
000110 7d 48 08 3f b6 57 f4 be 13 b9 66 3f 9d e0 69 bf
       0.5323561 -0.47723168 0.9012615 -0.9135836
000120 d6 f1 23 bf ba bd aa 3e 24 59 e2 be 71 a7 2a be
       -0.6404089 0.33347875 -0.44208634 -0.16665436
000130 36 07 67 be e5 0c 95 bd e1 35 09 3f 4d 5d 0e be
       -0.22561345 -0.0727785 0.5359784 -0.13902779
000140 56 68 a9 3e ff 38 d2 be 7a d3 a5 3e e8 3e a1 3e
       0.33087415 -0.4105911 0.32387906 0.31493306
000150 9c 60 b0 be 3c cf b0 be 20 c0 3c 3e df 70 01 3f
       -0.34448707 -0.34533107 0.18432665 0.5056285
000160 97 09 ca 3e 05 b7 a4 3e f5 bb 24 be a0 0e 47 bf
       0.3946044 0.32170883 -0.16087325 -0.7775669
000170 22 2c 5c be 58 df 5d 3f 78 e6 b8 be 1e 57 43 3e
       -0.2150121 0.8666892 -0.36113334 0.19076201
000180 88 35 36 be 41 44 86 3c 7e 9a e8 3d f6 8a 06 3e
       -0.17793858 0.016389968 0.11357592 0.13138947
000190 b6 87 24 3e 73 52 fa bc a4 56 06 be 0a 20 e9 3e
       0.16067395 -0.030556893 -0.13118988 0.45532256
0001a0 46 28 14 be 18 db e0 3d de 59 b8 be 11 a5 31 be
       -0.14468488 0.10979289 -0.36006063 -0.17348124
0001b0 3d 18 9a be 77 74 b8 bd 93 66 18 3d 04 53 e3 3d
       -0.30096617 -0.09006589 0.037207197 0.11099818
0001c0 26 fc 0a bd 21 1a 15 be 4e 81 89 bd 3a 83 90 3d
       -0.033931874 -0.14560749 -0.06714116 0.070562795
0001d0 10 f3 39 be 92 10 37 3e b5 cb a3 3d 00 2f bb bd
       -0.18159127 0.17877415 0.079978384 -0.09139824
0001e0 05 a6 58 3e bc f0 50 3e 28 81 c1 bd d1 8f d6 bd
       0.21157081 0.20404333 -0.09448463 -0.104766496
0001f0 fa 87 1f be e9 db 78 be ea a9 ab 3d de 57 00 3e
       -0.15579215 -0.24302639 0.08382018 0.12533519
000200 0a 86 49 bd 56 a1 ae 3d 21 4c 8b be 2c 27 2a 3e
       -0.049200095 0.08526866 -0.2720652 0.16616505
000210 94 63 3f bc 4b 2c 06 bf 67 07 74 be 6a 3b b0 3e
       -0.011681456 -0.52411336 -0.23830949 0.3442033
000220 68 2a 7a bd 6f b1 eb bd eb 6e 89 bd 45 18 80 3d
       -0.061075598 -0.11508452 -0.06710609 0.06254629
000230 15 f8 c3 be bc e4 3c bc ab f1 a3 3c 43 5d 82 bc
       -0.3827521 -0.011529144 0.020012697 -0.015913611
000240 ca 29 07 be 61 01 08 3e 6d a0 ae bd ba 9a 67 3d
       -0.13199535 0.13281776 -0.085266925 0.056544043
000250 c8 5b 0f 3e 99 04 12 3d 28 7a 2f 3e 43 b5 90 be
       0.13999856 0.035648916 0.17136443 -0.28263292
000260 95 1c 0f be 5e 3d b4 bd e7 7b ce 3d 8a 7e cf 3e
       -0.13975747 -0.08800767 0.10082226 0.4052623
000270 ec e3 ed 3d ed 9e 67 bf 5e 56 82 3e 9a 4b f3 3e
       0.11615738 -0.90476876 0.25456518 0.47518617
000280 d9 1e 1a 3f 0a 05 0d 3e e8 87 e9 be 41 56 5a 3e
       0.6020332 0.13771453 -0.456115 0.21321966
000290 38 a0 24 be 38 8f b3 3e d9 03 82 bf a0 a5 b7 3f
       -0.16076744 0.35070205 -1.0157424 1.434742
0002a0 2c 29 2a 3f 66 23 36 3e 02 8d 1d 3e d6 06 94 be
       0.66469073 0.17786941 0.15385821 -0.28911465
0002b0 6b 57 66 be dd 19 e2 be 02 18 80 3e 07 32 20 3f
       -0.22494285 -0.44160357 0.25018317 0.62576336
0002c0 6e 22 07 bf 39 12 bc 3e d0 78 26 be b6 f9 ba 3e
       -0.5278691 0.36732653 -0.16257024 0.3651864
0002d0 b2 d7 f7 3d 8a dc 27 3f 9e 1c 76 bf 37 f6 1a bf
       0.121016875 0.6557089 -0.96137416 -0.60531944
0002e0 7a a1 99 bd c4 9c 99 be 60 4f b0 3e 49 c4 9a 3e
       -0.07501502 -0.30002415 0.34435558 0.3022788
0002f0 3b 3f 0c 3f 37 2a ce be 6b 44 34 3e 05 ff 9b 3d
       0.5478398 -0.40266582 0.17604224 0.076170005
000300 0b 84 81 3d 33 9f fc bd fe 4d 28 bf 94 93 98 3e
       0.06324013 -0.12335052 -0.65744007 0.29800093
000310 46 13 63 3e a8 8a 0e 3e ef dc de 3d 2f 73 85 3e
       0.22175321 0.1392008 0.108819835 0.2606444
000320 cf aa d3 bc 05 d6 c3 be d0 ed 58 be d1 fb 02 3e
       -0.025838284 -0.3824922 -0.21184468 0.12791373
000330 af c7 1b bf e6 c3 3c be c9 e1 98 3e dd 6c 74 bd
       -0.6085157 -0.18434104 0.2985976 -0.059674133
000340 d4 c0 52 be 68 15 83 3e 05 25 31 3d 24 ad 1c be
       -0.2058137 0.2560227 0.043248195 -0.15300423
000350 05 91 6d 3d 21 b6 47 3e 51 5c 3c 3e cb 13 cd 3d
       0.05799963 0.1950307 0.18394591 0.10013541
000360 5f f5 f1 bc d4 3c 5e be 76 76 56 3e f9 a0 f5 3e
       -0.029535947 -0.21702892 0.20943627 0.47974375
000370 88 0b 9f 3d 09 d3 c5 be 5a 50 71 be f3 2e de 3e
       0.07765871 -0.3863757 -0.23565808 0.43395194
000380 97 3a 88 bd 26 79 4e bd cf 48 27 bf 11 47 32 be
       -0.066518 -0.050408505 -0.6534547 -0.17409922
000390 f7 67 cf 3d b4 c7 7d 3e cf a4 00 3d b2 c4 c8 bc
       0.101272516 0.24783212 0.031407174 -0.024507854
0003a0 cd b2 49 3e 07 a0 a6 bc 91 e6 85 be de b1 43 bd
       0.19697113 -0.020339979 -0.2615247 -0.04777705
0003b0 9f 38 98 be f8 c6 0c 3d ce 8a 78 3e 1c c5 93 be
       -0.29730698 0.03436944 0.242717 -0.2886132
0003c0 ab bb 4b 3e 30 1d 2f bd 5b dc 99 bd 37 4c 6a bd
       0.19895808 -0.042752445 -0.075127326 -0.05720159
0003d0 df da e5 bd b1 40 25 3d b0 0c 4c 3e a0 a5 d5 3c
       -0.11223387 0.040344898 0.19926715 0.026079953
0003e0 49 88 5e 3e 24 47 93 bd b5 fe 15 bd d5 51 4f 3f
       0.21731676 -0.07191303 -0.03661986 0.8098424
0003f0 5d b2 90 bd 03 6b 92 be f1 f0 15 be 82 16 bc 3e
       -0.0706527 -0.28597268 -0.14642693 0.36735922

decoder.bias_ih_l0 f4 [128]
000000 6d 5a 35 bd c4 ff 48 3e fc 1f 91 bd 82 d9 d8 3c
       -0.04427569 0.19628817 -0.07086179 0.026470903
000010 99 14 49 3e e1 87 f1 bd c3 67 50 3e 66 a9 85 3d
       0.19636764 -0.11793495 0.20352082 0.06526451
000020 86 fe 4e bd 28 e9 2e bd be 83 e9 bd f5 ad 2a 3d
       -0.0505357 -0.042702824 -0.11402081 0.041669805
000030 a9 b0 8f 3d c5 07 92 3d a9 96 bc 3d d4 cc 8d 3d
       0.07016117 0.07130388 0.09208424 0.069238335
000040 7c d8 43 3c f3 6f 9c 3c 3a c1 1a bc 7a 0d ee bd
       0.011953469 0.01909635 -0.009445483 -0.11623664
000050 2c a9 ba 3d c3 f5 2f be 35 21 13 3d 7a 28 11 3d
       0.09114298 -0.17183594 0.03592034 0.035438992
000060 62 6a 34 bd 0f fa 1f 3e 20 1d 0e be 31 55 22 3e
       -0.044046767 0.15622734 -0.13878298 0.1585281
000070 67 88 ee 3d 2c 91 06 3e 4a f1 a8 bd fa a1 87 bd
       0.116471104 0.13141316 -0.08249147 -0.066226915
000080 8a b0 c5 bd 31 b0 c4 bd d0 3b 1e bd a4 cb b7 3d
       -0.09652813 -0.09603918 -0.03863126 0.08974388
000090 75 ab af 3b e1 b2 b1 3d 28 42 65 bc c6 ac 02 be
       0.0053610154 0.086766966 -0.013992824 -0.1276122
0000a0 41 52 c1 bd 3c 56 10 3e f7 c5 9c 3d 28 65 b2 3c
       -0.09439517 0.14095396 0.07654946 0.02177675
0000b0 44 3e fe 3d 97 ed 9c bd 74 93 1a be 91 00 a2 3d
       0.1241422 -0.07662504 -0.15095311 0.07910264
0000c0 57 b6 99 3d 2f e3 2b 3e 48 1f 93 bd ce 54 ed bd
       0.07505482 0.16785882 -0.07183701 -0.11588441
0000d0 d2 e7 03 3b d9 d7 f0 bd 6b 83 6a 3d 64 74 d6 3d
       0.002012719 -0.1175992 0.057254236 0.104714185
0000e0 1c 62 95 bd 7c 8a 3b bd 44 89 43 be 25 d0 51 be
       -0.072941035 -0.045786366 -0.19095331 -0.20489557
0000f0 a0 3d 23 be da d5 5d be d8 f1 f4 3d 38 ee 37 be
       -0.15941477 -0.21663609 0.119601905 -0.17961967
000100 8a 33 e9 3d 03 ca 39 3e 75 43 53 be d3 bd 1b 3e
       0.113867834 0.18143468 -0.20631202 0.15209131
000110 1f c4 0f be f5 2f 38 be 70 f1 e1 bd a0 7f c2 3d
       -0.14039658 -0.17987044 -0.11032379 0.09496999
000120 d8 40 34 3e 89 66 7a be 6d 7b e6 3b dd b8 44 3e
       0.17602861 -0.24453177 0.0070337565 0.19211145
000130 77 07 c5 bd 41 07 99 bc 56 9d 9c bc 17 e1 83 bd
       -0.096205644 -0.018680217 -0.019117992 -0.06439417
000140 b5 50 54 3d 8a b7 b4 3d 6f f2 13 be f9 32 52 be
       0.05183478 0.0882407 -0.1444795 -0.20527257
000150 29 83 77 3e 11 83 f0 bd dc 39 be bd 30 5e 45 be
       0.24171127 -0.11743749 -0.092883795 -0.19274211
000160 74 40 21 bc a1 e0 78 be 35 ee fa bc b5 0f a7 3c
       -0.009842027 -0.24304439 -0.030631164 0.020393232
000170 fd 01 24 bd d3 6b 64 bd ff 20 05 bd ed 8b 8e bd
       -0.04004096 -0.05576689 -0.03250217 -0.069602825
000180 a3 0a 5d 3e 2d 73 05 3d 81 cb d4 bd f8 b4 1f bd
       0.21586089 0.032580543 -0.10390378 -0.038990945
000190 d2 c9 72 3e 6a 3c c8 bd 0b 0a 41 3e c2 f6 8a bd
       0.23709801 -0.09777148 0.18851487 -0.067853466
0001a0 3b e3 a5 bd 52 bf d2 bd 2a a4 39 be 79 9a 26 3e
       -0.080999814 -0.10290398 -0.1812903 0.16269864
0001b0 c9 9e 9c 3d 1f ad 27 be e9 32 8d 3c 5e 14 3e 3e
       0.07647473 -0.16374634 0.01723619 0.18562457
0001c0 4a 42 f0 ba 3a 78 94 bd 99 ae 6e 3d 52 c2 11 3d
       -0.0018330303 -0.07249494 0.058271978 0.03558571
0001d0 8a ca e3 bd b0 97 fc bd 16 c9 3b bd 39 a3 93 bc
       -0.11122616 -0.123336196 -0.045846067 -0.018022167
0001e0 ca 95 01 be 4d 42 39 ba 10 62 5e 3e 8b ff eb 3d
       -0.12654796 -0.00070670695 0.21717095 0.1152335
0001f0 e7 53 e5 bd 28 cd 92 3e 73 89 b9 bd a4 1b 1a be
       -0.11197644 0.28672147 -0.090594195 -0.15049607

decoder.bias_hh_l0 f4 [128]
000000 05 58 2d 3e 66 bb 91 3d 80 a3 c7 bd 9e a5 ba bd
       0.16928108 0.071158215 -0.09747982 -0.0911362
000010 5b 7b 47 3e 6c b3 cf bd 71 22 89 3e 3f 85 ae 3e
       0.1948065 -0.10141644 0.2678409 0.34086034
000020 d7 aa c8 3d 6a 38 c3 ba 69 29 0a be 9c 7d b1 3d
       0.0979821 -0.0014894132 -0.13492359 0.08666536
000030 81 d5 ab bd 3c b0 d6 3d 89 4d 4f 3d 72 0e 00 3e
       -0.08390332 0.10482833 0.050611053 0.1250551
000040 23 e7 3b 3d f9 0c 11 3e a7 2f a3 bd 77 9f 57 bd
       0.045874726 0.14165105 -0.07968073 -0.052642312
000050 73 48 a5 bd 9c be 19 bd 25 c0 30 3d a3 47 05 bd
       -0.08070459 -0.037535295 0.043151993 -0.03253902
000060 3d 29 07 3e bd 01 16 3e 89 06 00 3e 99 a8 0d 3e
       0.13199325 0.146491 0.12502493 0.13833846
000070 21 ff dd bd 5f 90 cd 3d cc 57 22 be ea c4 78 be
       -0.108396776 0.10037302 -0.15853804 -0.24293867
000080 49 99 ff bc c0 67 46 bd 1b ea 98 be 68 47 4b 3d
       -0.031201022 -0.048438787 -0.29866108 0.049628645
000090 d4 cb 79 bd 1e b3 3d 3e 4c 32 46 bd 3d 2f 1c bc
       -0.0609854 0.18525359 -0.04838781 -0.009532747
0000a0 04 89 29 3e 25 b9 5c 3e 16 6b ca bd da dc 08 bd
       0.16556174 0.21555002 -0.09883706 -0.033413745
0000b0 b8 ce 45 3c 73 e8 b1 3a 17 18 1f 3e f1 97 dc bd
       0.012073211 0.0013573304 0.15536533 -0.10771168
0000c0 1e e4 2f be bf 26 ca bb 77 86 8a bd 92 56 e3 3d
       -0.17176864 -0.0061691697 -0.067639284 0.11100496
0000d0 cd 5c 8e 3d c1 9d 78 bc 8c d1 18 be 83 24 48 be
       0.06951294 -0.01517433 -0.14923686 -0.19545178
0000e0 22 6f 01 3d 16 72 8e bd 53 7f 72 3d ea fe f6 bd
       0.031600125 -0.06955354 0.059203457 -0.1206034
0000f0 90 c6 0b be d7 37 d6 bd 24 d8 69 bd 92 da df bd
       -0.13649964 -0.10459869 -0.057090893 -0.10930361
000100 8d 81 4a 3e 9c f1 8e 3c 90 f5 14 bc a3 76 f4 3d
       0.19775982 0.017449193 -0.00909175 0.11936691
000110 8c d7 f6 bd 34 a6 f1 bd 41 af 26 3e ed 4f 32 3e
       -0.12052831 -0.11799279 0.16277792 0.17413302
000120 87 35 04 be 9f 6e e0 bc ab b3 a4 3d 6f d5 5f 3e
       -0.12911044 -0.027396498 0.080420814 0.21858762
000130 44 60 3f 3d 41 24 bf bd da e7 07 be 65 a0 83 3d
       0.046722665 -0.09333087 -0.13272038 0.06427077
000140 44 e9 92 bd 7b c0 10 3e c0 f3 e2 bd 5e 87 46 bd
       -0.07173398 0.14135925 -0.11081648 -0.04846894
000150 12 ec 8c bd b9 af 43 be 42 31 08 bd d1 b9 56 bd
       -0.06880964 -0.19110002 -0.0332501 -0.052423302
000160 b5 64 e8 bd 2f ca 33 be 83 1f e1 3d b9 ae e0 3d
       -0.11347333 -0.17557596 0.109923385 0.10970826
000170 47 9c 35 3e d2 63 bf 3c 25 30 98 3d 61 7a 10 bd
       0.17735396 0.023363028 0.07431058 -0.03527296
000180 36 ec 17 3e 8a 0d 05 3e 90 01 e3 3b 5d 69 94 3d
       0.14836201 0.12993446 0.0069276765 0.07246659
000190 e4 05 f5 3d 15 8c 0b 3e d5 aa 57 3e 4a a4 0b bc
       0.11964014 0.13627656 0.21061261 -0.008523056
0001a0 3d e6 95 3c b5 31 51 3d d5 2f be 3b 17 53 e4 bd
       0.018298263 0.051072795 0.005804042 -0.11148661
0001b0 a7 04 54 3d df d9 6a 3d 17 0a a0 3d 0d 38 ae 3d
       0.05176225 0.057336684 0.078144245 0.085067846
0001c0 4d e7 31 3d 6d 5b 57 3e bb 07 95 3d 52 60 1e be
       0.043433476 0.2103097 0.07276865 -0.15466431
0001d0 c9 41 13 3e 38 9f 0c 3e 29 84 6e 3d 22 e8 29 3e
       0.14380564 0.13732612 0.058231506 0.16592458
0001e0 62 d8 d7 bd 3c 50 0b be f3 d2 52 3d b0 3b 32 3d
       -0.105393186 -0.13604826 0.051470708 0.043513954
0001f0 25 be d5 bd fc c6 83 3e 54 8e 27 be fe 3b 8f bd
       -0.10436658 0.2573775 -0.16362888 -0.069938645

output_layer.weight f4 [6, 32]
000000 6a 83 97 3d dd 72 a4 bd 15 6b 8c bd da f0 8c 3c
       0.07398112 -0.08029721 -0.06856362 0.01720469
000010 f2 29 8d 3d d7 2d ee 3c e8 78 41 3e d4 3f ac ba
       0.06892766 0.029074593 0.18893778 -0.0013141581
000020 e1 db 0a 3e 3e 3d d3 bd ce be 9f 3d 60 98 5f 3e
       0.1356044 -0.103144154 0.07800065 0.2183547
000030 18 63 3e 3e e8 33 90 bd 4c db 61 3e a8 bd e8 bd
       0.18592489 -0.0704115 0.22056311 -0.11364299
000040 73 63 0d bd 22 65 3c 3e e7 c5 33 be 30 53 8b bd
       -0.03451867 0.18397954 -0.17555963 -0.06802976
000050 72 0c d1 3d c9 8d dd bd fd 75 6e 3d f6 c8 8c 3d
       0.10207452 -0.10818059 0.05821799 0.06874268
000060 7a 9b a6 bd 34 ee 08 be ef 23 f4 3d 1a dc 30 3d
       -0.081351236 -0.13372117 0.11920916 0.043178655
000070 75 0a f3 3d 23 0d 67 3e 14 c2 e7 bd e8 4b ff 3a
       0.11867229 0.22563605 -0.11316314 0.0019477578
000080 97 1b 82 3d 43 c5 47 3e aa b1 68 3e 7b 10 15 3e
       0.063529186 0.19508843 0.22724023 0.14557068
000090 c6 94 44 be a9 a6 58 bd 62 46 8c 3e 5a a6 96 be
       -0.19197378 -0.052893315 0.27397448 -0.2942379
0000a0 73 1d 96 bd 8e 0c 55 be 1a bf e7 3a ae 05 2c 3e
       -0.07329836 -0.2080557 0.0017680854 0.16799042
0000b0 1e f7 41 bc b6 78 2c 3d 13 ab 1c be 54 85 2d be
       -0.0118387025 0.042107306 -0.15299635 -0.16945392
0000c0 13 63 ac bd b3 2d 28 3c 3b 6d ad 3c 79 83 45 be
       -0.084173344 0.010264802 0.02117025 -0.19288434
0000d0 5a fd 0e 3e 99 33 91 be 0f c0 9e 3d 53 46 ad 3c
       0.13963833 -0.28359678 0.07751476 0.021151697
0000e0 8f 45 34 be 04 d2 8f bd b6 f5 28 be e1 34 c6 bb
       -0.1760466 -0.07022479 -0.16499981 -0.006048784
0000f0 1d 37 81 3c 1a b8 3b 3f 55 3c 31 3e 72 b8 98 3d
       0.01577335 0.7332779 0.17308171 0.07457055
000100 4b a4 7b bd 9d b5 2b 3e e1 fd 0a be 7a a2 4a be
       -0.06143598 0.16768499 -0.1357341 -0.19788542
000110 79 c9 86 3d 74 6d 94 be ec 8a bc bd c6 a0 86 3d
       0.065813966 -0.28989756 -0.09206185 0.06573634
000120 15 00 84 3d 3d 3a a2 bb 00 5d f9 bc a2 5c 9f 3d
       0.06445328 -0.00495079 -0.030439854 0.0778134
000130 3d 5b 8e bb e5 6e 57 bb e1 d5 8b be a2 b0 29 be
       -0.0043443725 -0.0032872495 -0.27311614 -0.16571286
000140 f8 c7 a0 3d 16 88 18 bd da 2d 17 be 5c ca b2 3b
       0.07850641 -0.037239157 -0.14763585 0.005456252
000150 85 88 26 3e b8 2d 7d 3e 0e 2a 99 bd 34 97 06 3e
       0.16263016 0.24724472 -0.074787244 0.13143617
000160 89 7e fb 3d 70 5a 12 be 15 6e d5 bd 91 8d 37 be
       0.12279994 -0.14292312 -0.10421387 -0.17925097
000170 cb a6 6a bd a6 78 4c bd a0 b7 1e be 69 39 55 3d
       -0.057287972 -0.049919747 -0.15499735 0.052056704
000180 1d 87 ed bc 1d b7 61 bc 82 9d 87 3d ae f6 63 3c
       -0.028995091 -0.013776568 0.06621839 0.0139137935
000190 fb 17 98 bd 28 55 fa 3b 83 4a 29 3d db 14 f8 3c
       -0.07426449 0.007639546 0.041330826 0.030283382
0001a0 a3 22 14 bd 71 68 1a be e0 55 9a 3d d9 39 3b 3e
       -0.036165845 -0.15078904 0.075359106 0.18283786
0001b0 73 5c af bd 23 10 f6 3a a4 9a c9 3d 16 a7 9a 3c
       -0.08562555 0.001877312 0.098439485 0.0188785
0001c0 c3 5d 15 3d d2 d3 42 bd 83 94 2f 3d cb d0 91 3d
       0.03646637 -0.04756529 0.04286624 0.07119902
0001d0 b1 03 e8 3d 33 c7 9d 3c 42 17 17 3c bf 43 c2 bd
       0.11328829 0.019260025 0.009221854 -0.09485578
0001e0 84 bf 91 bd 1a 31 7e 3d f6 be 08 3d 18 aa f2 3d
       -0.07116607 0.062058546 0.03338524 0.11848849
0001f0 05 59 7b 3c 58 04 56 3d d4 a2 ac bd 66 1e 2b be
       0.015341048 0.052250236 -0.084294945 -0.16710815
000200 e2 f5 ea bd 7d 68 95 bb 13 17 41 3c a2 ee c9 3c
       -0.1147268 -0.004559575 0.0117852865 0.024649922
000210 04 cc e1 ba 8a 98 13 bd 21 92 74 bd 05 2c 42 bd
       -0.0017226939 -0.036034144 -0.059709672 -0.04740526
000220 1c db 31 3e d2 f8 b2 3d fe 09 60 bc e7 07 b3 bd
       0.1736874 0.08738865 -0.013674257 -0.087417416
000230 d4 8c 13 bd 7b 41 e6 bd 34 5d 29 bc 35 79 3c 3c
       -0.036022976 -0.11242958 -0.010337163 0.011503507
000240 93 35 11 3d 86 89 98 bd 6e 74 3a 3d c2 38 0b bd
       0.035451483 -0.074481055 0.045521192 -0.033989675
000250 d1 86 a1 3d 6f b0 13 3d fc 57 b1 3d 2d 38 05 3e
       0.07887042 0.036056932 0.0865936 0.1300971
000260 73 a8 a5 3d a1 26 64 3d fb 45 d2 3d c7 ef a6 3c
       0.0808877 0.055700902 0.10267254 0.020378007
000270 c4 08 a6 3c 61 8d 3b 3c 6c 25 80 3d 2e cc 4b bd
       0.020267852 0.011447282 0.06257138 -0.049755268
000280 a2 e7 8d 3e 0b af 7b 3e 85 91 e5 3c 25 d9 09 3b
       0.27715784 0.24578492 0.02802349 0.002103397
000290 4e 6c b8 bd 5b fe 91 be e6 44 4f be 6e e2 57 3e
       -0.090050325 -0.2851437 -0.20241126 0.2108247
0002a0 f7 3a 3f 3d b5 c1 41 bd 7c 0f 35 3d 4a 7e 91 bc
       0.046687093 -0.047303874 0.04420422 -0.017760415
0002b0 56 20 8a 3d db 5a a2 bc 06 a7 93 be 57 25 75 3e
       0.06744449 -0.019818714 -0.28838366 0.23940025
0002c0 ef 2b 90 bc 79 97 77 3d 0a dc f7 bd 70 8b 2e bd
       -0.017599074 0.06044719 -0.12102516 -0.042613447
0002d0 9b 69 02 3e d9 f7 65 3e 76 fc 26 be 74 4e 37 be
       0.12735598 0.22457828 -0.16307244 -0.17901021
0002e0 d9 b0 f7 bd 14 8c 5c be c7 02 1e 3c 42 13 50 bd
       -0.12094278 -0.2153781 0.009644217 -0.050799616
0002f0 65 e1 90 3e 54 60 01 3e 57 45 87 bc 98 dc 5f be
       0.28296962 0.12634403 -0.016512556 -0.21861494

output_layer.bias f4 [6]
000000 bc 24 91 3d a0 f5 62 3e 12 1f 0d bd eb 13 68 bd
       0.07087085 0.22164011 -0.03445346 -0.05665962
000010 4f 1f 5e 3d be ff b1 3d
       0.054229077 0.08691357
