model-service/models/load_dict/anomaly-detection/bookings_anomaly_detection.pth (torch, 59240 bytes, 10 tensors)

encoder.weight_ih_l0 f4 [128, 8]
000000 8f f3 69 3e 78 62 f5 3e 6a ce ed be 36 08 93 bd
       0.22846816 0.47926688 -0.46446544 -0.071793005
000010 fe 79 07 be 13 6b ee 3c 04 aa b5 3e b7 d8 07 be
       -0.1323013 0.029103791 0.35481274 -0.13266264
000020 68 95 7a 3e cc 5d 19 3e e6 d1 88 3e c8 a7 5e 3d
       0.24471056 0.14977187 0.2672264 0.054359227
000030 fe b0 9e 3d c9 57 a3 3e af 4b e9 3b bb 38 72 3e
       0.07748602 0.31902912 0.007119618 0.23654453
000040 3c 6b dc 3c f0 41 5a 3e da f0 87 3e 68 a0 46 bd
       0.026906602 0.21314216 0.26550943 -0.04849282
000050 14 a0 13 3d cb b7 c8 3d 1b 6e fe bc 6d 90 74 3e
       0.036041334 0.09800681 -0.031058362 0.23883219
000060 d5 23 f7 3c 1a 21 c8 bd 5c 13 ea bd a8 a6 f2 bd
       0.030168453 -0.097719386 -0.11429474 -0.118481934
000070 c2 e9 96 3d bb 1e 21 3e 07 74 d5 bd da 6f 20 bb
       0.073688045 0.15734379 -0.10422521 -0.0024480731
000080 aa ea 76 3e e5 52 0e be 8e 87 c2 3d ee 4b da bd
       0.24112955 -0.13898809 0.09498511 -0.10659014
000090 c8 34 84 3c 4c b2 97 3e 41 3b c9 3c 52 3b da 3d
       0.01613845 0.29628217 0.024564387 0.10655846
0000a0 a1 7a 22 3e 58 3f ef 3d ae a6 71 3e cd b5 e8 bd
       0.15867092 0.11682004 0.2359874 -0.11362801
0000b0 cf 0b 08 3e 7f a0 87 3e 8e 59 29 3e 67 78 4a 3e
       0.13285755 0.26489636 0.16538069 0.19772492
0000c0 41 ba 84 be ec 27 5e 3e a4 6a 03 3d 4a 7e f5 bd
       -0.2592335 0.21694916 0.032084122 -0.11986978
0000d0 1b b4 84 bd 3b fb 75 3e be 34 45 be 5c b1 0f 3d
       -0.06479665 0.24021618 -0.19258401 0.035081252
0000e0 e6 34 d5 3d 82 59 d3 3d 23 fe 1b bd 32 3e 69 bd
       0.1041048 0.10319807 -0.03808416 -0.05694408
0000f0 e2 e2 19 be 88 24 b3 3e 64 69 82 bd be f9 5a bd
       -0.15027955 0.3498881 -0.06367758 -0.05346083
000100 ae 9f 27 be 58 94 14 bd ad 0e 91 3d 90 54 f2 3c
       -0.16369507 -0.036274284 0.07082877 0.029581338
000110 be a8 8e 3d e7 7a 0e 3e 46 5f 3e 3d b5 af e1 bc
       0.06965779 0.13914071 0.04647758 -0.027549604
000120 90 16 7d 3d ac 7c a9 3e b0 1e 0a 3e 68 82 59 bd
       0.061789095 0.3310293 0.13488269 -0.05310288
000130 95 72 18 3e c7 0e c4 3e 3d 90 9a 3d 2a 7f 0d 3f
       0.1488746 0.38292524 0.075470425 0.5527216
000140 96 ff 7d be 4d e2 6e bc d2 3e 09 bd d4 91 0b be
       -0.2480453 -0.0145803215 -0.033507176 -0.13629848
000150 16 89 ac 3d ed 5d 7a 3e 22 59 a7 3c 97 8b 93 3d
       0.084245846 0.24449892 0.020428244 0.07204359
000160 52 67 29 be de 7c 2f be e5 54 1b bc b0 25 15 bd
       -0.1654332 -0.17137477 -0.00948069 -0.036412895
000170 e3 38 03 3e 2c 64 3c 3e a2 b3 1a 3e bb 23 80 be
       0.1281467 0.18397588 0.15107587 -0.2502726
000180 93 44 1a 3e 27 da 5b 3e a0 92 14 3e 87 9b 20 3e
       0.15065221 0.21469937 0.14509058 0.15684329
000190 f3 70 20 3e d0 3f f1 3d c6 82 c2 3d 95 ce 89 3e
       0.15668087 0.117797494 0.09497599 0.26915422
0001a0 a3 e0 0f be dc 37 86 3d d9 1f 3b be a0 06 df bc
       -0.14050536 0.06553623 -0.18273868 -0.027224839
0001b0 10 a2 17 3d 31 20 02 3e d6 67 fa bd a7 ee 5b be
       0.03701979 0.12707593 -0.122268364 -0.21477757
0001c0 71 9b 5e 3d 05 83 ed 3e d4 04 74 3d 0f 72 32 3e
       0.05434746 0.46389022 0.059574917 0.17426322
0001d0 ac 55 12 3d f0 ea 82 3e 42 70 9c 3e ab 00 93 3e
       0.035726234 0.25569868 0.30554396 0.28711447
0001e0 47 16 0f 3e 0b c1 19 be c4 1f 88 bc 30 3a 20 bc
       0.13973342 -0.15015046 -0.01661671 -0.009779498
0001f0 bd 33 df bd 28 12 b5 bc 8d f4 31 be ea dc 81 3d
       -0.1089854 -0.022103384 -0.17378445 0.06340964
000200 25 5a 91 3e aa 28 c0 3d 8d ac e0 3e d7 0c 2b 3e
       0.28389087 0.09382756 0.43881646 0.16704117
000210 bc 02 9f bd 38 cc a1 3e 10 c6 c6 3e 2c 7b d6 3e
       -0.077641934 0.3160112 0.38822985 0.41890848
000220 c9 9f e2 3c 8c 8e 43 3e 0c d6 e7 3d f0 e0 16 bd
       0.027664082 0.19097346 0.11320123 -0.03683561
000230 96 fa a3 bd a4 de 37 3e 96 eb 3a 3e 2b 5d 4a 3d
       -0.0800678 0.17956024 0.18253931 0.04940526
000240 d5 81 db bd 45 26 15 bd 0e 5d f5 3d b5 c8 1b be
       -0.10718123 -0.03641345 0.119806394 -0.15213282
000250 82 dd 9e 3d ee 86 25 3d 6d 7e 27 3c ea f5 70 be
       0.07757093 0.040411882 0.010223013 -0.23531309
000260 d3 08 cf 3e 7f e2 90 3e 9a a2 b5 bb 7a a4 bc 3d
       0.4043642 0.28297803 -0.0055430653 0.09211059
000270 dc 49 95 3d b1 78 92 3d 75 c1 e6 3e 26 f1 c0 3d
       0.07289478 0.07151926 0.4506947 0.094209954
000280 49 c0 bc bd 53 3f 88 bd e2 7e 67 be 8a 6b c5 bd
       -0.09216363 -0.06652703 -0.22606996 -0.09639652
000290 38 dc 46 3d 78 51 25 be 5b 1a 22 3d 0d 15 96 3d
       0.04854986 -0.16144359 0.039575916 0.07328234
0002a0 7e 19 de 3d e7 61 b3 bd 6f e2 81 bd bc 41 7d bd
       0.10844706 -0.08758908 -0.06342017 -0.061830267
0002b0 84 51 3e 3d e9 a2 27 3e 19 18 82 3e 3f fb 95 3e
       0.046464458 0.16370739 0.2540901 0.29293248
0002c0 ab 19 9a bd 52 3c c5 bc 63 e3 34 be 20 de e0 3c
       -0.07524427 -0.024076615 -0.17664866 0.027449667
0002d0 7c b0 94 bd d4 65 a9 3e 22 2a 20 3e 7d c2 22 be
       -0.07260224 0.330855 0.15641072 -0.15894504
0002e0 5d 0a 6e bd 04 e9 e6 be 38 f8 1f 3e 6e 35 80 3d
       -0.058115352 -0.45099652 0.15622032 0.06260191
0002f0 18 8d ee 3c 8c 96 3b 3e 2c c8 2f bd f4 49 40 3e
       0.029120013 0.18319148 -0.04291551 0.18778211
000300 4c f1 72 3d c2 0c 72 3d c8 3b 51 be c0 03 5d bc
       0.05931215 0.059094198 -0.20432961 -0.013489664
000310 70 83 4e bd ee 96 04 be 30 fb 33 3e e0 2c 65 3d
       -0.050418317 -0.129482 0.17576289 0.055951
000320 75 b2 81 3e bf 04 ac 3e 11 d8 b3 3d b0 d2 60 bc
       0.25331464 0.3359737 0.08781446 -0.013722107
000330 46 04 bc bd f3 09 e6 3d 01 4f 19 3e aa 2c a6 3e
       -0.091805026 0.112323664 0.14971544 0.3245595
000340 2b 4f 9c be 33 4a 42 be d2 42 02 3d 00 fa eb bd
       -0.3052915 -0.18973617 0.031802006 -0.11522293
000350 80 99 ff bb 8b 7b 59 3e f4 81 43 bd 3b 03 17 be
       -0.007800281 0.21238534 -0.047731355 -0.14747326
000360 8f 64 2e 3e 79 03 62 3e 52 b6 4b 3e e4 fd 10 bd
       0.17030548 0.22071637 0.19893768 -0.03539838
000370 2f 3f 34 3e 00 e7 86 3e 0f d0 09 be fe cc a4 3e
       0.17602228 0.26348114 -0.13458274 0.32187647
000380 9b 4e af bc 4c ba c2 3c ba b9 b7 3d b0 79 80 3c
       -0.021399787 0.023770474 0.089709714 0.015683025
000390 d3 3f 2c 3e 6e ae 3e 3e a6 d3 1a bc 3e ca aa 3d
       0.16821222 0.18621227 -0.009449875 0.08339356
0003a0 25 a4 08 be c0 97 ca 3d 80 20 e2 3c bc fc 04 be
       -0.13343866 0.09892225 0.027603388 -0.12987036
0003b0 60 96 9c 3c 96 1f 1f 3e 03 f5 8f 3e 5e 88 23 bd
       0.019114673 0.15539393 0.28116617 -0.03992497
0003c0 60 8f 5b be 22 bc e7 bd 10 0f b3 3a 30 77 26 3c
       -0.21441412 -0.1131518 0.0013661105 0.010160252
0003d0 4c 53 04 3d e7 b1 10 3d 4f d8 c6 bd d2 87 38 3e
       0.032306 0.03532591 -0.09709226 0.18020561
0003e0 89 b6 d4 3d b6 23 73 bd 28 ed 10 3e 74 c8 0e 3d
       0.10386378 -0.05936023 0.14152968 0.034859136
0003f0 dc 44 4d 3d d7 d3 45 bd 86 00 5f bd 0b 21 71 3e
       0.050114498 -0.04829773 -0.05444386 0.23547761

encoder.weight_hh_l0 f4 [128, 32]
000000 26 fc 15 3f 3b 5b a7 be fe 75 08 3f 1b be e3 be
       0.58587873 -0.3268679 0.5330504 -0.44480976
000010 59 58 cc be 40 37 89 3e bb 6c f6 3e 1e c0 a4 3e
       -0.39911154 0.26799965 0.4812983 0.32177824
000020 00 d8 33 be 10 24 19 bd 20 1c 61 bd 5f c6 82 bd
       -0.17562866 -0.037387908 -0.054958463 -0.063854925
000030 fb 9b 02 3f c4 6e b3 bd c1 a2 1a bd 06 5d 22 bd
       0.5101926 -0.08761361 -0.03775287 -0.039639495
000040 b2 95 85 3e 94 af b8 be a4 b5 6a bd b5 71 02 3f
       0.2609077 -0.36071455 -0.057302132 0.50954753
000050 d3 20 da 3d 63 a6 24 3f 7c 5c 73 be 73 ff de 3d
       0.10650792 0.64316386 -0.23765749 0.10888567
000060 aa c7 be 3e 88 3c 3f 3e ba 93 54 3e 46 7d 5f be
       0.37261707 0.18675435 0.20759478 -0.21825132
000070 df 1e 88 3d b4 bf b3 be 3f fc 8b 3e 73 f6 29 bf
       0.06646513 -0.35107195 0.27340886 -0.66391677
000080 38 36 9b be 84 2d 91 3e 02 19 8e be 95 b2 3a be
       -0.30314803 0.28355038 -0.27753454 -0.18232186
000090 29 79 3c bd 92 9c 3d bd 53 d2 2e be 4d 76 3a bc
       -0.046013985 -0.046291895 -0.1707242 -0.011380744
0000a0 62 75 7c be a4 d5 f1 bd 89 d7 4b 3c ef c9 8a bb
       -0.24654153 -0.11808327 0.012441524 -0.004235498
0000b0 fe a9 90 be 7b 43 24 3e ff 03 f6 3d d0 01 0b 3e
       -0.28254694 0.16041367 0.12012481 0.1357491
0000c0 2a b4 2d be d7 a8 77 be d6 aa eb 3b 24 65 75 3c
       -0.16963258 -0.24185501 0.007191996 0.014977727
0000d0 b6 20 b4 bd f1 04 72 be 39 81 22 be 67 f7 96 3e
       -0.087953016 -0.23634697 -0.15869607 0.29485628
0000e0 61 0c ca 3d 8c 69 32 3e 43 c1 fe 3c f0 a5 7f be
       0.09865642 0.17423075 0.031098014 -0.24965644
0000f0 9c 11 74 be 3b 72 ba 3d 0e 8a 82 bc 95 5f a2 bd
       -0.23834842 0.09103819 -0.01593497 -0.07928387
000100 f0 6e 2d be e6 ef 0e 3f 86 d2 d5 be d1 a4 8d be
       -0.1693685 0.55834806 -0.4176218 -0.27664807
000110 fa 59 9c bd ca ec 5e 3e 03 6a c9 3e ae 5d 50 be
       -0.07634349 0.21770015 0.39338693 -0.20348236
000120 2f 2a 7c be a0 c8 e6 3e 0b fd 87 be a7 35 8e be
       -0.24625467 0.4507494 -0.26560244 -0.27775308
000130 c5 0a d8 bd 76 d9 6d 3e 00 20 84 3d c2 6e 2f 3e
       -0.10548929 0.23227486 0.06451416 0.17132095
000140 37 d8 4d 3e 24 54 8b be a2 b8 9f 3e 34 c1 b0 bb
       0.2010201 -0.27212632 0.3119555 -0.0053941254
000150 ce 4e 93 3d e1 23 2c bd 37 c5 ec bd 6a b5 d4 3e
       0.07192765 -0.042026404 -0.11561053 0.41544658
000160 14 85 ae 3e 92 47 dc 3e ee a0 20 3e d3 6d c5 be
       0.34085906 0.43023354 0.1568639 -0.38560352
000170 42 56 18 bf 87 90 9d be 25 d8 86 3d 8c cb 79 be
       -0.5950662 -0.30774328 0.06584195 -0.24394053
000180 3a fd 0a be 77 4d 92 bd e1 d9 77 3e 8d de 96 bd
       -0.13573161 -0.071436815 0.24204208 -0.07366667
000190 46 60 a3 bb 01 61 d7 3d e0 a9 06 bc 79 b3 18 be
       -0.004985842 0.10516549 -0.008219212 -0.14912213
0001a0 50 f7 34 be 6d a0 40 3e 3e d4 23 3d 4f c6 7f bd
       -0.17672467 0.18811198 0.03999733 -0.06244498
0001b0 f6 56 0b 3f b6 5a 09 3e f2 13 19 3e d3 64 eb bd
       0.54429567 0.1341351 0.14949015 -0.1149384
0001c0 01 11 7c 3e a1 79 b7 3c 1d 98 41 3e 43 6e e1 bc
       0.24615861 0.022396864 0.18905683 -0.027518397
0001d0 cc 55 53 3c 6c e5 37 3f e3 d0 0d bd a0 ec 9b bd
       0.012898874 0.71834445 -0.034623038 -0.07613492
0001e0 9e bc b5 3c cc e6 c6 bd cf 99 80 be e5 b2 d5 bd
       0.022184666 -0.0971199 -0.25117347 -0.10434512
0001f0 8c aa 14 3e 89 ed d9 bd ef 0c 09 be a7 40 ad 3d
       0.14518183 -0.10641009 -0.1338384 0.08459597
000200 bd e7 43 3e 2c ac 27 be 73 30 d0 3e 32 2e 8a bd
       0.1913137 -0.16374272 0.40661964 -0.06747092
000210 c8 e2 4e bd 32 9f 84 bc 26 a4 84 3c f9 8e 87 3d
       -0.050509244 -0.016189191 0.016191553 0.06619067
000220 e5 8f e2 bd 55 99 25 3e b0 e6 e7 bd e0 1c 32 bc
       -0.11062602 0.16171773 -0.11323297 -0.010871142
000230 5d c6 0d 3f 8d b6 05 3e 50 b6 6a 3d 87 ab 21 be
       0.55380803 0.13057919 0.057302773 -0.15788089
000240 b5 b8 2a 3e c6 bd 3e bd 03 2b 62 3e 81 db be bd
       0.16672023 -0.0465677 0.2208672 -0.09319211
000250 a9 6c 26 3e 2e b2 f1 3e 3d 2c ef bd bf 8a 94 bd
       0.16252388 0.47206253 -0.1167836 -0.07253026
000260 d3 1a 30 3e c8 96 61 3e dd 6c 8d be 4c 9c 9f bd
       0.17197733 0.22030175 -0.2762212 -0.07793483
000270 3c d2 fe bd 12 9c ff bd a9 87 1c be 54 66 89 bc
       -0.12442443 -0.1248094 -0.15286125 -0.016772427
000280 06 f4 ac 3e 72 7a 2d 3c 9f af b1 3e ae c0 92 be
       0.33779925 0.010588275 0.347043 -0.28662628
000290 18 3c 99 be 7c 05 02 3e 0b d5 e6 3e 6c c1 ef 3e
       -0.2992866 0.12697405 0.45084414 0.46827257
0002a0 99 93 ee be 85 ee fb 3d de 52 13 be 4c 69 9b be
       -0.46596983 0.12301353 -0.1438708 -0.30353773
0002b0 09 57 89 3e 5e c9 5a 3e 0a f7 ef 3e 6f 64 07 be
       0.26824215 0.21365878 0.46868163 -0.13221906
0002c0 20 fa 80 be 65 73 14 bf 1a 4b 55 3e b5 dc 5a 3e
       -0.2519083 -0.5798858 0.2082943 0.21373256
0002d0 ea 0a a9 3e 7f c5 9d 3d 64 7d 78 be f8 11 82 3e
       0.3301614 0.07703685 -0.24266583 0.25404334
0002e0 f3 ba 06 3f 84 71 9b 3e 81 f7 99 3c 44 23 c8 be
       0.5262901 0.30360043 0.018794777 -0.39089406
0002f0 ef d2 2c 3c 4c e2 93 be 3c bd 19 3e 33 39 ba be
       0.010548337 -0.28883588 0.15013593 -0.36371765
000300 5a df d1 be 3e d4 32 be d3 54 7a 3e a5 6e 1d bd
       -0.40990716 -0.17463776 0.2444642 -0.038435597
000310 62 33 dd bc 3b 5f a8 3e ee 4f d3 3e ef db 53 3e
       -0.02700204 0.32885155 0.4127192 0.20689367
000320 7c ed 5e be 7f 5b 8f 3e 21 5b 12 3d c7 c0 33 be
       -0.2177028 0.27999493 0.03573144 -0.17554007
000330 86 02 82 3e 96 ed fa bd 76 81 15 be 41 b8 e0 bc
       0.2539255 -0.12252347 -0.14600167 -0.02743161
000340 df 18 c5 3e 15 bd f8 3d fb 94 b6 3b f4 ca 92 be
       0.38495538 0.121454395 0.005571959 -0.28670466
000350 07 cb 41 3e 6b 86 d2 3e f1 14 ac be 07 42 0d be
       0.18925105 0.41118178 -0.33609727 -0.13794719
000360 60 7a 8c 3b cb 7d 1a 3e 3c 02 53 be 3c 23 0d 3c
       0.004287049 0.15087049 -0.20606321 0.008614358
000370 0f 52 d5 3d b3 e2 f3 bc 5d fc 8a bd 53 73 82 3e
       0.10416042 -0.029771185 -0.06786416 0.2547861
000380 0b ad 4e 3e 23 e3 d3 3e 3e 4e bf bd 7f 34 a2 3d
       0.20183198 0.4138423 -0.093410954 0.07920169
000390 ec fa 2c bd 3f 7f 4d be 47 9e ad 3d bc 44 38 be
       -0.042231485 -0.20068072 0.08477455 -0.1799497
0003a0 ff 78 df 3d 55 11 71 be 70 c5 14 3e 6a 5e 89 3d
       0.1091175 -0.23541768 0.14528441 0.06707461
0003b0 34 9e 2f 3e 2f f2 fe 3c b8 c5 7a 3e 3c a0 4c 3e
       0.17150193 0.031121342 0.24489486 0.19983
0003c0 13 5f 85 bd 1f c7 18 be 73 12 a7 3c a8 0b 7f 3e
       -0.065122746 -0.14919709 0.02039454 0.2490679
0003d0 26 f9 3f 3d a8 d8 67 3e ea 6b 08 3e 4d bb 8c 3d
       0.046868466 0.22641242 0.13322416 0.06871662
0003e0 e4 25 ff 3d d9 be cf 3b 23 6d 17 3e c0 18 83 be
       0.12458399 0.0063398895 0.14787726 -0.2560482
0003f0 3d 91 5b 3e 03 b1 04 3d 18 56 83 3d 55 be 86 be
       0.21442123 0.032395374 0.064129055 -0.26317087

encoder.bias_ih_l0 f4 [128]
000000 e4 58 9a 3e 3a 55 1c 3d 50 8e cc 3e b1 d6 b1 3a
       0.30145943 0.038167216 0.39952326 0.0013568011
000010 eb ea 0a bc 43 35 ac 3e d6 93 87 3d fd 9b ba 3d
       -0.00847886 0.33634385 0.06619994 0.09111784
000020 20 cc 0b be e3 88 85 3e 8b 63 40 3c f4 89 81 3e
       -0.13652086 0.26081 0.011742483 0.25300562
000030 88 9f 16 3e 9f 4e d7 bc 7f 83 df 3b 62 96 a8 3c
       0.14709294 -0.026282607 0.0068210955 0.02057952
000040 9d 5b 3b 3e 28 07 0e 3e 36 cd a9 bd f6 c4 b0 3e
       0.18296666 0.13869917 -0.08291094 0.3452527
000050 42 cc f3 3d 03 cc 4f 3e d5 fe ae 3d 85 23 42 3e
       0.119041935 0.20292668 0.08544699 0.18958862
000060 85 70 29 3e af 7c e8 bd 1b af 2f 3d 3d 83 57 3e
       0.16546829 -0.113519065 0.042891603 0.21046157
000070 0c 0d 32 3e 5a cb 32 3e c4 98 3d be f6 02 1d 3e
       0.1738779 0.17460385 -0.18515307 0.15333161
000080 80 2b f6 3d 19 5d 80 3d 6d 35 d1 3e cf 58 b6 bd
       0.12020016 0.06267757 0.40861073 -0.08903658
000090 36 9e 7a 3b 73 38 18 3e 20 e4 f6 3d a4 27 ed bc
       0.0038241274 0.14865284 0.1205523 -0.028949566
0000a0 e9 18 95 bd ca 85 bd 3e 82 c0 5f bd 6a c9 db 3c
       -0.07280142 0.37016135 -0.05462695 0.02682944
0000b0 0e dc 86 3e b2 80 09 3d 5e 10 0e bd 87 e9 ee 3d
       0.26339763 0.03357 -0.034683578 0.116656356
0000c0 03 ae a2 bc 85 7c b6 bc 1b 8d 1a be d0 c6 21 3f
       -0.019858366 -0.022276172 -0.1509289 0.6319399
0000d0 6f fa 18 be 49 aa e9 3e f2 08 80 3e e3 77 18 3e
       -0.14939283 0.4563773 0.25006825 0.14889483
0000e0 dd c3 40 3e 3d c9 3c be b8 a2 2a be e9 6b c5 3d
       0.18824716 -0.18436141 -0.16663635 0.09639723
0000f0 ea 55 0b bd f2 5c a7 3a 4f 7a dc 3d 55 f9 27 3e
       -0.03401748 0.0012768789 0.10765516 0.16403706
000100 ed 19 27 3e 94 f2 68 3d af 3f e2 3d 06 a0 d4 bd
       0.16318484 0.056871966 0.11047303 -0.103820845
000110 78 4b ab bd 8a 89 03 3e 90 e1 12 3c 8b 36 18 bc
       -0.08364004 0.12845436 0.008964911 -0.009290348
000120 56 84 ea bd 01 2e b5 bd bd bb 3a bd 1e 9b 10 be
       -0.11451022 -0.08846665 -0.045589197 -0.14121673
000130 16 64 d0 bd 6e 47 b0 3d ba 29 d8 bd 25 b4 23 3e
       -0.1017534 0.08607374 -0.10554834 0.15986688
000140 a5 74 60 bd 0c 86 b8 3b ba f4 19 3d c6 62 4a 3e
       -0.05479874 0.005631214 0.037586905 0.19764242
000150 e1 9f b9 bc 20 e9 69 bd f8 ab 0c be 1a e6 d8 3d
       -0.022659244 -0.05710709 -0.13737476 0.105907634
000160 1c 42 9e 3d c1 db d9 3d 82 e3 5d 3d 72 47 b8 bd
       0.07727453 0.10637618 0.054172046 -0.08998002
000170 0c a3 13 3d 6e be 9e 3c f5 b9 09 3d 65 f6 cb 3c
       0.036044165 0.019377913 0.033624608 0.024897764
000180 0b 96 13 3e d1 09 2a 3e c7 5a 3f 3e 11 b4 d4 bd
       0.14412706 0.16605307 0.18686973 -0.103859074
000190 28 12 09 bd 9e 66 b1 3d 0a 18 0f 3e c5 46 14 3e
       -0.03346458 0.08662151 0.13974014 0.14480121
0001a0 0e c9 4a 3e 2a 53 e5 3d 2a 88 6f 3d 8a ce 64 3e
       0.19803259 0.11197503 0.058479466 0.22344413
0001b0 c4 40 92 3d 49 5f 83 bd 32 ad c6 bc 26 bb df bd
       0.07141259 -0.064146586 -0.024252508 -0.109243676
0001c0 49 4f 2f 3e 32 72 6b 3d 69 1a 5f bd 4c b5 6e 3e
       0.17120089 0.057481952 -0.054468546 0.23311347
0001d0 c2 b9 e8 3c 05 8a a9 3e f8 b4 3d 3e 65 ce 54 3e
       0.028408889 0.33113113 0.18526065 0.20781858
0001e0 da 4c 30 3e 29 00 1c 3d b5 52 ed bb c1 aa 37 bc
       0.17216817 0.03808609 -0.0072425255 -0.0112101445
0001f0 b9 86 c8 3d 49 22 a0 3d e7 e6 2b be fc c5 09 3e
       0.09791321 0.078190394 -0.16787301 0.13454431

encoder.bias_hh_l0 f4 [128]
000000 dc cb d3 3d cf a8 60 3d a7 f5 b6 3e 64 26 f5 3d
       0.103416175 0.05484849 0.35734293 0.11970213
000010 ba 96 5e 3e 4a 3f b0 3e 3d 65 10 3d d4 d4 ef bc
       0.21737185 0.34423286 0.0352528 -0.029276289
000020 51 6e 22 bd e8 e7 f4 3d 26 e7 f8 bc 79 95 89 bd
       -0.039655987 0.11958295 -0.030383658 -0.06717963
000030 ea f8 97 3e 49 f2 22 bd 6b ee 74 3d 6c 0c 42 bd
       0.29682094 -0.039781842 0.059797686 -0.047375128
000040 a6 f7 50 3e 92 0e ed 3d 36 de c7 3d 7a ae 8c 3e
       0.2040697 0.11575045 0.0975918 0.27476865
000050 f6 5a f3 bd a4 7e af 3e 24 8a 90 3e eb 50 ea 3d
       -0.11882584 0.34276307 0.28230393 0.11441215
000060 27 75 d5 bd e6 60 ee bc b3 cf 61 be fb 93 64 3e
       -0.10422736 -0.02909894 -0.22051887 0.22322075
000070 56 6a 60 3e 22 17 92 bd 2f b8 24 be 6b 5f eb bd
       0.21915564 -0.071333185 -0.16085885 -0.11492809
000080 5f 4f f6 bd 48 d0 e0 3c ed 34 d3 3e b7 9f 59 bd
       -0.120268576 0.027443066 0.41251317 -0.05313083
000090 e9 7e c3 3d 69 70 de bc 6c 85 ff 3c c4 e2 5b bc
       0.095456906 -0.02715321 0.03119155 -0.013420764
0000a0 1e ba 57 bd bd 98 b2 3e 46 c3 5e bd f2 0b 3f 3e
       -0.05266773 0.34882155 -0.054385446 0.186569
0000b0 d0 90 fa 3d 92 d7 47 be c1 b0 10 3e 65 a1 36 be
       0.12234652 -0.19515827 0.14129926 -0.17835005
0000c0 b7 6e bd 3d 66 a2 01 be 45 46 5f 3c 5d 55 13 3f
       0.09249633 -0.12659606 0.013627593 0.5755213
0000d0 1a 66 c4 3d df 41 6a 3e 9f bd 87 3e 69 56 27 bd
       0.09589787 0.2287669 0.26511857 -0.04085389
0000e0 73 6b 51 3e 99 12 c0 3b da 6f 94 3d a0 01 80 3e
       0.20451145 0.005861592 0.072478965 0.2500124
0000f0 9f 77 30 be 6f 21 06 3e 14 d3 12 bc 23 2b 2c 3e
       -0.17233132 0.13098691 -0.008961458 0.1681333
000100 f7 3d 7f bc 45 f7 0f be f8 42 51 be ba 8a ac bd
       -0.015578738 -0.1405917 -0.20435703 -0.084248975
000110 84 41 51 be ff b2 5e 3d 12 7f 51 3e c3 ff e3 3d
       -0.20435148 0.054369923 0.2045863 0.11132767
000120 a7 19 d1 3d b9 5c f8 3d 26 6b 20 bd 3b cc b0 3c
       0.10209971 0.121270604 -0.039164685 0.02158176
000130 a1 09 2c 3d c7 7a 79 bd 36 09 14 be e8 d0 34 bd
       0.04200137 -0.060908105 -0.14456639 -0.04414454
000140 6c 9e b6 3d 57 ef a5 bd 4f 7c 22 3d 3c d9 a1 bd
       0.08916935 -0.08102291 0.03966933 -0.07902762
000150 94 ea 94 3d 4d fb 38 be 69 d3 06 3e d9 fd a2 3d
       0.07271305 -0.18064614 0.13166584 0.07958574
000160 27 61 22 3e c0 52 f7 bd b7 fb 9e bc 8d f2 03 be
       0.15857373 -0.1207633 -0.019407136 -0.12885495
000170 da c3 2a be ba ba 34 bb e1 55 a1 3d ba 35 87 3b
       -0.16676274 -0.0027577118 0.07877708 0.0041262778
000180 78 db 11 3e a6 bb e1 bc 1a 6d 54 3e 9a c7 aa bd
       0.14243877 -0.027555298 0.20744744 -0.08338852
000190 7b 2b e6 3d be 28 46 3e b2 4c 33 be 38 21 a8 3d
       0.11238762 0.1935148 -0.17509726 0.08209461
0001a0 be ed 30 3e 79 89 82 3e 5b ee 2e bd 50 d3 61 3e
       0.17278191 0.25495508 -0.042707782 0.22053266
0001b0 ed eb 93 3e 1d f1 df bd 12 6a 3c bd 98 4e eb 3d
       0.28890935 -0.109346606 -0.045999594 0.114896
0001c0 48 0e ab 3e 3e a7 14 be 37 42 1d be 19 1c 76 3e
       0.33409333 -0.14516923 -0.1535729 0.24034156
0001d0 9d 17 80 bd b5 0c b0 3e 75 2b 95 3c ee 2a 27 3e
       -0.06254504 0.34384695 0.018209198 0.1632497
0001e0 e3 27 ed 3d c2 b1 0a bd 16 60 29 3d d6 13 11 3e
       0.115798734 -0.03386093 0.0413514 0.14167723
0001f0 c8 6e 30 3e 10 7b ee 3d 05 3f 3c be 29 69 18 bd
       0.1722976 0.11644566 -0.18383415 -0.037209664

decoder.weight_ih_l0 f4 [128, 32]
000000 26 f7 05 3f ae a5 49 3e 22 90 66 be 5e 2d 60 bd
       0.52330244 0.19692108 -0.2251592 -0.054730766
000010 45 d4 0c 3e 7d d1 b7 bd 68 58 ef bd 4e 3d a0 be
       0.1375285 -0.089755036 -0.11686784 -0.31296772
000020 ac 45 22 3e 26 3e 71 3d 4c ea 1a 3e be 5c 6d bc
       0.1584689 0.05889716 0.1512844 -0.0144874435
000030 fc 35 a6 be ee 6a 27 3d fa ae a0 bc d8 5c 09 3d
       -0.32463062 0.04087346 -0.019614685 0.03353581
000040 07 24 1a be b4 42 e5 bd fa 1b 34 3d 4c c4 88 3e
       -0.15052806 -0.11194363 0.043971993 0.26712263
000050 15 61 d6 3b 23 76 5c be a2 d2 07 3e a8 a6 12 bd
       0.006542335 -0.2152944 0.13263944 -0.035803467
000060 7a b2 14 bd 82 2d 69 3e 23 81 0d be 79 b0 62 3d
       -0.03630302 0.22771266 -0.13818793 0.05534408
000070 20 a6 34 be 09 39 b0 3d cd 67 17 3e 72 08 9d bd
       -0.17641497 0.086046286 0.1478569 -0.076676264
000080 2c 5d fd 3e bb 6d 07 3f 85 27 42 bf b9 21 da bd
       0.49485147 0.5290181 -0.7584155 -0.10650963
000090 4b fe 91 3d 99 03 6f 3c 21 1c 4f be 34 a8 79 be
       0.07128581 0.01458826 -0.20225574 -0.2438057
0000a0 29 11 53 bc 90 06 1a 3f 6a e2 5b 3d 25 2e 3b be
       -0.012882509 0.60166264 0.053682722 -0.18279321
0000b0 d5 3b e4 be 0b ce 74 3d 2e 76 c1 3e b1 df 42 be
       -0.44576898 0.05976681 0.37785476 -0.19030644
0000c0 57 ec 59 3e de cb a9 3d f4 21 e8 3d cc 2b 05 bd
       0.21281563 0.08290838 0.11334601 -0.03251247
0000d0 68 03 62 be c1 f6 5a 3e 0c de 87 bd bd d1 04 3e
       -0.22071612 0.21383192 -0.06634149 0.12970634
0000e0 ce 4b 1d 3e d6 01 08 bc 56 f4 9a be 4d 78 8b be
       0.15360948 -0.008301219 -0.3026454 -0.2724022
0000f0 d7 83 da be ec 3d a6 3c 8b 7d a9 bc 80 c9 c5 bd
       -0.4267871 0.020293199 -0.020689746 -0.09657574
000100 a9 c1 16 3e c9 77 00 3d 0c e4 a0 3e a8 63 e0 bd
       0.14722313 0.031364236 0.31423986 -0.10956508
000110 fb 71 0c be 15 0f 76 3e 9e 9c 0f 3e 1d 70 ac bd
       -0.13715355 0.24029191 0.14024588 -0.084198214
000120 0d 82 d3 bc e4 12 76 be 0e 63 6f 3c 92 a5 0a be
       -0.025818849 -0.24030644 0.014611019 -0.13539723
000130 8c 9c 37 3e 4a f6 e4 bd 5b 66 46 bb 33 1c c6 bd
       0.17930812 -0.111797884 -0.003027341 -0.09673347
000140 2c 35 d4 bd 89 37 e3 bd 03 42 77 3d 7d be 62 be
       -0.10361704 -0.11094577 0.060365688 -0.22142978
000150 33 f8 c7 3d e2 ab 3a 3e 67 a5 17 be 29 21 07 3e
       0.09764137 0.1822963 -0.1480919 0.13196243
000160 81 71 c5 bd c9 6b f4 3d 6a 24 00 3e 51 74 af 3d
       -0.0964079 0.11934621 0.12513891 0.085671075
000170 f8 29 6c 3e 2c d3 f6 3d 4b 14 20 3e 5c 3a 64 bd
       0.23062885 0.120519966 0.15632741 -0.05571972
000180 3d cc 2e bd 2c 9f 86 be 6d 07 aa 3e d2 2f 33 be
       -0.042675246 -0.26293314 0.3320879 -0.17498711
000190 e9 8d 9d 3b 67 01 8f 3e 7f fd 44 be 92 1e 76 ba
       0.004808177 0.27930757 -0.19237326 -0.00093887106
0001a0 ba bc ec 3c ed e7 30 3d ec 85 b2 3d 2e 84 e7 3c
       0.028898586 0.04318993 0.0871695 0.02826127
0001b0 fe 46 00 bd 9c 8a aa 3d e5 eb 5d 3d ec 13 1e 3e
       -0.031317703 0.08327219 0.054180045 0.15437287
0001c0 7e 4d 2b bd 74 8e 3d be c4 2b df bd bb f8 80 3e
       -0.04182195 -0.18511373 -0.108970195 0.25189766
0001d0 b0 1d 3e be f8 6a 11 3d 5c 84 39 be 1b e9 f4 bd
       -0.18566012 0.035502404 -0.18116897 -0.11958524
0001e0 79 28 9d 3d 83 e5 1b 3e 4c bd 89 be 97 73 0c bd
       0.07673735 0.1522427 -0.26902235 -0.034289923
0001f0 58 cc 40 3e 1b e6 55 be ac db c1 3d e7 b8 18 3e
       0.18827951 -0.2088856 0.09465727 0.14914285
000200 0f b0 8c 3e b7 7a 12 bf 01 36 d3 3e 72 95 87 be
       0.27478072 -0.572185 0.4125214 -0.26481205
000210 ea 88 72 be e1 63 3a 3f 32 7c 24 3f 7e 3f 06 3f
       -0.23685041 0.72808653 0.64252007 0.5244063
000220 10 a1 a7 bd a3 bf 32 3e eb 13 bc bd 39 35 60 be
       -0.08185017 0.17455916 -0.091834866 -0.21895303
000230 28 3f 00 3f 13 91 02 3d 81 53 43 3e 1b fe 86 3d
       0.5009637 0.031876635 0.19074823 0.065914355
000240 0c 40 df 3e 5b 99 5b be ad 17 e4 3d e8 ed 0c bf
       0.4360355 -0.21445219 0.11137328 -0.55050516
000250 10 bc cb 3e 50 dd 4c 3f dc ef c5 be c6 ca 85 bd
       0.39791918 0.80025196 -0.3865956 -0.065328166
000260 f2 b6 0b 3e a0 c1 32 be 9d d8 da 3d 4f 75 cc bd
       0.13644007 -0.17456675 0.10685847 -0.09983312
000270 00 35 dc bc 65 a6 a8 be 4e 93 72 3e ab f2 33 be
       -0.026880741 -0.3293945 0.23689005 -0.17573039
000280 67 35 48 3f ee c0 9d bd 22 67 b6 3d 83 32 8b 3e
       0.78206486 -0.07702814 0.0890639 0.27186975
000290 67 4c 23 3e 4b b3 54 3d 67 6f c3 3d c3 d7 f5 bd
       0.15947114 0.0519288 0.09542733 -0.12004044
0002a0 34 85 8a bd 3a 4f f1 bc e1 b5 bd 3d 32 ce 90 bd
       -0.06763688 -0.029456723 0.09263206 -0.07070579
0002b0 35 fd 92 3e 76 c6 d5 bc e6 4a 3f be cc 40 03 be
       0.28708807 -0.02609561 -0.18680915 -0.12817687
0002c0 a4 07 b2 be 11 18 92 3d 52 d5 9f be 5b c4 19 3d
       -0.34771454 0.071334966 -0.31217438 0.037540775
0002d0 3e 79 c9 be 52 ec a7 bc d6 83 85 bd f9 aa 9c bd
       -0.39350313 -0.020498428 -0.06519286 -0.07649798
0002e0 e6 87 46 be bb 35 23 3d 3a 80 ce bd 60 af 81 3e
       -0.19387779 0.039846163 -0.10083051 0.25329113
0002f0 80 f6 a8 b9 05 e7 f3 3d de 76 30 3d fe 3a 59 3c
       -0.00032227114 0.11909298 0.04308211 0.013258694
000300 c7 35 8d 3e 7f 35 7b be 5b c1 74 3e 7f 66 0e be
       0.2758009 -0.24532126 0.23901884 -0.13906287
000310 42 dd 34 be 4d 69 7c 3e b2 10 3a 3e a6 22 9b 3e
       -0.17662528 0.24649544 0.18170431 0.30299872
000320 eb 4f c5 be f4 05 83 3c cb b0 73 be 46 aa d4 3d
       -0.38537535 0.01599405 -0.2379791 0.103840396
000330 ca 2a ef 3b 7b dc 0f bd c8 a3 86 3e 62 48 05 be
       0.007298802 -0.035122376 0.2629683 -0.13015893
000340 cd 9b f6 bd 92 22 d7 bc 36 ab 23 be d3 5d 8b 3e
       -0.120414354 -0.026261602 -0.1598328 0.2722002
000350 2d e1 96 3e 2d ad 5d 3e 42 2a fe bd 3c 19 e0 bd
       0.2946867 0.21648093 -0.12410404 -0.10942313
000360 7d 79 f1 3c 77 d6 50 3c 97 ca 9f 3b b8 1a 6e bd
       0.029476875 0.012746445 0.0048764455 -0.05813095
000370 cb 79 c5 3d 75 4a af bc 8e 2a 48 be f8 82 d1 be
       0.09642371 -0.021397809 -0.19547483 -0.40920234
000380 92 54 27 be fb 7b 0d bd cd c4 a5 3c 40 c5 87 be
       -0.16340855 -0.034542065 0.020235443 -0.26517677
000390 a0 3f 3c be b0 5c 15 3e ed 49 1a be ce 18 88 3c
       -0.18383646 0.14586139 -0.15067263 0.01661339
0003a0 cd 4b a8 3c 9c 73 29 bc 0e ec 5a bd 32 cf 09 bd
       0.020543957 -0.010342505 -0.053447776 -0.033644862
0003b0 b5 cd 2d be 8b 11 46 bc b6 f9 cd 3b a6 2b 27 3e
       -0.16973002 -0.0120891435 0.0062858714 0.16325244
0003c0 4a 1d 33 be c1 ef b6 bd 9b 9c 6b 3d e7 aa 5b bc
       -0.17491642 -0.08932448 0.057522397 -0.0134074455
0003d0 3f 8f f4 bd 6d 3f 86 bd 0c 30 8a be 68 b1 1c be
       -0.119413845 -0.06555066 -0.26989782 -0.1530205
0003e0 0a d6 c4 3d d6 be da bd f9 de a0 be a3 83 42 bd
       0.09611137 -0.1068093 -0.31420115 -0.04748882
0003f0 23 cb 55 3e b8 21 1f 3d 0b 5b 37 bb f5 50 98 3d
       0.20878272 0.038850516 -0.002797785 0.07437316

decoder.weight_hh_l0 f4 [128, 32]
000000 3e d7 de bd 3e 91 1f be 58 98 de 3c b7 c8 49 be
       -0.10880898 -0.15582749 0.027172253 -0.19705473
000010 83 29 54 be 49 70 8c 3d f1 1f 85 3e 5d e8 f9 bc
       -0.2071896 0.06857354 0.26000932 -0.030506307
000020 f2 77 0e bd c3 46 88 3d 89 cb 90 bc 41 27 3d 3e
       -0.034782358 0.06654122 -0.017675178 0.18472005
000030 c2 00 da bd 2e bc 9b be f1 99 03 3e c3 50 c9 bd
       -0.10644676 -0.30417007 0.12851693 -0.09829857
000040 86 e8 2d bd f0 b9 2f be 5c 67 54 bd 0d f0 24 3e
       -0.04245808 -0.17160773 -0.051856384 0.16107197
000050 9f 18 26 be 6a 7b 8b bc 02 e4 bb 3a f4 e2 11 3d
       -0.1622033 -0.017026622 0.0014334919 0.03561683
000060 03 9e 55 bd 3a 27 e9 3d f2 64 eb 3c 9c 85 00 bd
       -0.052152645 0.11384435 0.028734658 -0.03137742
000070 9e b3 79 3e 94 0d db 3d 5d b2 ac bd 74 fb 1e 3d
       0.24384925 0.10695949 -0.084324576 0.038814023
000080 ca e2 8c be f5 ce 29 bf a9 51 0a 3d 75 7d 37 3e
       -0.27516776 -0.66331416 0.033769283 0.17918952
000090 dd ad ca 3e bc 4c e4 be b3 d3 62 be 01 56 3c 3b
       0.39585772 -0.44589794 -0.2215107 0.0028737786
0000a0 02 0f 1b bf f6 22 69 3b 04 7d b9 3e 65 49 8d bd
       -0.60569775 0.0035573817 0.36228192 -0.068987645
0000b0 b0 ba 28 bd f0 95 fd bc 68 2b c3 bc fc f7 6a 3e
       -0.041193664 -0.030955285 -0.023824409 0.22946161
0000c0 84 5f 20 3f 99 a4 d5 3d c0 e8 8f 3e 79 25 7f be
       0.62645745 0.10431785 0.28107262 -0.24916638
0000d0 78 65 7b 3e 5a be 8d 3e 9f 95 d8 3e 8a a7 39 3d
       0.24550426 0.2768429 0.42301652 0.045325793
0000e0 f1 57 42 be 6c 1f aa 3e 81 4e c5 be e1 ce 05 bf
       -0.1897886 0.33227098 -0.38536456 -0.522688
0000f0 2c 65 81 3e 0e a0 1b 3e f5 cd ba 3b 74 d9 b0 bd
       0.252725 0.15197775 0.0057008215 -0.08635226
000100 a4 38 54 be 71 ab 48 3d c2 fb 1f 3e ea 67 09 3e
       -0.20724732 0.048991624 0.15623382 0.13418546
000110 ce 5d 00 3e 6b af 80 be 88 9c 62 3e fe af d3 3d
       0.12535784 -0.25133833 0.22130024 0.10336302
000120 56 8a 3b 3d cd 14 dc 3d 32 37 10 bd f0 c4 31 3e
       0.045786224 0.10746155 -0.03520889 0.17360282
000130 fa ed 1f be a6 f3 68 be f6 87 13 be a5 ec c1 bd
       -0.15618125 -0.22749195 -0.14407334 -0.094689645
000140 1f ad d5 3c 85 63 df 3d 0d 33 0f 3e ac 2a ad bb
       0.026083527 0.10907654 0.13984318 -0.005284628
000150 ca 68 40 bd b8 13 bd 3c 7a ab 51 3c db b0 1a 3e
       -0.046974935 0.023080692 0.012797231 0.15106528
000160 1f 79 0f 3e b7 dc 8f be 6f 9c 67 bd 2a bf 85 3d
       0.14011048 -0.2809808 -0.05654567 0.06530602
000170 86 ba a2 3e 3e 46 1a bd ee 4c cc 3b b7 d4 2c be
       0.3178293 -0.037664644 0.0062347567 -0.1687802
000180 4e d5 66 bd aa 13 e1 3d f4 29 c9 bd c3 97 53 bd
       -0.056355767 0.10990079 -0.09822455 -0.051658403
000190 ee dd d5 3d e2 9b ba 3d 3c 2a 94 3d 76 64 e5 bd
       0.1044272 0.091117635 0.07234618 -0.11200802
0001a0 74 52 4e bd f2 b6 88 3c 94 5e 8a bd da 17 6e 3d
       -0.050371602 0.016688798 -0.067563206 0.058128215
0001b0 20 66 58 bd ed 38 b8 be cd 2d 42 bc 59 3a b3 be
       -0.05283177 -0.3598093 -0.01185174 -0.35005453
0001c0 b3 c1 8e be 6a 71 35 bd 27 95 f9 bd b3 cb b3 bb
       -0.27882156 -0.044297613 -0.12186652 -0.0054869293
0001d0 9e 7d d7 be 59 5f 41 be 35 5f 9a be 18 18 cd 3d
       -0.42088026 -0.18884028 -0.30150762 0.10014361
0001e0 70 03 56 3d 6e e5 0c 3a 23 cd af 3d a5 36 16 be
       0.052249372 0.0005374764 0.085840486 -0.14669283
0001f0 6b 9b aa 3e 7b ef 56 3d eb e7 9d bd 97 5f 18 be
       0.333217 0.05247448 -0.077102505 -0.14880215
000200 c6 70 c6 3d a8 b8 1a 3f 74 fc bd 3e 01 c5 b3 3d
       0.096894786 0.60438013 0.3710667 0.0877781
000210 55 55 cc be 89 d2 e0 3e ee e4 ff 3c b6 9b cd bd
       -0.39908853 0.43910626 0.031237092 -0.10039465
000220 46 11 9d 3e 95 6c c0 3d 58 27 4f 3e ec 62 12 be
       0.3067724 0.093957104 0.20229852 -0.14295548
000230 ae 58 e1 bc 7e e3 16 3c e0 06 70 3e 35 ff 26 3f
       -0.027508106 0.009209512 0.23440123 0.65233165
000240 de 5e 95 3d 84 f7 36 be 93 5d a4 be a4 f2 28 3e
       0.07293485 -0.17867857 -0.3210264 0.1649881
000250 8b 2c 20 be c1 8f be 3d f8 1a 87 be ee 09 53 bf
       -0.15641992 0.09304763 -0.26387763 -0.82437027
000260 ea 6c 85 be b1 21 6d be 7f 98 95 3e bd 7f 9e bd
       -0.26059657 -0.23157384 0.29217908 -0.07739208
000270 39 34 e5 3d 56 99 03 3d 36 3e 9e be 99 c8 13 3e
       0.11191601 0.032128654 -0.30906838 0.1443199
000280 b0 80 8c be 53 35 88 bf 8a 99 80 3e 42 f6 c9 bd
       -0.2744193 -1.0641273 0.2511714 -0.09861423
000290 df 2c ee bd 4f 32 9a bc 47 d5 1a 3d 08 40 f5 3d
       -0.11629652 -0.018822817 0.037801053 0.119751036
0002a0 25 bc df be 5d 89 89 be 7e ea 15 be ce c2 bf 3d
       -0.4369823 -0.26862612 -0.14640233 0.09363328
0002b0 37 a3 c6 3d 36 1f 8f 3e a2 66 0b be ae 11 01 3f
       0.096990995 0.279535 -0.1361337 0.504176
0002c0 01 3d a4 3e 50 f5 4a bf 05 fd c0 bd c0 42 02 3e
       0.32077792 -0.7928057 -0.0942326 0.12720776
0002d0 08 8b 43 bf e1 d9 ad 3d 14 69 cd bd 13 27 d4 bd
       -0.7638402 0.08488823 -0.10029808 -0.10359015
0002e0 93 e1 de bd f3 74 49 3e bd ac 45 3e b9 04 97 bd
       -0.108828686 0.19673519 0.19304176 -0.07373948
0002f0 ed 1a 54 3f 5d de 2e be 33 f7 4e bd b9 ee 2c be
       0.82853585 -0.17077012 -0.050528716 -0.1688794
000300 8a e7 f5 bd 04 4c 9b be 23 b3 3a 3e 40 5b 6b 3e
       -0.12007053 -0.30331433 0.18232398 0.22984028
000310 76 1a 48 be 94 d0 33 3d 6c 55 bd bc d3 fe 62 3d
       -0.19541344 0.043900087 -0.023112021 0.0554188
000320 0a fc a5 be ae 29 07 3c 20 a9 c3 3e 03 43 9b bd
       -0.32418853 0.008249683 0.3821497 -0.07581141
000330 46 79 0e be 94 4f 63 3e f5 bf 8e 3c a5 0c 9c 3d
       -0.1391345 0.22198325 0.017425517 0.07619599
000340 c1 de f7 3e c1 bf 8e be 8e a3 ce 39 09 0e bd bd
       0.48412135 -0.27880672 0.0003941324 -0.092311926
000350 61 e1 b8 be 6e 44 81 bd b5 cf 58 bd 19 db 44 be
       -0.3610945 -0.0631188 -0.05293246 -0.19224204
000360 b2 e4 87 be 5d 93 ef 3e 82 94 39 bd f8 0a b1 be
       -0.26541668 0.46792117 -0.045307644 -0.3457868
000370 53 b8 bc 3e b2 39 87 3e 37 1c f5 3e 99 c0 0e be
       0.36859378 0.26411206 0.4787309 -0.13940658
000380 be f2 35 3e 52 df 8c be e7 fb ee bb c5 48 04 be
       0.1776838 -0.2751413 -0.0072932127 -0.12918384
000390 0d bb 8e 3b 4a 0f 5d 3e 78 6f 9f 3c fd f9 8e bd
       0.0043557943 0.21587864 0.019462332 -0.06981275
0003a0 5e 9a a0 3d b6 e8 05 3e a4 62 a9 3d 4c b0 fa bd
       0.07841943 0.13077053 0.08270767 -0.12240657
0003b0 cd a3 06 bd 88 ca a3 bb 2d 61 30 be 91 a6 25 bd
       -0.032871056 -0.004998509 -0.1722457 -0.040442053
0003c0 d9 b8 b1 be eb c9 fd bd ff 00 08 3e 35 45 80 3e
       -0.3471134 -0.123920284 0.1328163 0.250528
0003d0 b1 f6 88 be c1 a9 7e bd a6 9a 66 be 33 aa 44 bd
       -0.2675071 -0.06217361 -0.22519931 -0.048013877
0003e0 e9 f7 19 be 8a 81 83 be 54 4c 19 3e 6a d7 46 be
       -0.15035976 -0.25684768 0.14970523 -0.19418111
0003f0 d3 a9 87 3e f9 99 a7 bc 2e 46 62 be a9 c2 be 3d
       0.26496753 -0.020459162 -0.22097084 0.09314472

decoder.bias_ih_l0 f4 [128]
000000 8e 66 49 3e 25 97 14 3e 25 d9 48 bd 12 0a d1 bd
       0.19668028 0.14510782 -0.04903521 -0.10206999
000010 29 6b a7 3e 4b cb 9b bd 7c b5 4d 3e e3 6e 1c 3e
       0.32698944 -0.076071344 0.20088762 0.15276675
000020 d3 c0 41 3e f2 95 47 3c 33 95 c0 3c a1 75 e4 3c
       0.18921213 0.012181746 0.023508644 0.027888121
000030 90 71 2c 3e 4d 8c a4 3d 29 98 6b bd 7c fa e1 3c
       0.16840196 0.08034573 -0.057518158 0.02758526
000040 a2 4b e5 3d 72 35 a5 bd e6 ab c6 3d 13 e3 94 bc
       0.111960664 -0.080668345 0.09700756 -0.018174684
000050 66 09 4f 3d a2 14 0e bd 71 5f a5 3e 4f d8 ad 3e
       0.050546072 -0.034687646 0.3229938 0.33954093
000060 3c a0 67 3e 1c fc 35 be b1 e3 d2 bd ef 15 c8 bc
       0.22619718 -0.17771953 -0.10297335 -0.024424521
000070 8e 60 53 be bd 68 c9 bc 1d 2b 3b 3e 3e 3e 71 3d
       -0.20642301 -0.024586076 0.18278165 0.05889725
000080 34 42 46 3d 3c be 06 3c de 98 c1 bd 94 2f 90 bd
       0.04840298 0.008224066 -0.09452985 -0.07040325
000090 20 13 3f be 92 74 b2 bd 56 a0 a5 bd d3 56 ca 3d
       -0.1865964 -0.0871364 -0.08087222 0.09879842
0000a0 bf 83 2b 3e 7a 65 37 be 8f 8c 30 be 4b 7a 05 3e
       0.16749476 -0.17909804 -0.17241119 0.13034932
0000b0 f0 aa 02 be dc cf ae bd b1 87 cb bd 11 83 15 3e
       -0.1276052 -0.0853574 -0.099379905 0.14600779
0000c0 1d 09 90 be 8d c6 af 3d 01 12 5f be 52 11 74 be
       -0.28131953 0.085827924 -0.21784212 -0.23834732
0000d0 b7 bf 36 be ac 4b 65 bd 26 73 e2 bc b2 24 bc bb
       -0.17846571 -0.05598037 -0.027642798 -0.005741679
0000e0 e0 b5 58 bd 88 55 29 3e fb 58 d9 bc 90 49 3f 3d
       -0.052907825 0.16536534 -0.026531687 0.046701014
0000f0 1d 53 95 3e cf 1f 07 be 13 d1 6e bd 95 e8 d6 3c
       0.29164973 -0.13195728 -0.058304857 0.02623395
000100 63 ee a0 bb 0d 5b cf 3d b7 b7 51 3e 5f c8 85 3e
       -0.0049112304 0.101247884 0.20480238 0.26129434
000110 f2 8b 81 3d 1c 29 40 3d 08 a1 c5 bb f0 7f 4d be
       0.063255206 0.046914205 -0.0060311593 -0.20068336
000120 17 af f1 3d e1 e3 37 3e 5d 01 55 3d bf 6d 82 bc
       0.11800974 0.17958023 0.052003253 -0.015921472
000130 8b 16 8c be d0 4d 4d bd 92 92 76 3e 1d 3d 02 bd
       -0.2736095 -0.050123036 0.2407935 -0.031796563
000140 cf 78 a2 3d e6 c7 4d be 82 04 43 3a 1e 6f 8e bd
       0.07933199 -0.20095786 0.00074393314 -0.06954788
000150 9b 19 1c 3d 0f 99 3f 3d c1 d6 7e 3d 31 e1 a7 3a
       0.038110357 0.046776827 0.062216524 0.0012808201
000160 3a de 79 be 1f d0 af 3b aa 19 08 be dd f3 2d 3e
       -0.24401179 0.005365386 -0.1329104 0.16987558
000170 9e 90 0b 3d 6c 74 5f 3e cc 25 c1 3d 0e c8 99 bd
       0.034073465 0.21821755 0.09431037 -0.075088605
000180 4c dc 32 3e 63 98 61 3e 7a 45 f1 ba 2d e1 09 3e
       0.17466849 0.22030787 -0.0018407546 0.13464804
000190 8e ec 6d bd 41 6c 90 bd 6f b2 6c bd b3 f1 ef 3d
       -0.058086924 -0.07051898 -0.057787355 0.11716022
0001a0 58 67 58 3e 44 1a 37 bd a2 89 1d bc d4 9f c5 bb
       0.21133173 -0.044702783 -0.009615334 -0.006031016
0001b0 3a 0e 18 3e 37 99 85 3d 84 df 48 3e 10 8c 8d 3e
       0.14849177 0.06523364 0.19616514 0.27645922
0001c0 c0 15 98 bd e5 01 62 3d 79 47 19 3c df 40 b6 3d
       -0.074260235 0.055177588 0.009355419 0.08899092
0001d0 36 e9 32 3d f0 ac 68 bd fe 10 af 3e 35 9b 47 3e
       0.04367944 -0.05680555 0.34192652 0.194928
0001e0 1e 3a be 3d 0c 26 3d 3e ca 2c 00 3e ed 13 9c 3d
       0.09288429 0.18471545 0.12517086 0.07620988
0001f0 a6 d0 09 be ea 47 27 3e 6f 42 88 3d c3 a6 bc bd
       -0.134585 0.16336027 0.06653296 -0.09211495

decoder.bias_hh_l0 f4 [128]
000000 db 20 f4 3d e9 dd 0b 3e 92 49 75 3d 98 09 43 3d
       0.11920329 0.13658871 0.059884615 0.04761657
000010 a1 c1 4a 3e f2 12 e5 bd 2f 54 3b 3c 7e 9e 04 be
       0.19800426 -0.11185254 0.011433645 -0.12951085
000020 a6 3d 8d 3e e7 54 52 3e 51 b4 0e 3e 44 ec 96 3d
       0.27586097 0.205402 0.13935973 0.07369283
000030 e0 45 ad bc ed 5f 23 be 21 f5 5b 3e 82 1a ef 3d
       -0.021151483 -0.15954562 0.21480228 0.11674978
000040 cb 05 10 be 01 e8 14 3d ad df 36 39 4e 68 d4 3c
       -0.1406471 0.03635407 0.00017440198 0.025928643
000050 ce c4 52 3d 18 ba 10 be 19 fc 1b 3e 1c 63 a4 3e
       0.05145722 -0.14133489 0.15232886 0.32106864
000060 2e d1 5e bd 0f 18 80 bd 18 da 29 be b9 1c 88 3d
       -0.054398708 -0.06254589 -0.16587102 0.066461034
000070 7f 71 d0 bc e9 a3 3a bd 3f b0 aa 3e 46 8c 55 be
       -0.025444744 -0.045566473 0.3333759 -0.20854291
000080 11 2c d6 bd 3f e8 b0 bb 9e d5 25 3e d1 df f6 bd
       -0.10457624 -0.0053987796 0.1619477 -0.12054408
000090 62 fc d2 bd 25 66 89 bd 31 b5 33 be ad ee 91 bd
       -0.103020445 -0.06708936 -0.17549588 -0.07125602
0000a0 8a 25 05 3e 23 4b 73 bc 2c 20 bb bd 0c 84 14 3e
       0.13002601 -0.014849457 -0.09136996 0.14503497
0000b0 b2 2f c1 bd 40 3d 8d bc 5f 6e f9 bd 9c 0d e9 bd
       -0.09432925 -0.01724112 -0.12179255 -0.11379549
0000c0 3a fb bc bc c8 eb 66 3e 77 a8 ce bd ff c4 b9 bd
       -0.023069013 0.22550881 -0.10090726 -0.09070777
0000d0 1b fd a7 bd 2f b3 91 3d 97 b6 3b be dd 96 18 bd
       -0.08202573 0.07114255 -0.18331371 -0.03725325
0000e0 9e 64 c2 3d 56 28 f6 3d 58 8c 5e be 69 fd 00 be
       0.094918475 0.12019412 -0.21733224 -0.12596668
0000f0 00 26 b3 3e 80 2e f3 3d c2 77 6c 3c 69 7e 5f be
       0.3498993 0.118741035 0.014432849 -0.21825565
000100 30 98 8c be 35 52 3a 3d 8f 5c 02 3e ca 28 21 3e
       -0.2745986 0.045488555 0.12730621 0.15738216
000110 42 34 21 be 4e 43 62 3b ce 98 0c be 1e 3c 4c be
       -0.15742591 0.003452498 -0.13730165 -0.19944808
000120 2e ba 27 3d 38 b4 2e bb ff 37 92 3d 50 a5 86 be
       0.04094904 -0.0026657712 0.07139587 -0.26297998
000130 53 bd 63 be 57 3b c6 3d 46 d6 1a 3e d8 1a f5 3d
       -0.2224019 0.09679287 0.15120801 0.11968011
000140 ac 95 51 bd 11 a6 be bd 53 05 cd bd 9b df b0 bd
       -0.05116813 -0.093090184 -0.10010781 -0.08636399
000150 5c f1 99 bc 1a 00 3b bc 31 03 0f 3e 56 5f e0 3d
       -0.018791847 -0.011413598 0.13966061 0.10955684
000160 fd 79 5d be 71 cc 03 be 5b db 13 be c6 8e fc bb
       -0.21628566 -0.12870957 -0.14439146 -0.0077074496
000170 aa 26 23 be 0c c7 f4 3d 7b 60 e5 3d 3f 89 60 bd
       -0.15932718 0.11952028 0.11200043 -0.054818388
000180 d8 a3 b1 bd 4d ce 89 bd f7 d5 05 3e fa 3f c7 bd
       -0.08673829 -0.06728802 0.13069902 -0.097289994
000190 fd 6f 3d 3e 35 cd 52 bd b4 53 7b 3c c2 a2 15 3d
       0.18499751 -0.051465232 0.015339781 0.03653217
0001a0 85 0a f6 3e 6f 63 9a bd fd 49 07 3e 7d ee af 3d
       0.480549 -0.07538497 0.13211818 0.0859041
0001b0 a2 c5 4d 3d 8f 00 85 3a 44 f9 3e 3e d1 c1 b6 3e
       0.050237305 0.0010147261 0.18649775 0.35694745
0001c0 0b 81 10 3b 18 97 9c bd fc ac 7b 3b 37 2b ee bc
       0.0022049572 -0.07646006 0.0038402667 -0.02907334
0001d0 49 89 87 bd 6c fb a1 bc c1 d3 08 3e a4 39 3d 3e
       -0.06617982 -0.019773208 0.13362028 0.1847902
0001e0 4b 09 1e bd 29 8a af bd 5e da 61 bd bc 39 6c bc
       -0.03858308 -0.08571274 -0.05513989 -0.014418062
0001f0 e8 44 aa bd 08 0f e0 bd 8c 0e c4 3d 76 75 44 3c
       -0.08313924 -0.10940367 0.09573087 0.0119908955

output_layer.weight f4 [8, 32]
000000 b5 9c 16 3c b1 c4 91 be 77 59 4a 3d 30 19 d5 3d
       0.009192635 -0.28470376 0.049401727 0.10405195
000010 e4 42 92 3d 4a ab a6 bd a7 c3 76 be b1 3e 42 be
       0.071416646 -0.081381395 -0.24098073 -0.18969227
000020 0a b4 68 3e 96 5f db bd 27 80 1d 3c 13 70 30 3c
       0.2272493 -0.10711591 0.009613073 0.010768908
000030 26 d2 8e 3d 13 66 15 be be 57 31 bc 00 df ab bd
       0.069736764 -0.1458972 -0.010824142 -0.08392143
000040 35 23 97 3b f8 df 77 3c dc da a8 bd c6 44 a1 bd
       0.0046123513 0.015129082 -0.08244869 -0.078744456
000050 01 d0 75 be 17 15 4a 3e d0 59 84 bd ed 7d 9e be
       -0.24005128 0.19734608 -0.06462443 -0.3095545
000060 f1 ca 21 3d 80 cf a2 3c 3e 45 81 3d be 06 fc bd
       0.03950018 0.019874334 0.06312035 -0.123059735
000070 9f 6b 44 3e d7 ea df 3c 0d 8c 4e 3d c2 1c 5a 3d
       0.19181679 0.02733366 0.05042653 0.05325008
000080 45 73 2a 3d 3d ca b5 3d 1b 86 4f 3e 40 b3 6d 3e
       0.041613836 0.088764645 0.20266001 0.2321291
000090 2a e7 c8 be 39 c8 fc bd 2a 29 d3 3c aa 85 7a bd
       -0.39238864 -0.12342877 0.025776464 -0.06116263
0000a0 39 26 f9 3c 66 31 92 3e 6a e0 75 3d cb c6 22 be
       0.030413734 0.28553313 0.06002847 -0.15896146
0000b0 ea 8d 56 be 63 49 04 3d 4c c5 7d 3e 0d 6f 72 3d
       -0.20952573 0.03229655 0.24782294 0.059187938
0000c0 c0 0e be 3d 65 5b ea 3a 77 b7 94 be 0e 96 c9 bd
       0.09280157 0.0017880021 -0.29046223 -0.09843074
0000d0 2f 4e 24 bd ff ee fa 3c 4f e3 ca 3d 7e 10 0b bf
       -0.040113624 0.03063154 0.09906637 -0.5432204
0000e0 ad eb 8c be 59 7d 1f be 08 18 4b 3d 9b 8b 72 bd
       -0.27523556 -0.1557516 0.049583465 -0.05921517
0000f0 1b aa 62 3d 45 c3 33 3d 02 84 25 bd 39 f2 a0 3d
       0.055338006 0.043887395 -0.040409096 0.078587
000100 f4 4e 25 be c8 77 c7 3d e7 80 c4 3d 63 64 5a 3d
       -0.161434 0.09739643 0.09594899 0.053318392
000110 ee c7 dd 3c ea ab db bd a7 50 79 be ec 9d b1 3d
       0.027072873 -0.107261494 -0.24347173 0.08672699
000120 55 45 45 be 39 fb b6 bd 2a 12 a0 bc 65 d8 42 bd
       -0.1926473 -0.08934636 -0.019539911 -0.04756965
000130 d0 30 96 bd e4 35 d0 3d 3b 0e ca 3d 65 66 4c bd
       -0.07333529 0.10166529 0.098659955 -0.04990234
000140 01 84 b6 bd da ea b1 bd af d5 cc 3e b9 f2 d8 3c
       -0.089118965 -0.086873725 0.40006778 0.026482927
000150 b1 cd 69 3d 8e c6 f2 bd 0c e2 97 be eb 06 89 bd
       0.05708093 -0.118542776 -0.29664648 -0.066907726
000160 93 16 a0 bd a0 f2 56 3d 37 97 c8 3c a2 8f 9b 3d
       -0.07816806 0.05247748 0.024486167 0.07595755
000170 51 27 6c 3c 9d 3c bb 3c 5a da e9 3d 93 84 82 be
       0.014413671 0.022856051 0.114186004 -0.2549177
000180 04 b8 e3 3d 41 1b bb bb a8 74 e1 3d 4a 1d c0 3d
       0.111190826 -0.005710036 0.110085785 0.093805864
000190 97 50 f5 bb b5 b6 41 3d 0f fc 33 3d 7c 2d 3e 3e
       -0.0074864137 0.047293384 0.043941554 0.18572038
0001a0 5f fb 2b 3d 35 4c 20 3a da 6f 16 bd 2a 1d a4 bd
       0.041987773 0.00061148714 -0.036727764 -0.08013375
0001b0 a0 a6 18 3e 7b 63 b5 3d c9 1f b3 bc e4 29 7a 3a
       0.14907312 0.08856865 -0.021865742 0.00095429854
0001c0 81 8a 25 3d 04 59 b1 bd 01 35 ae bb 58 c4 bf bd
       0.04041529 -0.086595565 -0.005316377 -0.093636215
0001d0 c0 79 4d 3d 49 05 5f bd ea f1 e1 bc 4f 80 28 bc
       0.050164938 -0.0544484 -0.027581174 -0.010284497
0001e0 e5 34 1d 3e 11 0a 4a 3d 0e 4a d8 bc 77 86 d7 3c
       0.15352209 0.049326006 -0.0264025 0.026309235
0001f0 7b 62 7b 3d e2 51 9b bd 62 98 a1 3c 48 b3 f0 3d
       0.061373215 -0.07583977 0.019725982 0.11752945
000200 44 49 bd bc 75 0d ff 3b 48 b6 d6 bd 68 f5 b6 bc
       -0.023106225 0.0077835866 -0.10483986 -0.022333816
000210 bf 4e e7 3c 0b 5b e6 bc 23 a4 08 bd 79 15 4b bc
       0.028235791 -0.028119585 -0.033359658 -0.012395256
000220 15 fd 95 bc ac de ce 3d 88 f5 9c ba b3 d8 4d 3a
       -0.018309155 0.10101065 -0.001197503 0.000785242
000230 57 2a 1f be 6b 3c 14 3d 1a b0 c7 bd 5d 4a cc 3b
       -0.15543495 0.03619043 -0.097503856 0.0062344507
000240 f2 b9 88 bb 90 1d 8d 3d 9b 85 87 bd 06 47 72 bd
       -0.004172557 0.06890404 -0.0661728 -0.059149764
000250 61 bb ea bc 61 a7 cf bc f4 59 c8 3a 25 a8 a8 3c
       -0.028653802 -0.025348367 0.0015285597 0.02058799
000260 88 35 40 3d 73 e2 31 bd 22 b1 bc 3c 6c ca 8a ba
       0.04692605 -0.04342885 0.023033682 -0.0010588891
000270 c0 eb 24 3a 76 22 b6 bd ec 5e 13 bd bc 58 fe bd
       0.0006291233 -0.08893292 -0.035979196 -0.124192685
000280 94 2b 22 be ac 7d 06 3f d4 2e e2 3d db 68 b6 3a
       -0.15836936 0.5253551 0.11044088 0.0013916747
000290 74 8b 58 3c 8e 61 f3 be 53 fd d9 bc 0d 53 62 bd
       0.013216842 -0.47535366 -0.026610052 -0.055254985
0002a0 ef 2a e6 be f7 e6 37 3e 41 d1 27 3e 8c 0c 94 bd
       -0.4495463 0.179592 0.16388418 -0.072289556
0002b0 bb f2 34 be 8b e2 41 be 34 05 cf 3b 6a d3 42 be
       -0.1767072 -0.18934076 0.006317759 -0.1902596
0002c0 cd de 94 bd a7 6d 51 3d 68 de c1 bd a2 9c 15 be
       -0.072690584 0.051129963 -0.09466249 -0.14610532
0002d0 9f 09 02 3f 2e f2 0e be 2b 50 1a 3e bb 7d 48 3e
       0.5079593 -0.13959572 0.15069644 0.19579212
0002e0 6b 38 ba bb fe 68 98 3e ab c1 2e be f5 65 e9 3d
       -0.005682995 0.29767603 -0.17066066 0.113964
0002f0 27 46 ae 3e 22 8d fd bc 4d 88 db 3d 2a 78 81 bd
       0.34037897 -0.030951086 0.10719357 -0.063217476
000300 23 f5 4e be 29 6b ee 3d 45 b0 cf bd a6 b2 3b 3e
       -0.202107 0.11641533 -0.101410426 0.18329868
000310 ce bd d1 3d 4d 35 30 3e 49 85 88 bd 0f 3d 2b be
       0.102412805 0.17207833 -0.06666047 -0.16722511
000320 d0 4d 88 3e fb 8c 84 3d 11 d5 28 be 3c 1c 4e be
       0.26621866 0.064722024 -0.16487528 -0.20127958
000330 1e 8f 71 bd f0 07 11 3b 44 70 17 3e f5 1c ec bd
       -0.058974378 0.0022129975 0.1478892 -0.115289606
000340 05 7d fc bc 5c f3 93 be 05 64 bd 3d 51 a6 05 be
       -0.030821333 -0.28896606 0.09247593 -0.13051726
000350 6e db dc be e3 89 29 3e 96 d9 84 3e 9d d8 2a be
       -0.43136162 0.16556506 0.25947255 -0.16684194
000360 b4 e2 17 be 76 b5 14 bd eb 80 6b be f6 df a7 3e
       -0.14832574 -0.036305867 -0.22998397 0.32788056
000370 35 bb 11 bd 61 03 80 3e 99 02 b0 3e d1 31 1b be
       -0.035578925 0.25002578 0.34376982 -0.15155722
000380 2a a3 90 3d 2f 2f ba 3c 73 8e 6e be 22 fe 90 bd
       0.07062371 0.022727577 -0.23296528 -0.07079722
000390 7e 3c 99 3e e2 a9 ba bd 1c a4 5b 3c 01 c2 49 bd
       0.29928964 -0.09114434 0.013405826 -0.049257282
0003a0 dc c8 7f bc 19 24 ad bd 96 97 86 bd 9b 44 10 bd
       -0.015611853 -0.08454151 -0.065718815 -0.035221677
0003b0 ff 4d 35 3d c1 70 1f be 40 59 de 3b 2b 43 26 bd
       0.044263836 -0.15570356 0.006785542 -0.0405914
0003c0 f3 22 f3 3d a1 66 33 be ea d7 7a bd fb 68 22 be
       0.118719004 -0.17519619 -0.061241068 -0.1586036
0003d0 35 83 91 3d ea f8 e1 3d dd 24 63 be 80 8f 33 be
       0.07105104 0.11033805 -0.22182031 -0.1753521
0003e0 eb 45 2b bd 6b 6b f9 3c 26 aa 9f 3c e8 5c 21 3e
       -0.041814726 0.030446729 0.019490313 0.15758097
0003f0 8a 25 24 3e 39 19 12 be eb 31 9d 3e e0 9d 72 be
       0.16029945 -0.14267434 0.30702147 -0.23693037

output_layer.bias f4 [8]
000000 3d 0b 52 3e 7e b1 01 3e 47 df 85 3c ad ca 6e 3d
       0.205121 0.12665364 0.016341818 0.058298755
000010 98 6a ac bb 4c 02 54 3e 7c 24 f4 3d 66 f7 c2 3c
       -0.0052617304 0.20704001 0.11921021 0.02379961
