model-service/models/load_dict/anomaly-detection/bookings_anomaly_detection.pth (torch, 6628 bytes, 8 tensors)

encoder.0.weight f4 [16, 11]
000000 75 42 09 3f 56 a0 3f 3f 22 d0 c1 3e 6b ec c1 bd
       0.5361703 0.7485403 0.37854105 -0.09468921
000010 e0 e1 1f bc 97 4d 93 3e 05 16 5c bf 0b 3b 87 bd
       -0.009758443 0.28770134 -0.859711 -0.066030584
000020 18 e9 98 3b 95 20 2c 3f d6 af d8 be c0 29 d7 3d
       0.004666459 0.67237216 -0.42321652 0.1050601
000030 15 79 49 3f 95 44 18 3e 91 6f b0 bd 90 a2 70 be
       0.7870038 0.14869912 -0.086150296 -0.23499513
000040 56 c2 e0 3e 95 92 63 bf 26 1c 5e bc 1b 19 e8 3e
       0.43898267 -0.8889554 -0.013556516 0.45331654
000050 9b a3 bd 3e 53 c9 09 bd 4d 15 d2 bd 09 99 c5 bc
       0.37038884 -0.033639263 -0.10257969 -0.024120824
000060 da 82 84 3e 0b ab bd 3e de 2d 95 be e5 a7 03 3f
       0.25881082 0.37044558 -0.29136556 0.5142806
000070 b6 66 1e bf f4 92 12 3f 62 ac 13 3f 71 24 ed be
       -0.61875474 0.5725548 0.5768491 -0.46316865
000080 41 c3 10 3e a0 d0 75 3d 68 fb 11 be 7e 1a a3 3d
       0.14136983 0.060013413 -0.1425606 0.07964037
000090 85 21 a7 be 88 85 fe 3d 98 de 3e 3e 2f 33 5f bf
       -0.3264276 0.12427813 0.186396 -0.87187475
0000a0 b9 57 86 3e 96 cf 74 3f a9 36 03 bf 58 eb ae bb
       0.26238802 0.9562925 -0.5125528 -0.0053381138
0000b0 24 d9 31 3f 73 39 54 3e b9 cf 50 3f ac 33 2f bf
       0.69471955 0.2072504 0.8156696 -0.6843822
0000c0 4c d7 5c bd f5 0c 0a bc e7 26 21 3e 77 c4 0b bf
       -0.05391626 -0.008425941 0.15737496 -0.54596657
0000d0 58 ac f9 be 44 ec 0c 3f a1 28 8e 3d e1 71 81 be
       -0.487643 0.5504801 0.06941343 -0.25282195
0000e0 28 72 e2 bc 05 cd cf bd ac c9 b8 3d 12 d8 86 bd
       -0.027642325 -0.10146526 0.09022841 -0.06584181
0000f0 ad de 2e 3d 10 82 be bc f0 e1 b5 bc 80 4f c6 bc
       0.04269283 -0.023255378 -0.022202462 -0.02420783
000100 4b 66 54 3e 76 aa 88 3e 62 b9 83 3e 03 fb a3 be
       0.20742147 0.2669255 0.25727373 -0.32027444
000110 b3 44 94 3d a4 19 03 3f d0 c6 0d bd 1d 1f 15 3e
       0.07239666 0.51211 -0.03461343 0.1456265
000120 c3 6b e1 be 52 bf ea 3e 9e 8f 75 be e6 78 47 3e
       -0.44027528 0.4584909 -0.23980567 0.19479713
000130 79 39 03 3f f9 e7 ab 3e 97 22 3a 3f da b5 f0 3e
       0.5125957 0.3357542 0.7270903 0.47013742
000140 2b be 91 be ae 9f 29 3e 21 c9 bd 3d 13 4f ca be
       -0.284654 0.16564819 0.09266878 -0.39513454
000150 78 98 52 bf af 31 32 3f b8 19 da be 8d fb 15 bf
       -0.822639 0.6960706 -0.42597747 -0.5858696
000160 6b 69 77 3d dd c4 f8 3d 96 9d ac 3d e4 d2 e6 be
       0.06040327 0.12146924 0.08428495 -0.45082772
000170 83 be 83 be 61 96 18 be c1 cc 84 bd 48 3b d0 3d
       -0.25731286 -0.14901115 -0.06484366 0.10167557
000180 7b b5 17 bd a5 5f 39 be aa 7c 80 bd a0 9b ec 3e
       -0.037038308 -0.18102892 -0.06273778 0.46212482
000190 7d 2d 51 3f 5e 41 22 3f de bc da bd c0 5d 68 3d
       0.81710035 0.6338099 -0.10680555 0.056730032
0001a0 1f ce cd 3e e4 55 00 bf dd 31 8a 3c f2 1f 0e bf
       0.4019632 -0.5013106 0.01686948 -0.55517495
0001b0 44 2e 4b 3f be f6 08 bf 40 c4 36 be f6 fe 68 bb
       0.7936747 -0.535015 -0.17848301 -0.003555236
0001c0 1b ae 29 be 4b f1 a4 be 20 d0 2a bd d5 1a b3 be
       -0.16570322 -0.32215342 -0.04170239 -0.3498141
0001d0 5c 39 33 be 70 d7 ec 3d 1e 92 83 be 0d c4 d3 3d
       -0.1750235 0.11564529 -0.25697416 0.10340128
0001e0 e0 ff 16 3d b2 af 0a 3f 02 72 a1 3e d9 c0 14 3e
       0.036865115 0.5417434 0.31532294 0.1452669
0001f0 f1 58 74 3e 30 72 ac 3c 0c 4b e0 3e c8 37 9a be
       0.23862053 0.021050543 0.43807256 -0.30120683
000200 39 44 b0 3e ae 8e d9 3d ca fc cc bd a8 64 46 3e
       0.3442705 0.10622917 -0.10009153 0.19374335
000210 d2 e1 4c be 2c 1b 05 bf 5a 31 65 3c 67 38 fe 3c
       -0.20008019 -0.51994586 0.013988817 0.031032754
000220 14 ff 69 be da 99 0d 3f ea fd 54 be 31 8d 67 3e
       -0.22851211 0.55312884 -0.20799986 0.22612454
000230 0f 26 8e bf 3e 63 11 3f 93 6f 31 3e fb 6b 25 be
       -1.1105365 0.56792057 0.17327718 -0.16154473
000240 cf eb 92 be ab 8f 94 be b4 c9 80 3e 66 03 b9 bd
       -0.28695533 -0.2901586 0.25153887 -0.09033851
000250 67 97 04 3f d4 2a f5 be 8b ad 41 3f 93 af d8 bb
       0.5179352 -0.47884238 0.7565543 -0.006612727
000260 cd 07 fd bd ce e8 a9 3e 1d 03 dd bd d3 5f c3 be
       -0.123550035 0.33185428 -0.107916094 -0.38159046
000270 90 9b 8d be 89 40 f2 be 5a 99 3e 3e d2 05 4c bd
       -0.27657747 -0.4731486 0.18613186 -0.04981024
000280 7c dd 8f be b1 d3 59 3d de 7e 99 be 62 18 9a be
       -0.28098667 0.0531804 -0.29979604 -0.30096728
000290 76 7b 05 be 3b ea 2e 3c 1c 78 d1 be 8d db a8 3e
       -0.13035378 0.010675962 -0.4091195 0.32980004
0002a0 4d 45 b1 bd a0 75 ca 3c aa e9 b8 3e 10 8c 56 be
       -0.08655796 0.024714291 0.36115772 -0.20951867
0002b0 4d d4 64 3d 4a 47 9b bf 03 dc 6f 3f 98 82 43 3d
       0.05586653 -1.2131131 0.93695086 0.047731966

encoder.0.bias f4 [16]
000000 02 68 c7 3e d4 60 ca 3e 13 46 e5 3d 08 15 ee 3e
       0.3894654 0.39527 0.11195006 0.4650042
000010 fe f2 5b 3e e3 0b b5 be f0 5b 21 3e f8 51 b8 3e
       0.21479413 -0.3536063 0.15757728 0.36000037
000020 91 4a b7 be dd 11 a8 3e e1 df 16 3e 87 c6 5a 3d
       -0.35799077 0.3282613 0.1473384 0.053411987
000030 4e 60 33 3f 41 56 0e 3f 04 f6 98 bc bb 8f 14 3f
       0.70068824 0.55600363 -0.018671997 0.58031815

encoder.2.weight f4 [11, 16]
000000 9b 54 04 3f 59 32 e0 3e ed 49 5f 3e c0 35 c2 3b
       0.516916 0.43788412 0.21805544 0.0059268177
000010 7f 53 85 3e b5 cf 11 bc 1d 00 d3 be ab 02 3c 3f
       0.26040265 -0.008899619 -0.41211024 0.7344157
000020 4f c5 a4 bd d1 90 0e 3f 4d 34 ee 3b 01 1d 14 3e
       -0.08045446 0.5568972 0.0072694183 0.14464189
000030 59 fc 1d bf 82 27 d6 be df cf d6 3d f6 3b a6 be
       -0.61713177 -0.41827017 0.10488867 -0.32467622
000040 c0 a2 85 3b 60 c6 33 3c cc a8 f6 bd 02 cf 38 be
       0.004078239 0.010972589 -0.12043914 -0.18047717
000050 0a 06 6d 3e e0 51 ad 3d 94 87 80 bd f2 ce 4f 3e
       0.23146835 0.08462882 -0.062758595 0.20293787
000060 9e 0c 3f be 04 e9 f4 bd 54 01 fa 3d 4a 61 6e be
       -0.18657157 -0.11958507 0.122072846 -0.232793
000070 30 af 1a 3d 0e 86 6b 3e 58 05 0c bd 56 b6 1a be
       0.037764728 0.23000357 -0.034184784 -0.15108618
000080 e0 76 b4 3e dc 66 61 3e ac fb 32 be aa 8d 3e 3e
       0.35246944 0.22011894 -0.17478818 0.18608728
000090 02 4f f4 3e e0 8d 3f 3c 7c 0e 8e bd 0e 64 63 3f
       0.47716528 0.0116915405 -0.069363564 0.88824546
0000a0 7c 6c f8 bd 2a eb cb 3e a8 66 73 bd c9 13 89 3e
       -0.12130067 0.39827853 -0.059424073 0.26772907
0000b0 c7 4f ab be c5 86 f3 be 90 3b f5 3d 03 ec ac be
       -0.33459303 -0.47563758 0.11974251 -0.33773813
0000c0 32 6a eb 3e 9e 11 dd 3e 2a 5d b8 3e c9 05 1a be
       0.45979458 0.43177503 0.3600858 -0.1504127
0000d0 dc c9 9a 3d ee 32 4c be 8a 3e d8 3e 30 48 89 be
       0.07558033 -0.19941303 0.42235214 -0.26812887
0000e0 37 b1 a0 3d 73 06 0e 3f f3 0f 7c 3e 4e c8 f7 3e
       0.07846301 0.5547859 0.24615459 0.48395008
0000f0 1e 59 0b 3f 08 4f f8 3e aa 6f 77 3c 52 bd 28 3f
       0.5443286 0.48497796 0.015102306 0.6591388
000100 ba 22 7d 3e 56 0a 72 be 50 a2 34 3d 34 a1 26 be
       0.24720278 -0.23636755 0.044100106 -0.16272432
000110 f0 a0 b7 bd 78 8c 59 be f0 34 14 bd 8e 99 05 3e
       -0.08966243 -0.21244991 -0.036183298 0.13046858
000120 40 46 4e bc 80 73 27 3b 8a d0 28 3e c0 6b 05 3d
       -0.012589991 0.002555102 0.16485801 0.03257346
000130 40 78 5f bd ce b3 66 be a6 85 66 3e dc 99 93 bd
       -0.05455804 -0.22529528 0.2251192 -0.07207081
000140 2e 5b db bd d3 13 80 be 4a b5 d4 3c 6e 34 35 3e
       -0.107107505 -0.25015125 0.025965352 0.17695782
000150 07 82 f8 bd c6 14 22 3e 38 d0 54 be d8 6c 22 be
       -0.12134176 0.15828237 -0.20782554 -0.15861833
000160 5f f2 89 3d 1c da f5 bd 8e 14 25 3d b2 be 04 bd
       0.06735682 -0.12004492 0.040302806 -0.032408424
000170 b0 db 18 3d eb 78 a8 bc 85 3b 3c 3c 98 8a 50 be
       0.037318885 -0.02056547 0.0114888 -0.2036537
000180 8a 5d 2a 3f 65 8b 8c 3e 50 30 fc be a0 9b 11 bf
       0.6654898 0.274501 -0.4925561 -0.5687809
000190 6e f0 55 3f cc c2 ff bd 63 12 a0 3e f6 87 76 be
       0.8356999 -0.124883264 0.31264028 -0.24075302
0001a0 30 9e 80 bd c1 64 46 3f d0 c8 f5 bd f3 9f 84 3d
       -0.06280172 0.7749749 -0.120011926 0.064758204
0001b0 83 bd f6 3e 6e 4f ed b9 57 c8 93 bd f4 13 6e 3f
       0.4819146 -0.00045263342 -0.07215946 0.92999196
0001c0 9e 27 68 be 34 ac f4 bd 9c 80 21 be 84 a0 70 3e
       -0.22671363 -0.11946908 -0.15771717 0.23498732
0001d0 e4 b4 63 be f0 9a 98 bd 3a 90 0e be 58 b7 8b bd
       -0.22236973 -0.07451427 -0.13922206 -0.068220794
0001e0 ec d8 32 3e 20 7b 19 3d b8 84 8b 3d dc 86 fc bd
       0.17465562 0.037470937 0.068124235 -0.1233041
0001f0 14 20 dc 3d b0 66 89 3c 3c 2b 66 3e 9e 9c 77 be
       0.10748306 0.016772598 0.2247743 -0.24180838
000200 2c 13 19 3f 5e ce 04 3f 59 b9 f2 be 10 12 ee be
       0.5979488 0.5187739 -0.47407034 -0.46498156
000210 d3 d0 25 3f f5 c8 21 3e d2 6c 97 be 05 bc da 3d
       0.64771765 0.15799315 -0.2957521 0.10680393
000220 7b b7 76 bd cc 63 24 3f f0 c3 7e bd 56 df b8 bd
       -0.060233574 0.6421478 -0.06219858 -0.09026973
000230 82 7e de 3e 0f d1 a6 be 78 3e 6c bd 0d cc 15 3f
       0.43455893 -0.32581374 -0.057676762 0.5851448
000240 33 e1 02 3e b8 2b 09 3f 7a 93 02 3f f4 33 44 3f
       0.12781219 0.53582335 0.5100628 0.76641774
000250 09 e1 8c be f6 5e 31 be 73 6c 9c bb 2d b1 16 3f
       -0.27515438 -0.17321381 -0.0047736703 0.588641
000260 1e dc 61 3c a6 c3 a1 bd 5f ca 52 be 05 aa 3e 3e
       0.01378539 -0.07898645 -0.20585011 0.18619545
000270 e7 ff 84 be 6b 6d f2 3e db e3 96 bd d0 69 e5 be
       -0.25976488 0.47349104 -0.07367679 -0.4480729
000280 8d ed 79 3e d9 52 df 3e d5 2f 1e 3f 2a d4 2e 3f
       0.24407025 0.43617895 0.61791736 0.68292487
000290 43 1f 2f bf 74 32 1f be 53 f5 0c 3e 06 ee 37 3f
       -0.68407077 -0.1554659 0.13765459 0.7184757
0002a0 40 4c 8b 3d c1 14 28 be df 6a 60 3d 60 d8 fc 3e
       0.06801653 -0.16414167 0.05478942 0.4938383
0002b0 04 55 90 be d2 a5 f9 3e 60 35 2e 3e e2 bf 86 be
       -0.28189862 0.48759323 0.17012548 -0.2631827

encoder.2.bias f4 [11]
000000 82 32 2e 3e e2 48 6e be a9 33 0d be f7 c0 9d 3d
       0.17011455 -0.2326999 -0.13789238 0.07702821
000010 ec f4 8d bd 30 01 89 be 5d 0e c8 3e 3a 8a 5a be
       -0.06931481 -0.26758718 0.39073458 -0.21341792
000020 1b 9c 38 3e 4b dc 62 3e 20 b8 02 3f
       0.180283 0.22154348 0.510622

decoder.0.weight f4 [16, 11]
000000 06 9a b2 bd c6 59 86 3e 9e 14 ca 3e 68 86 b9 bc
       -0.08720784 0.26240367 0.39468855 -0.022647098
000010 f0 70 4c 3e 70 e0 92 3d 14 c5 04 3f 70 df d7 bc
       0.19964957 0.07171714 0.5186322 -0.02635166
000020 16 3a 27 3f 88 36 b6 be a4 cb db be 1c ce bb be
       0.6532301 -0.3558848 -0.42928803 -0.36680686
000030 a2 62 ac bd 99 9b b9 bd e9 7e 26 3f c0 82 d7 3c
       -0.0841725 -0.09062881 0.650374 0.026307464
000040 e5 0f 77 be fc 0c 24 3f fe f5 85 3e 7e 59 5d 3e
       -0.24127157 0.6408231 0.2616424 0.2161617
000050 82 c6 df be eb 9d a7 be 38 31 47 bd af e8 1a be
       -0.43706137 -0.3273767 -0.048630923 -0.15127824
000060 9e 72 c0 bd a0 0f da 3d 47 3d 02 be 1a ef 22 3e
       -0.093968615 0.106475115 -0.12718688 0.15911523
000070 ac 57 59 be 08 61 39 3e 0c dd 9f 3d c0 cc ff 3b
       -0.2122485 0.1810342 0.07805833 0.0078063905
000080 48 c0 36 be 9e 90 61 be 10 80 1c bd 4b 54 28 be
       -0.17846787 -0.22027823 -0.038208067 -0.16438405
000090 d2 43 dd bd 66 de 89 3e b6 c4 e9 3d 5c cf 90 be
       -0.10803951 0.2692749 0.11414473 -0.28283203
0000a0 30 ee 5c 3d 6c b7 ff bb e4 ce a5 be 65 00 7d be
       0.05393809 -0.007803848 -0.32384408 -0.24707182
0000b0 b5 57 d8 bd 90 be 8c be d2 75 cd 3c be 24 74 bd
       -0.10563604 -0.27489138 0.025080595 -0.059605353
0000c0 24 c3 2e be 80 a3 eb bc 1b 44 6a be 32 41 a7 bd
       -0.17066628 -0.028764486 -0.22877543 -0.08166732
0000d0 8a df 9b be 93 61 ad 3d 4f ce 45 be b6 c6 f0 3c
       -0.30443984 0.084658764 -0.19316982 0.029391628
0000e0 88 bf 66 3e 94 72 90 3d 36 df 78 be 88 bb 72 3d
       0.22534001 0.07053104 -0.24303898 0.059260875
0000f0 b9 76 6c be da cb 3d be 1c 64 d2 3d 6e 5b 3a bc
       -0.23092164 -0.18534794 0.102730006 -0.011374338
000100 85 63 8f be f6 16 78 3c 0e 56 6a 3f b0 20 7b 3e
       -0.28005615 0.015142193 0.9153756 0.24524188
000110 12 28 61 3f c1 b0 14 be 90 49 7d be a4 aa ce 3d
       0.8795177 -0.14520551 -0.24735093 0.10091141
000120 c5 4d 65 3e 80 23 96 be 22 cc fa 3e 50 1b 7b bd
       0.22392948 -0.2932396 0.48983866 -0.061305344
000130 bc 94 46 3d 05 8a 25 be 5d ab 30 be 16 6f 33 be
       0.048481688 -0.16165932 -0.1725287 -0.17522845
000140 1c f8 30 be e2 ae 81 3e c4 34 58 3e 8c b3 2e be
       -0.17282146 0.25328737 0.21113878 -0.17060679
000150 7c 20 79 3e c0 8d fa 3d 71 d5 fb 3d 51 a8 7c be
       0.24328798 0.12234068 0.1229657 -0.24673583
000160 d4 12 82 be 70 81 5e be 59 8f e3 be 6d 95 b9 3e
       -0.2540499 -0.21729064 -0.44445303 0.36246815
000170 e0 7e 2d 3e 99 0b 40 be 14 9a 06 3e fe 4f 9a 3e
       0.1694293 -0.18754424 0.13144714 0.30139154
000180 ad 59 0e 3f 9d 41 ae 3d 43 97 07 be fa 50 c2 3e
       0.55605584 0.085086085 -0.13241296 0.37952405
000190 e0 e2 4f 3e ca 7f 50 3f 54 b7 0e bf c0 dc b6 3d
       0.2030139 0.8144499 -0.55748487 0.089288235
0001a0 5e 68 a2 be ac 9b 34 bf 9b ca 4c be 5e 83 28 bf
       -0.3172025 -0.70550036 -0.19999163 -0.6582545
0001b0 e1 c8 21 3f 27 ab 17 3f 77 94 24 3f 40 e4 78 bd
       0.6319714 0.5924553 0.6428904 -0.06076455
0001c0 d6 2f 0c 3f 35 13 a7 3e 70 a0 30 3d 2c d6 0e 3e
       0.5476049 0.3263184 0.043121755 0.13948888
0001d0 ce 85 11 be 00 75 6d 3e 71 29 87 3e 51 74 cc 3e
       -0.14211199 0.23189163 0.26398805 0.39932492
0001e0 f0 e5 97 3d 88 71 48 be fc 27 6a 3e ba 44 ef bd
       0.07416904 -0.19574559 0.22866815 -0.116830304
0001f0 28 e7 8e 3d fc 42 1f be 12 e5 7a be 8c 07 80 be
       0.06977683 -0.15552896 -0.24501446 -0.25005758
000200 98 48 28 3e 60 fb 3a 3c e5 15 50 be 64 eb a5 3d
       0.16433942 0.0114124715 -0.20320852 0.08101538
000210 99 bd 4f 3f 2c 46 8b be 75 14 4a 3e 92 79 0a be
       0.8114868 -0.27201974 0.19734366 -0.13522938
000220 3c 93 52 3e c4 38 88 3e fe 03 60 be bc 4d e9 3d
       0.20563978 0.2660581 -0.21876523 0.1139178
000230 e3 73 54 3e 2d 55 96 3e f5 1f 65 3e 36 e6 30 be
       0.20747332 0.2936186 0.22375472 -0.17275319
000240 50 40 c9 bc c4 9b a2 3d 5a 4e 84 be b4 60 3f 3e
       -0.0245668 0.07939866 -0.25841027 0.18689233
000250 6a f1 51 be 70 33 bd be 38 4b 4c 3d ae 20 90 bd
       -0.20502248 -0.36953306 0.04987642 -0.07037483
000260 06 9d 36 3e 69 89 9e be 20 92 6c 3d 08 20 29 be
       0.17833337 -0.3096421 0.057756543 -0.16516125
000270 cb 28 fc 3c be 83 1d 3f f8 57 13 bd 14 76 83 bd
       0.03078117 0.6152915 -0.035972565 -0.06419006
000280 47 90 9a 3e 98 65 2e be f3 f3 80 be 7f 1d 09 3f
       0.301882 -0.17030942 -0.25186118 0.5356063
000290 77 d0 31 3f 7c 93 86 3e c0 28 ef 3c 1f ae 76 3e
       0.6945872 0.26284397 0.029194236 0.2408986
0002a0 55 50 4e 3e e0 68 06 3d 84 cb 0c be 44 a0 e0 3e
       0.20147832 0.03281486 -0.1374951 0.43872273
0002b0 74 e5 a6 3d 60 8d 0b 3f 0a ee 09 bf 55 f5 38 bf
       0.081492335 0.54512596 -0.53878844 -0.72249347

decoder.0.bias f4 [16]
000000 ec 27 c7 be 41 79 c4 3e 0c 4a f0 bd 2a f3 09 3e
       -0.38897645 0.3837376 -0.11732873 0.13471666
000010 04 90 54 be ad 4a 83 bd ea 20 b6 be 74 65 db bd
       -0.20758063 -0.06410728 -0.35571986 -0.1071271
000020 8d 96 10 3f f4 9c 6e 3e 81 b7 10 3d ab b7 01 be
       0.5647972 0.2330206 0.035331253 -0.1266772
000030 f3 a6 f5 bd b9 2b 14 3d 15 5c c9 3e b4 dd ad be
       -0.11994734 0.03617451 0.39328066 -0.3395821

decoder.2.weight f4 [11, 16]
000000 0c b5 d4 bd d6 87 0a 3d 44 15 00 3e 41 12 c3 be
       -0.103860945 0.03382095 0.12508112 -0.38099864
000010 2e 7c 1d be d9 f9 63 3d b4 31 bb 3e b9 32 24 be
       -0.15379402 0.055658195 0.36561358 -0.16034974
000020 01 26 9e be 81 73 82 be 03 31 13 3d d4 fe ee 3d
       -0.3088837 -0.25478747 0.035935413 0.11669698
000030 46 b3 8b be 4f 9d 53 3d 0b 1d 81 bd 96 15 29 bd
       -0.27285212 0.051663693 -0.06304368 -0.04128035
000040 a7 36 01 be 76 ed f4 be 0a 59 26 be 78 14 97 be
       -0.12618504 -0.47837418 -0.16244903 -0.29507804
000050 80 eb 00 3e 5d 70 14 bc 42 f3 27 3f 8c da 7d 3d
       0.12589836 -0.009059993 0.65605557 0.061976
000060 19 bf ba be 42 bc 91 bf c6 09 ff 3e f0 27 05 be
       -0.3647392 -1.1385577 0.49812144 -0.13003516
000070 a6 ed 81 3e 1c 36 23 be c3 9c 20 bd 48 0f 23 be
       0.25376624 -0.1593861 -0.039212 -0.15923798
000080 f6 20 5a be 43 5e 2d 3e 90 af 52 3d bd 91 4c 3e
       -0.21301636 0.16930489 0.05143696 0.1997747
000090 c7 e8 8b bd 07 63 fe 3c 7b be c2 3e 5e e0 ec bd
       -0.06831508 0.03105308 0.3803595 -0.11566232
0000a0 8e 48 12 be 50 b7 40 be 0b 2c 15 3e f8 be a4 bd
       -0.1428549 -0.18819928 0.14567582 -0.08044237
0000b0 30 1b cc bd 62 69 27 3e 01 4f 29 be 25 1b 79 bd
       -0.09966123 0.16348794 -0.16534044 -0.060816903
0000c0 1f 05 71 be a5 96 83 3e 38 69 49 3d ca a4 90 3d
       -0.2353711 0.2570087 0.04917261 0.07062681
0000d0 a6 02 ef 3c 2c 45 88 bd 8a c8 0c be c8 6d 6b be
       0.029176068 -0.066538185 -0.13748375 -0.22991097
0000e0 8d fd 77 be 06 63 75 be 9a 3d 09 3d c0 ad 33 3c
       -0.24217816 -0.23963556 0.033506013 0.010966718
0000f0 80 d3 f7 be ad 60 de bd 46 80 09 3e 43 5b 30 bf
       -0.4840355 -0.10858283 0.13427839 -0.68889254
000100 19 02 3d bc f6 94 72 be 68 57 7d be 86 64 9e 3d
       -0.011536145 -0.23689637 -0.24740374 0.07734017
000110 8b 72 6f be 71 64 57 be 7f 97 57 be 50 4b 41 3d
       -0.23383538 -0.21034409 -0.21053885 0.047190964
000120 8d d9 94 be 82 e0 2d 3d 19 75 e5 be 60 65 8d 3d
       -0.29072228 0.042450435 -0.448159 0.06904101
000130 15 8a cd be d3 3b f7 bc ee f4 f4 be 2f 3b b4 be
       -0.4014441 -0.030179894 -0.47843117 -0.35201403
000140 c0 ce a1 bd 51 9f b0 3e 76 0b 16 be 41 dc d8 3b
       -0.079007626 0.3449655 -0.1465281 0.006618053
000150 a4 bf 58 be 6b 16 1d be 91 14 8a bd 0c 0c 4e 3e
       -0.21166855 -0.15340583 -0.06742204 0.20121783
000160 37 de 06 3f 6e b8 36 be 1b 8a 94 3e be 98 4b be
       0.5268282 -0.17843792 0.29011616 -0.19882485
000170 2f 81 81 be 6a b6 29 3e 11 83 e1 3e 27 0f 55 3e
       -0.25293872 0.16573492 0.44045308 0.20806561
000180 50 7c e8 bd 03 28 de be 20 dd 67 be 85 09 a6 be
       -0.11351836 -0.43389902 -0.22642946 -0.32429138
000190 c6 e9 3d 3e 31 a9 ed 3c 4f b9 16 3e 9d d2 26 3e
       0.18546209 0.02901134 0.14719127 0.1629128
0001a0 d5 39 42 be da ee 3a bd 1d fc d7 bd c4 14 1b 3e
       -0.18967374 -0.045637943 -0.10546134 0.1514464
0001b0 6f f5 5a be 4b 35 50 bd e0 e8 7a be 8b da 4d be
       -0.21382688 -0.050832074 -0.24502897 -0.20102899
0001c0 9b 23 53 bf be 68 79 3e 68 b7 fc bd bc 42 24 be
       -0.82476205 0.24356362 -0.123396695 -0.16041082
0001d0 58 1f 93 bd 96 f3 6f be c2 d4 a8 be 0a d6 be 3d
       -0.07183713 -0.23432764 -0.3297482 0.093181685
0001e0 98 85 39 3e 88 7f 43 bf df 92 b3 3d 60 42 e8 bd
       0.18117368 -0.7636647 0.08768248 -0.11340785
0001f0 9a 52 2c be 09 f0 2c 3e dc da a7 3e f4 56 1d bf
       -0.16828385 0.16888441 0.32784164 -0.61460805
000200 e2 78 81 be 4e 69 3b bf 00 24 7f ba 7b ea a4 bc
       -0.2528754 -0.7320756 -0.00097328424 -0.02013134
000210 e4 c7 86 3d 3f b4 a9 be 24 97 9d 3e 04 de 37 bd
       0.06581095 -0.3314533 0.30779374 -0.044889465
000220 8e 0e fb be a5 94 aa 3e 03 99 8c 3d 00 3f 11 3d
       -0.49034542 0.33316532 0.06865122 0.035460472
000230 7f be a9 3e 5f ae 11 bd d8 82 68 bd d7 25 72 be
       0.3315315 -0.035566684 -0.056765407 -0.23647247
000240 a6 7c bb 3c 00 31 3e 3e f6 da 58 3e 05 38 9c 3d
       0.022886585 0.1857338 0.21177277 0.076278724
000250 c2 42 41 3d 87 f0 e5 bd 0f d1 4c 3e db 5f 00 3e
       0.047182806 -0.112275176 0.20001625 0.12536566
000260 4d dc bf bc df bb f5 be 4c 36 d7 be 90 17 38 be
       -0.023420477 -0.47994897 -0.42033613 -0.17977738
000270 d6 42 23 be 63 ad 32 bd 3b 23 d8 be 0a ae 35 3f
       -0.15943465 -0.043622386 -0.4221438 0.7096869
000280 58 90 8c be 0a 7c 59 be 38 86 00 bd 94 2c 3d 3d
       -0.27453876 -0.21238723 -0.031378 0.04618509
000290 24 9e 09 3c d2 b9 cd 3a d2 e4 ee be ad 0a e7 3c
       0.00839952 0.0015695638 -0.4665895 0.028203333
0002a0 3e 6f 82 be 76 28 a8 bd 4d f6 80 be 0a bb 68 3e
       -0.25475496 -0.08210842 -0.25187913 0.227276
0002b0 dd 4f 96 be 1a 77 2e 3e e4 c7 e6 be 26 a6 77 be
       -0.29357806 0.17037621 -0.4507438 -0.24184474

decoder.2.bias f4 [11]
000000 81 15 88 be f1 7c e7 be 01 86 d0 be 77 e0 81 be
       -0.26578906 -0.4521251 -0.40727237 -0.25366566
000010 a5 35 5e be e2 46 ba 3c d4 40 d7 be 7c 84 8e be
       -0.21700151 0.022738878 -0.42041647 -0.27835453
000020 57 fc 35 bd a8 19 50 3d 56 b2 00 be
       -0.044430103 0.050805718 -0.1256803
