model-service/models/load_dict/intent_classifier.pth (torch, 130860 bytes, 6 tensors)

net.0.weight f4 [128, 112]
0	0x3d8d696b	0.069048725
1	0x3c664439	0.0140543515
2	0xbca4f724	-0.020137377
3	0xbe07c583	-0.13258938
4	0xbdb17bc8	-0.086661875
5	0x3e17dae3	0.14829592
6	0xbcd47919	-0.02593665
7	0xbd6a437f	-0.057193276
8	0xbd8f8a8e	-0.07008849
9	0xbe03f479	-0.12886228
10	0xbd752599	-0.05985031
11	0xbd04273a	-0.032263972
12	0x3ce06bd2	0.027395163
13	0xbd88a72c	-0.066725105
14	0xbc93f8fd	-0.018063063
15	0x3c342f88	0.01099766
16	0xbbc2274f	-0.005925096
17	0xbd91875a	-0.071058944
18	0x3d0bd114	0.03413494
19	0x3e01e7b6	0.12686047
20	0xbd89bf1a	-0.06725903
21	0x3c068012	0.008209245
22	0x3c12941d	0.008946446
23	0xbd8d188c	-0.068894476
24	0xbd67371d	-0.056449044
25	0x3dec090d	0.11525164
26	0x3d40327e	0.046923153
27	0x3dda7014	0.106659085
28	0x3d51c9c2	0.051217802
29	0xbd7be66f	-0.061499055
30	0xbc366570	-0.011132583
31	0xbd758215	-0.05993851
32	0xbcd37ef3	-0.02581737
33	0x3b1fbc8c	0.0024373857
34	0x3c3cde80	0.0115276575
35	0x3cd5b85d	0.026088888
36	0xbbd75e98	-0.0065725558
37	0xbd635f12	-0.055510588
38	0xbcf2d0cf	-0.029640583
39	0x3d710f52	0.0588525
40	0xbd91009c	-0.07080194
41	0xbcfdfb15	-0.031003514
42	0x3c9695d2	0.018381987
43	0xbb895f93	-0.0041923015
44	0x3d50e44b	0.050998967
45	0xbd07e461	-0.033176783
46	0x3d4910fa	0.049088456
47	0x3c3cf330	0.01153259
48	0x3e178783	0.14797787
49	0xbdde07e0	-0.10841346
50	0x3d0b4c37	0.03400823
51	0xbd809655	-0.062786736
52	0x3d7a4ec1	0.06111026
53	0x3cbdef47	0.023185385
54	0x3acb28e2	0.0015499855
55	0x3e2b985e	0.16757342
56	0x3ded2649	0.11579568
57	0x3dbbf4aa	0.09177525
58	0xbdfba66c	-0.12287602
59	0xbceb2dd0	-0.028708369
60	0xbd6b56d0	-0.057455838
61	0x3d9db856	0.07701175
62	0x3db512b1	0.08841456
63	0x3da71685	0.08158592
64	0x3d26852e	0.040654354
65	0x3cfcc0bd	0.030853624
66	0x3d35a571	0.04434723
67	0x391ca734	0.00014939607
68	0xbda0469f	-0.0782597
69	0xbd2cca42	-0.042185076
70	0xbdd8ee9f	-0.10592388
71	0xbde0ddb8	-0.109797895
72	0xbd576c2a	-0.052593388
73	0xbdd84b17	-0.10561197
74	0xbd855fb7	-0.06512397
75	0xbd0a53f0	-0.033771455
76	0x3cd8def3	0.026473498
77	0xbd94bc90	-0.07262528
78	0x3da1d82d	0.079025604
79	0xbc87d164	-0.016579337
80	0x3ddfc988	0.10927111
81	0x3da41477	0.08011716
82	0x3bad3a78	0.005286511
83	0xbe2eec73	-0.17082386
84	0xbd634ee5	-0.05549516
85	0xbbb791a1	-0.005602077
86	0x3b046d34	0.0020206692
87	0xbd92c1e9	-0.07165892
88	0xbc56beb5	-0.013106992
89	0x3d5458da	0.051842548
90	0x3d4b3848	0.04961422
91	0x3da371b2	0.0798067
92	0xbdb80efa	-0.089872316
93	0x3dd92daa	0.10604413
94	0x3d9fb9e2	0.07799126
95	0x3dd48aea	0.10378058
96	0x3dd91448	0.105995715
97	0x3dd75367	0.105139546
98	0x3cdb4118	0.026764438
99	0x3daf6945	0.085650004
100	0x3cc441a0	0.023957074
101	0xbd96a4fe	-0.073556885
102	0x3e1e2f8e	0.15447828
103	0xbd2e2bb6	-0.042522155
104	0x3e0531ed	0.13007326
105	0x3a9e5295	0.0012079055
106	0xbd0fee75	-0.03513952
107	0x3d6c3a3b	0.05767272
108	0xbc469081	-0.012119413
109	0x3c78a112	0.015175121
110	0xbcd0531c	-0.025430255
111	0x3e0dafd6	0.13836607
112	0xbdd98e5b	-0.10622855
113	0x3ddbd07d	0.10733125
114	0xbc0e2d74	-0.008677829
115	0xbcd9eea2	-0.026603047
116	0xbb5b421d	-0.0033456155
117	0xbd62d4e2	-0.055378802
118	0x3ae76fb0	0.0017657187
119	0xbc0e28d0	-0.008676723
120	0xbcd83dda	-0.02639668
121	0xbcfd04dc	-0.030886106
122	0xbdc66e91	-0.096890576
123	0x3daa0c6a	0.08303149
124	0xbcc6eb47	-0.02428211
125	0x3d883a4a	0.06651743
126	0xbca9bce2	-0.02071995
127	0x3cde12c4	0.027108558
128	0x3e19cd70	0.15019774
129	0xbd8905b2	-0.066905394
130	0x3ce69b58	0.028150246
131	0x3e0cee8f	0.13762878
132	0x3df635ee	0.12022005
133	0x3d3b6236	0.045747958
134	0x3c851d12	0.016249213
135	0x3e08ad48	0.13347352
136	0x3c14390a	0.009046802
137	0x3d1e89a6	0.03870549
138	0x3d9e53c6	0.07730822
139	0x3d835874	0.064133555
140	0x3b34d9d7	0.0027595663
141	0x3d9a04a6	0.07520418
142	0x3d13f355	0.03612073
143	0xbcedbf1b	-0.02902179
144	0xbdf14c38	-0.11782116
145	0x3d00e40e	0.03146749
146	0x3d5cddbe	0.053922407
147	0x3d8f887e	0.07008456
148	0x3d2142d6	0.03937038
149	0x3b492108	0.0030689854
150	0xbcadd248	-0.021218434
151	0x3c9ddf69	0.01927157
152	0x3dc5a0a7	0.09649783
153	0xbdc05fd4	-0.09393278
154	0xbc3da8c7	-0.011575884
155	0xbd4f0aef	-0.050547536
156	0xbd49fb05	-0.049311657
157	0x3dd65f80	0.10467434
158	0xbd41618d	-0.047212172
159	0x3cafb9fa	0.021450985
160	0x3d2678ed	0.040642668
161	0xbd022a5a	-0.03177867
162	0xbce3080a	-0.027713794
163	0x3d412b0e	0.0471602
164	0x3b9b1695	0.0047329166
165	0xbcb2b84f	-0.0218164
166	0x3d0e9626	0.03481116
167	0xbc74298d	-0.014902485
168	0x3d8b5c1b	0.06804677
169	0x3d94c3a2	0.072638765
170	0x3d285aa5	0.04110207
171	0x3ba3cec5	0.004999014
172	0x3d72e08d	0.05929618
173	0xbc02dd41	-0.007987321
174	0xbd9c5a40	-0.07634401
175	0x3d02e196	0.031953417
176	0x3d0cb617	0.034353342
177	0x3dd8fe91	0.1059543
178	0x3d6cc9f9	0.057809804
179	0xbd55dcda	-0.052212574
180	0x3c89df30	0.016830057
181	0x3de893ad	0.11356292
182	0xbc33fde9	-0.01098583
183	0x3da10d25	0.07863835
184	0x3d854efa	0.06509204
185	0xbd1b29a7	-0.03788152
186	0x3d2dd627	0.04244056
187	0xbe016bf6	-0.1263884
188	0xbd4a8669	-0.04944459
189	0xbde3f0ad	-0.1112989
190	0x3c7cdc00	0.015433311
191	0x3db7aeac	0.08968863
192	0x3d2a0e5a	0.041517593
193	0x3e067c54	0.13133365
194	0x3d346136	0.04403802
195	0xbb9a0ac0	-0.0047009885
196	0x3c8d48d8	0.017246649
197	0x3caa5cb9	0.020796167
198	0x3db12d4d	0.086512186
199	0x3db62ce7	0.08895283
200	0xbca90c69	-0.0206358
201	0x3d80ef29	0.06295616
202	0x3d093876	0.03350111
203	0xbc91a6c9	-0.017779725
204	0xbddfd349	-0.10928971
205	0xbdca6867	-0.098831944
206	0x3da68ff2	0.08132924
207	0x3d942ca8	0.0723508
208	0xbd1bbcf6	-0.038022004
209	0x3d79c4b8	0.06097862
210	0xbdf29914	-0.118456036
211	0x3e0f2844	0.13980204
212	0xbd0e513b	-0.034745436
213	0x3d774e00	0.06037712
214	0x3db8c172	0.09021272
215	0xbded6899	-0.11592216
216	0x3dbbb994	0.091662556
217	0x3cccc8c6	0.02499808
218	0xbda87047	-0.0822454
219	0x3c186399	0.00930109
220	0xbd821f4b	-0.06353625
221	0xbd9c0e8c	-0.07619962
222	0xbd9211b7	-0.07132285
223	0xbd24e1e0	-0.040254474
224	0x3df2e1ea	0.11859496
225	0xb92c1400	-0.00016410649
226	0xbc537d02	-0.012908222
227	0xbd9e296b	-0.077227436
228	0x3d2bc2fb	0.041933995
229	0xbc46b9dc	-0.012129273
230	0x3d5f035a	0.054446556
231	0x3dfdf2c7	0.12399822
232	0xbc84b4fc	-0.016199581
233	0xbce87ff4	-0.028381325
234	0xbdf06b5b	-0.117392264
235	0xbc9b1537	-0.018931014
236	0x3dd9c9e5	0.106342115
237	0xbcd24318	-0.025666758
238	0xbda960fd	-0.08270452
239	0xbcad63d0	-0.021165758
240	0x3d19c425	0.037540574
241	0x3ad507fc	0.001625299
242	0xbd73ea86	-0.05954983
243	0x3cb0ac4e	0.021566536
244	0xbcf18ece	-0.02948704
245	0x3be64176	0.0070268465
246	0xbd375d3d	-0.044766653
247	0x3d8e9dcf	0.06963693
248	0xbdc98f1f	-0.09841751
249	0x3db63658	0.08897084
250	0xbc820750	-0.015872627
251	0xbd5d9974	-0.054101422
252	0x3daa7f06	0.08325009
253	0x3db6e66d	0.08930669
254	0xbd7b0913	-0.06128795
255	0x3bf93d21	0.007606164

net.0.bias f4 [128]
0	0x3b3dfd84	0.0028990218
1	0x3e0eff9a	0.13964692
2	0x3de35e5f	0.11101984
3	0x3d4acc60	0.049511313
4	0x3d84ddba	0.064876035
5	0x3e019739	0.12655343
6	0x3dee96ed	0.116498806
7	0x3e48eeba	0.19622317
8	0x3dff4054	0.124634415
9	0x3e06bcd8	0.13157976
10	0x3d366134	0.044526294
11	0x3dea8ab6	0.11452238
12	0x3dd77da4	0.10522011
13	0x3c9f071a	0.019412566
14	0x3d301e45	0.042997617
15	0x3de1af29	0.11019737
16	0x3e22b45d	0.15889116
17	0x3df42b71	0.11922348
18	0x3e16b983	0.14719205
19	0x3d6e0628	0.05811134
20	0x3da28063	0.07934644
21	0x3e1bbe17	0.15209232
22	0x3dc1e327	0.09467154
23	0x3dc24aeb	0.09486946
24	0x3dfbf59f	0.12302708
25	0x3e19da24	0.1502462
26	0xbcff4680	-0.031161547
27	0x3de6b277	0.11264508
28	0x3e0c8100	0.13721085
29	0x3d875f7b	0.06610008
30	0x3d767c53	0.06017716
31	0x3b1c79d9	0.0023876338
32	0x3da7c506	0.08191876
33	0x3d52c09a	0.05145321
34	0xbc67005c	-0.014099207
35	0x3db7728d	0.08957396
36	0x3db76e7d	0.08956621
37	0x3e0625c5	0.13100345
38	0x3d2cc29b	0.042177778
39	0x3da6d05b	0.081452094
40	0xbd0824d5	-0.03323825
41	0x3de94284	0.1138964
42	0x3e226395	0.158583
43	0x3d6c1108	0.05763343
44	0x3d4db089	0.050217185
45	0x3e1ec983	0.15506558
46	0x3de429ca	0.11140783
47	0x3c8ef92a	0.017452795
48	0x3cf7e72f	0.030261604
49	0xbc473083	-0.012157562
50	0x3e148a8f	0.14505981
51	0x3de0b47f	0.10971927
52	0x3deadf4c	0.11468372
53	0x3d537d3d	0.05163311
54	0x3e2261a8	0.15857565
55	0x3b975a51	0.004618921
56	0x3d2ddb4a	0.04244546
57	0xbca152d5	-0.019692818
58	0x3d39a8fb	0.045327168
59	0x3cbe062c	0.023196302
60	0x3cea1b67	0.02857752
61	0x3e08bb7f	0.13352774
62	0x3df532e5	0.11972598
63	0x3deb31c1	0.11484099
64	0x3d8e683c	0.06953475
65	0x3da263ac	0.07929167
66	0x3ce94a38	0.028477773
67	0x3e1cb963	0.15305094
68	0x3e11b2e5	0.14228399
69	0x3e09b828	0.13449156
70	0x3da7a738	0.08186191
71	0x3daff748	0.08592087
72	0x3e28a209	0.16468062
73	0x3dccc8cf	0.09999239
74	0x3e149c30	0.14512706
75	0x3dc9c7b1	0.09852541
76	0x3de26b80	0.1105566
77	0x3dd31e8c	0.10308561
78	0x3df44cf0	0.11928737
79	0x3d89d7a0	0.0673058
80	0x3da114ce	0.07865296
81	0x3cb85439	0.022501098
82	0xbcb4bf79	-0.022063958
83	0x3e04ce6f	0.12969373
84	0x3dbc3da9	0.09191448
85	0x3dccd68c	0.10001859
86	0x3d87dd8f	0.06634056
87	0x3ce10b65	0.027471254
88	0x3d9f30b3	0.077729605
89	0x3e25db00	0.16196823
90	0x3c91c5fa	0.017794598
91	0x3c993629	0.018702583
92	0x3d805163	0.06265523
93	0x3c3fa16b	0.0116962
94	0x3e0ef33a	0.13959971
95	0x3e334d8d	0.17510052
96	0x3dbb77ee	0.09153734
97	0x3dcb12a7	0.09915667
98	0x3d934122	0.071901575
99	0x3e0c034a	0.1367313
100	0x3df3917a	0.11892982
101	0x3cdfcea7	0.02732022
102	0x3dbc8eda	0.09206934
103	0x3db65f47	0.089048915
104	0x3e2e0b55	0.1699651
105	0x3dceca1b	0.10097142
106	0x3e14cf8f	0.14532302
107	0x3cb13261	0.021630468
108	0x3d44d85b	0.048057895
109	0x3cb590ac	0.022163711
110	0x3d71b0bd	0.05900644
111	0x3d5bbd59	0.053647373
112	0x3d101849	0.03517941
113	0x3da94eb6	0.08266966
114	0x3e0bafb4	0.13641244
115	0x3c3533df	0.01105973
116	0x3e3dae47	0.18523513
117	0x3d856a95	0.065144695
118	0x3dcd61b9	0.10028405
119	0x3dc196a3	0.0945256
120	0x3ab1ce0a	0.0013565433
121	0xbbc55c38	-0.006022956
122	0x3e0ffa1b	0.14060251
123	0x3e385832	0.18002394
124	0x3de36362	0.1110294
125	0x3dd43d62	0.1036327
126	0x3e0b030a	0.13575378
127	0x3dc0540b	0.0939103

net.2.weight f4 [128, 128]
0	0xbce9c7b9	-0.028537618
1	0x3db3369b	0.087506495
2	0x3cdd2a38	0.02699767
3	0xbddb117e	-0.10696696
4	0x3cc819c3	0.024426347
5	0xbd062261	-0.03274763
6	0xbcca04f3	-0.024660563
7	0x3e07925a	0.13239422
8	0x3d6a1ced	0.057156492
9	0x3cd762f8	0.02629231
10	0xbcbbbaaa	-0.022916157
11	0x3dc5de23	0.0966151
12	0x3d9745cf	0.07386362
13	0x3e278b7c	0.16361803
14	0xbe29bb6d	-0.16575404
15	0x3d942dc0	0.072352886
16	0xbcabffa1	-0.020995917
17	0xbd01e5b6	-0.03171321
18	0xbd807e76	-0.062741205
19	0xbdc8b3f7	-0.097999506
20	0x3de303db	0.1108472
21	0xbbd2276b	-0.0064133904
22	0xbceaac8c	-0.02864673
23	0x3e23bcc1	0.15989973
24	0x3c8f115f	0.017464338
25	0x3dfaf51b	0.122537814
26	0xbccc8f62	-0.024970714
27	0x3e470e63	0.19439082
28	0xbc95e4fb	-0.018297663
29	0x3d70e10b	0.058808368
30	0xbdcb3abc	-0.09923312
31	0x3e5117a1	0.2041917
32	0x3de9d667	0.11417847
33	0x3bd22435	0.0064130076
34	0xbbfa591f	-0.0076400186
35	0x3dd53efe	0.104124054
36	0xbd84b7ac	-0.06480345
37	0x3e1376a4	0.14400727
38	0x3dddd1ec	0.10831055
39	0x3d57b4f6	0.052662812
40	0xbd1127bd	-0.035438288
41	0x3b597d84	0.0033186385
42	0x3d903fee	0.070434436
43	0x3de068e0	0.10957503
44	0xbcf8dfe6	-0.0303802
45	0xbd68b48d	-0.05681281
46	0x3d41222f	0.04715174
47	0x3dc2941f	0.09500908
48	0xbc5c7168	-0.0134547725
49	0x3cb18d5e	0.021673854
50	0x3d99f1b7	0.075168066
51	0xbd087fe7	-0.033325102
52	0x3e1abf75	0.15112098
53	0xbc97bed2	-0.018523607
54	0xbc9e3f24	-0.019317217
55	0xbdf8ac7c	-0.12142274
56	0xbd43569a	-0.04769001
57	0x3cdb31fe	0.026757237
58	0xbdbb1101	-0.091341026
59	0xbcfa09be	-0.030522224
60	0x3e142837	0.14468466
61	0x3df48428	0.11939269
62	0xbd772e4a	-0.06034688
63	0xbe1908e0	-0.14944792
64	0x3e5c56f6	0.21517548
65	0x3d6c8a7b	0.057749253
66	0xbd89e4f6	-0.06733124
67	0x3cf5c7cc	0.030002497
68	0xbd416073	-0.04721112
69	0x3c361a96	0.011114737
70	0xbd58fce1	-0.05297554
71	0x3ccb4c4b	0.024816653
72	0xbd45e424	-0.048313275
73	0xbd4e5922	-0.050377972
74	0xbd11f4ed	-0.03563397
75	0x3d8802a1	0.066411264
76	0x3bf25230	0.0073950514
77	0x3dd694d9	0.10477609
78	0x3d8d6674	0.06904307
79	0x3e494897	0.19656597
80	0x3b8b0a74	0.0042431895
81	0xbcbf2400	-0.023332596
82	0x3e10d0dd	0.14142175
83	0x3d85b0fb	0.06527897
84	0xbde4bcbf	-0.11168813
85	0x3d439809	0.047752414
86	0xbd9b3f68	-0.07580453
87	0x3e0b14eb	0.13582198
88	0x3cacc024	0.021087714
89	0xbb4b667f	-0.0031036434
90	0x3e05a9b7	0.13053022
91	0x3e30c6b2	0.17263296
92	0x3e12f698	0.1435188
93	0xbd17e3ad	-0.037082363
94	0xbe009eb0	-0.12560534
95	0x3db9c1bb	0.09070154
96	0xbdb41e1f	-0.08794808
97	0xbcf12ad2	-0.029439364
98	0x3dda217f	0.1065092
99	0x3d15556b	0.036458414
100	0x3d30d113	0.04316814
101	0x3e267461	0.16255333
102	0x3e10e421	0.14149524
103	0xbb3c1c00	-0.0028703213
104	0x3e0a245e	0.13490435
105	0xbd5d4481	-0.05402041
106	0x3da0372b	0.078230225
107	0x3e0cfd80	0.13768578
108	0x3d185ee5	0.037199873
109	0xbd894f77	-0.0670461
110	0x3d0e791e	0.034783475
111	0xbda7e40a	-0.08197792
112	0x3db4f041	0.08834887
113	0xbe299118	-0.16559255
114	0x3e1e1e4b	0.15441243
115	0x3d59667d	0.053076256
116	0x3cd5905e	0.026069816
117	0x3d20a7fe	0.03922271
118	0x3db52312	0.0884458
119	0xbd9af723	-0.07566669
120	0x3df9cf08	0.12197691
121	0xbde761b5	-0.11297933
122	0x3c077430	0.008267447
123	0xbdca6cd8	-0.098840415
124	0x3d471d0b	0.048611682
125	0x3db4c9f9	0.08827586
126	0xbda32955	-0.07966868
127	0x3deb51fb	0.11490246
128	0x3c19f47b	0.009396668
129	0x3e0aed83	0.13567166
130	0xbdd07baa	-0.10179837
131	0x3d591804	0.05300142
132	0x3d1e24f3	0.038609456
133	0xbd3781e5	-0.04480161
134	0x3dcf8c11	0.101341374
135	0x3e1bcb4f	0.15214275
136	0x3e0c97e0	0.1372981
137	0x3e29111f	0.16510437
138	0x3d3ffd00	0.04687214
139	0x3dfcb20f	0.123386495
140	0xbd1ade1c	-0.037809476
141	0x3d92cdf6	0.0716819
142	0xbdc422aa	-0.09576924
143	0x3c6ff68f	0.0146461865
144	0x3df4bd79	0.119502015
145	0x3d499c6e	0.04922145
146	0x3d932c3e	0.07186173
147	0xbd204b0d	-0.039134074
148	0x3caced5f	0.021109281
149	0xbe0653ef	-0.13117956
150	0x3c5efbb9	0.01360982
151	0x3e028741	0.12746908
152	0xbd00de69	-0.031462107
153	0x3e1a4450	0.15065122
154	0x3db03327	0.086035065
155	0x3e18938f	0.14900039
156	0x3da40fe7	0.08010846
157	0xbc7440e7	-0.014908052
158	0x3e16086a	0.14651647
159	0x3c84604e	0.016159203
160	0xbd1d5210	-0.03840834
161	0xbe0bee32	-0.13665083
162	0xbc7e4830	-0.0155201405
163	0x3ccac006	0.024749767
164	0x3d25c7e0	0.04047382
165	0x3bc9c3ca	0.006157373
166	0x3d6cf588	0.057851344
167	0x3d2a051d	0.041508783
168	0x3d3eca97	0.046579923
169	0xbcaa3568	-0.02077742
170	0xbd467a7f	-0.048456665
171	0x3db93825	0.09043912
172	0x3dde12d8	0.10843438
173	0xbd2864bd	-0.041111697
174	0x3c050279	0.008118265
175	0x3d641ce2	0.055691607
176	0x3d5b6ae7	0.053568747
177	0x3c3a8d93	0.011386293
178	0xbe269479	-0.16267575
179	0xbd8ae30d	-0.06781588
180	0x3d913801	0.0709076
181	0xbd177e63	-0.036985766
182	0x3d39b8fc	0.04534243
183	0xbdc3bc91	-0.095574506
184	0x3dd45326	0.10367422
185	0x3be8a41f	0.007099643
186	0xbcb8abbd	-0.022542829
187	0x3d29a436	0.04141637
188	0x3b87a326	0.004139322
189	0x3c369d34	0.011145879
190	0x3d5910fd	0.052994717
191	0xbd65ee29	-0.05613533
192	0x3e3bc3e8	0.18336451
193	0x3e137b2b	0.14402454
194	0xbd632fd6	-0.05546554
195	0x3e433429	0.19062866
196	0xbe2cbccf	-0.168689
197	0xbddf85fc	-0.10914227
198	0xbd7eab1c	-0.0621749
199	0x3ad6eacb	0.0016396878
200	0x3dda83e3	0.10669687
201	0xbca0dd94	-0.019636907
202	0xbd4344f2	-0.047673173
203	0x3e05f366	0.1308113
204	0xbd40180a	-0.046897925
205	0xbc8fd04a	-0.017555375
206	0xbd965349	-0.07340104
207	0xbd7e0d20	-0.062024236
208	0xbdc4d228	-0.096103966
209	0x3db96df8	0.09054178
210	0x3c959c9d	0.018263156
211	0xbc71fae9	-0.014769294
212	0xbded54fc	-0.11588475
213	0xbc56c61b	-0.013108755
214	0x3c99cd53	0.018774664
215	0x3e3ac31d	0.18238492
216	0x3dfd1f9a	0.12359543
217	0x3d8871d9	0.0666234
218	0xbb6efae3	-0.0036465458
219	0x3df74d7d	0.120753266
220	0x3dabb052	0.0838324
221	0x3d8389e1	0.06422783
222	0x3db1dade	0.08684324
223	0xbd34ae87	-0.044111755
224	0xbc1b0281	-0.009461046
225	0xbdb00bcd	-0.08596001
226	0x3d0a3c4c	0.03374891
227	0x3deb2617	0.114818744
228	0xbdcc02c4	-0.09961465
229	0x3e375477	0.17903315
230	0x3d3f4614	0.04669769
231	0x3d916a7d	0.07100389
232	0xbc85cf89	-0.016334312
233	0xbdbefec7	-0.09325939
234	0x3dceb39d	0.10092852
235	0x3da4f69b	0.08054849
236	0x3e21459e	0.15749213
237	0x3deb0b6e	0.114767894
238	0x3b18cee5	0.0023316678
239	0x3d2d800a	0.042358436
240	0x3d1b2575	0.03787752
241	0xbd3561d2	-0.04428274
242	0x3e01d7f9	0.12680043
243	0x3ba85579	0.0051371423
244	0x3e162dc2	0.14665893
245	0xbdeb680c	-0.11494455
246	0xbd4c3f7c	-0.04986523
247	0x3d6cedc5	0.057843942
248	0x3db08e83	0.08620932
249	0xbdb29c87	-0.087212615
250	0x3e2e2b26	0.17008647
251	0xbdecc444	-0.11560872
252	0xbce67213	-0.028130567
253	0x3d1bc32d	0.03802793
254	0xbda9b49f	-0.08286404
255	0x3d17e8a7	0.03708711

net.2.bias f4 [128]
0	0x3d9e8f89	0.07742221
1	0x3d160f15	0.036635477
2	0x3dc0858c	0.09400472
3	0x3d4db1ff	0.05021858
4	0x3c2dd513	0.010609883
5	0x3ce93be4	0.02847094
6	0x3d592602	0.053014763
7	0xbd2aeb1c	-0.041728124
8	0x3d27095a	0.040780403
9	0xbc18a1fd	-0.009315965
10	0xbd2b477a	-0.041816212
11	0xbd3b12a1	-0.045672063
12	0x3da3d1e3	0.07999017
13	0x3d760c49	0.06007031
14	0x3d462eeb	0.04838459
15	0x3de5a4bc	0.11213061
16	0xbd50585c	-0.050865516
17	0xbd4a3a16	-0.0493718
18	0x3d3aa770	0.045569837
19	0xbd31a786	-0.043372653
20	0xb9a9cd26	-0.0003238704
21	0x3daae38b	0.083441816
22	0xbd0d11e3	-0.034440886
23	0x3d0fba57	0.035089817
24	0x3c9bb67b	0.019007912
25	0x3e0a626e	0.1351411
26	0x3dcbc38a	0.099494055
27	0xbdbdc66a	-0.0926636
28	0x3d1ae57f	0.03781652
29	0x3ce37f27	0.027770592
30	0xbdc56c67	-0.09639817
31	0x3bc55de3	0.006023155
32	0x3dd35457	0.10318821
33	0x3d8b7138	0.06808704
34	0xbcfba313	-0.030717408
35	0x3e14e067	0.14538728
36	0x3dbd9afd	0.09258077
37	0xbcf502c8	-0.029908553
38	0x3d4c1f1e	0.049834363
39	0x3da67ea1	0.08129621
40	0x3d34fdc6	0.04418733
41	0x3d8be7b4	0.06831303
42	0x3db11733	0.08647003
43	0x3e0dc3d9	0.13844241
44	0x3d74cdb1	0.059766475
45	0xbc6c60b9	-0.014427357
46	0x3cbf0e10	0.023322135
47	0xbd82c1d2	-0.063846245
48	0x3d2d4cd3	0.042309593
49	0xbbfab626	-0.0076511083
50	0x3dab0a31	0.08351553
51	0x3d89e920	0.06733918
52	0x3d78bd62	0.060727485
53	0x3d40c943	0.047066938
54	0x3d920603	0.07130053
55	0x3cabecac	0.020986877
56	0x3db97cd6	0.09057014
57	0xbc7c6dee	-0.015407069
58	0x3d58f6f9	0.052969906
59	0x3d269fa0	0.040679574
60	0x3dbea0c2	0.09308006
61	0xbd4835be	-0.048879378
62	0xba302a98	-0.0006720214
63	0x3d96595f	0.07341265
64	0xbcb04f57	-0.021522207
65	0xbdc64d84	-0.09682754
66	0xbdc49095	-0.09597889
67	0x3d87f63a	0.06638761
68	0xbda7d775	-0.08195392
69	0x3cb9e1c9	0.02269067
70	0x3cb9d1f3	0.02268312
71	0x3d2a441b	0.041568857
72	0xbdb41583	-0.087931655
73	0x3d5319f3	0.05153842
74	0x3d6dbbb2	0.05804033
75	0xbcc2450c	-0.023714565
76	0x3e171beb	0.14756744
77	0x3c90fce2	0.017698709
78	0xbc3f1b2f	-0.011664196
79	0x3c4923e7	0.012276626
80	0x3d9c49e6	0.076312825
81	0xbdc00571	-0.09376038
82	0x3c5a0624	0.013307128
83	0x3d0a2627	0.03372779
84	0x3c500482	0.012696387
85	0x3d99da59	0.0751235
86	0x3df23dbe	0.11828183
87	0x3c853853	0.016262209
88	0x3d68fded	0.056882787
89	0x3db05a77	0.08611005
90	0xbd5312a6	-0.051531456
91	0x3e180b13	0.14847974
92	0x3d5ff35d	0.05467545
93	0xbdc01439	-0.09378857
94	0x3d79f7b7	0.061027255
95	0x3d0c0ef3	0.034193944
96	0x3d1752d8	0.03694424
97	0xba7b993e	-0.0009597725
98	0xbc9c0bb2	-0.019048546
99	0x3ca53be9	0.020170169
100	0xbdba2637	-0.0908932
101	0x3da0214e	0.07818852
102	0xbd835da4	-0.06414345
103	0xbdb1bbb0	-0.08678377
104	0xbd6a31f0	-0.05717653
105	0xbd388b98	-0.045055002
106	0xbda25c83	-0.079278015
107	0xbd8bf32d	-0.068334915
108	0xbd7996a3	-0.060934674
109	0xbd1cb9a9	-0.038262997
110	0xbdaf4c37	-0.08559459
111	0x3dc09d79	0.094050355
112	0xbc80e706	-0.01573516
113	0x3db285ea	0.08716948
114	0xbc42ec69	-0.011897185
115	0xbae9016b	-0.0017776912
116	0x3d14b049	0.03630093
117	0x3d7e4f3e	0.06208729
118	0xbd27c9a9	-0.040963802
119	0xbd8a405f	-0.06750559
120	0x3ded6378	0.11591238
121	0xbdc03dd3	-0.09386792
122	0x3dbdac37	0.09261363
123	0xbc8dca9f	-0.017308531
124	0xbc0bd925	-0.008535658
125	0x3ddc1c22	0.107475534
126	0x3cbfe136	0.023422819
127	0x3e0bc7f4	0.13650495

net.4.weight f4 [8, 128]
0	0x3d354c50	0.04426223
1	0x3d905b47	0.0704866
2	0xbd66768e	-0.056265406
3	0xbe2602b3	-0.16211967
4	0x3d835be5	0.06414012
5	0xbe23415b	-0.159429
6	0x3dfbe3cb	0.122993074
7	0xbcf50a7b	-0.029912224
8	0x3de2eb86	0.11080079
9	0xbdfc2fb2	-0.12313785
10	0xbe3e3e51	-0.1857846
11	0x3e14c872	0.14529589
12	0xbdaad4c9	-0.08341367
13	0x3e233ed8	0.15941942
14	0xbddec5a0	-0.10877538
15	0xbd748542	-0.059697397
16	0xbcf4e544	-0.029894479
17	0xbd9701f0	-0.073734164
18	0x3de93813	0.113876484
19	0x3d22fd78	0.039792508
20	0xbe634a90	-0.22196412
21	0x3d3d984a	0.046287812
22	0x3cb0b297	0.021569533
23	0x3cd68ac6	0.02618922
24	0xbd209f92	-0.039214678
25	0xbd06b2c3	-0.032885324
26	0x3c9e9874	0.019359805
27	0x3cbd544b	0.023111483
28	0xbe0e747d	-0.13911624
29	0xbe57aefc	-0.21062845
30	0xbd80277c	-0.06257531
31	0xbdf6a610	-0.12043393
32	0xbded75d2	-0.11594738
33	0x3dea0594	0.11426845
34	0xbd864058	-0.06555241
35	0xbc0ae899	-0.008478307
36	0xbe48d3a2	-0.19611982
37	0x3e0f37d3	0.13986139
38	0x3cb63ac8	0.022244826
39	0x3da2caf2	0.07948865
40	0xbd4be18c	-0.049775645
41	0x3d3d21e1	0.046174888
42	0x3d63d01a	0.055618383
43	0xbe289598	-0.16463315
44	0x3d8e54c7	0.06949764
45	0xbe2c23dc	-0.16810554
46	0xbb7ba6df	-0.0038399023
47	0xbc5bdc28	-0.013419189
48	0xbc86e2f4	-0.016465642
49	0xbdda9930	-0.106737494
50	0xbe2b97fb	-0.16757195
51	0xbe17b966	-0.14816818
52	0xbe685242	-0.22687629
53	0xbe55f8da	-0.2089571
54	0x3d835dea	0.06414397
55	0xbe2f9842	-0.17147925
56	0x3d689295	0.056780417
57	0x3e015266	0.12629089
58	0x3e242b42	0.16032127
59	0xbdf982bb	-0.12183138
60	0xbe60845a	-0.21925488
61	0xbdadc051	-0.08483947
62	0x3ce0aa47	0.027424945
63	0xbe51efdc	-0.20501655
64	0x3dee39c1	0.116321094
65	0x3e076ff6	0.13226303
66	0xbc285681	-0.01027453
67	0x3cba0ab1	0.022710176
68	0xbc317728	-0.010831632
69	0xbdb0cf1f	-0.08633255
70	0x3db12e3a	0.08651395
71	0x3c2a0bae	0.010378761
72	0xbe2ff9b2	-0.17185095
73	0x3ce70c69	0.02820416
74	0x3de53d33	0.111933134
75	0xbd2d9212	-0.04237563
76	0xbe69f099	-0.22845687
77	0xbdcab69a	-0.0989811
78	0xbe2daf33	-0.16961364
79	0xbdcc1b72	-0.09966172
80	0x3e05de45	0.1307307
81	0xbb993bef	-0.004676334
82	0xbd9bc861	-0.076065786
83	0x3cb3f2df	0.021966396
84	0x3d4f25b8	0.05057308
85	0xbde75829	-0.11296112
86	0xbd2b6b1d	-0.041850198
87	0x3cc65d24	0.024214335
88	0xbd81ca99	-0.063374706
89	0xbdd49232	-0.10379447
90	0x3d4d7d2f	0.050168213
91	0xbe109cf2	-0.1412237
92	0x3d19df58	0.037566513
93	0x3cada177	0.021195156
94	0x3da3b26f	0.07993018
95	0xbd89a19b	-0.06720277
96	0xbe06dce6	-0.13170204
97	0xbe2ea996	-0.1705688
98	0xbe6ada99	-0.22934951
99	0x3d8b7d63	0.06811025
100	0x3ce7b567	0.028284742
101	0xbde86766	-0.11347847
102	0x3d6733e4	0.05644597
103	0x3e049d2b	0.1295058
104	0x3dc74071	0.09729088
105	0xbe4747e9	-0.19461025
106	0x3c6c07ed	0.0144061865
107	0x3e0a2a99	0.13492812
108	0x3db80e62	0.08987118
109	0x3da4b957	0.08043163
110	0xbd0cda49	-0.03438786
111	0x3c582433	0.013192224
112	0xbc621f1c	-0.013801362
113	0xbb00595f	-0.001958452
114	0x3c0d192d	0.008611959
115	0x3de4d672	0.11173715
116	0xbd8c8cc7	-0.06862789
117	0xbe350016	-0.17675814
118	0x3df77450	0.12082732
119	0xbdd118e9	-0.10209829
120	0xbe32db62	-0.174665
121	0x3d9e5499	0.077309795
122	0x3de47526	0.11155157
123	0x3d802e46	0.06258826
124	0xbe0f93f1	-0.14021279
125	0xbe6564f6	-0.22401795
126	0xbe031db5	-0.12804301
127	0xbe5688d3	-0.20950632
128	0xbe66349c	-0.22481006
129	0x3d268199	0.040650938
130	0x3dce1b10	0.100637555
131	0x3de08630	0.10963094
132	0xbd89511d	-0.06704924
133	0x3df1cfbb	0.118071996
134	0xbddc8499	-0.107674785
135	0xbd22d897	-0.039757337
136	0xbe409853	-0.18808107
137	0xbde53c23	-0.11193111
138	0x3cb965f9	0.022631632
139	0x3e06536e	0.13117763
140	0x3d712f81	0.058883194
141	0xbe38bef4	-0.18041593
142	0x3e0f5b12	0.13999584
143	0x3d01650a	0.0315905
144	0xbbcc9b93	-0.006244132
145	0xbd69266f	-0.05692142
146	0xbe01e862	-0.12686303
147	0xbe55f0f3	-0.20892696
148	0xbe1c00b8	-0.15234649
149	0xbd9665df	-0.07343649
150	0x3e0ff809	0.14059462
151	0x3db789b3	0.08961811
152	0xbde48eb9	-0.11160035
153	0xbe6f4bb1	-0.23368718
154	0xbde69ef9	-0.112607904
155	0xbd9c7d3c	-0.07641074
156	0xbe3a1713	-0.18172865
157	0x3d11fa64	0.03563918
158	0x3cf24c1a	0.029577304
159	0xbe3509a9	-0.17679466
160	0x3d37c2d9	0.044863556
161	0xbe695dad	-0.2278964
162	0x3c7c715e	0.015407888
163	0xbdcaafdc	-0.09896824
164	0xbe346fca	-0.17620769
165	0xbe544530	-0.20729518
166	0xbd9f6487	-0.07782846
167	0xbe0b986e	-0.13632366
168	0x3e2e6f10	0.17034554
169	0xbe468451	-0.19386412
170	0xbe2ac031	-0.16674878
171	0x3e232f9a	0.15936127
172	0xbe45cfec	-0.19317597
173	0xbe0e738c	-0.13911265
174	0x3bbc1fdd	0.005741103
175	0x3d5ed4c0	0.054402113
176	0xbe1c7f0b	-0.15282838
177	0x3da18692	0.078869954
178	0x3dfbbb59	0.12291593
179	0xbcdca4bb	-0.026934018
180	0xbe626453	-0.22108583
181	0x3df683fc	0.12036893
182	0xbe44cc2c	-0.1921851
183	0x3c6dd9b3	0.014517236
184	0xbe2d2307	-0.16907893
185	0x3e0712e8	0.13190806
186	0xbe5ef3fc	-0.2177276
187	0xbe1addec	-0.15123719
188	0x3d56c179	0.052430604
189	0xbe675d63	-0.22594218
190	0x3c66fda6	0.01409856
191	0x3db2d427	0.08731871
192	0x3dcdfc63	0.100579046
193	0xbd61124d	-0.054949094
194	0xbd8364ca	-0.06415708
195	0xbcc8835d	-0.024476701
196	0x3ca26cf6	0.019827347
197	0x3cf90f34	0.030402757
198	0xbe45e49d	-0.1932549
199	0x3dc21057	0.09475773
200	0xbe1d2015	-0.1534427
201	0xbdb1866d	-0.08668218
202	0xbcc73300	-0.02431631
203	0xbd6205f4	-0.05518146
204	0x3e2dba3e	0.16965577
205	0x3dd1810e	0.10229693
206	0xbd370330	-0.044680774
207	0xbd7a7a08	-0.061151534
208	0x3cb562ea	0.022141892
209	0xbd067c6d	-0.032833505
210	0xbce79d69	-0.028273301
211	0x3d40e69a	0.04709492
212	0xbe170a6a	-0.14750066
213	0xbe40d42e	-0.1883094
214	0x3dbc1561	0.09183765
215	0xbe4dbc9b	-0.20091479
216	0x3da3636e	0.07977949
217	0x3dfe4f5a	0.12417479
218	0xbe2a5ed1	-0.16637732
219	0xbd461e64	-0.048368827
220	0x3d8c3306	0.068456694
221	0x3d297363	0.041369807
222	0xbe4f1beb	-0.20225494
223	0x3dd6566d	0.10465703
224	0xbdb16b1e	-0.08663009
225	0xbd35e951	-0.04441196
226	0xbe26a43a	-0.16273585
227	0x3d308d93	0.043103766
228	0xbdc1660d	-0.09443293
229	0xbe28010d	-0.16406651
230	0xbd0aceac	-0.033888504
231	0x3d8da2b6	0.069158
232	0xbb971de0	-0.0046117157
233	0x3d82d31a	0.06387921
234	0x3d162541	0.03665662
235	0xbe63f83c	-0.22262663
236	0xbe201c51	-0.15635802
237	0x3d6f70ae	0.05845707
238	0x3d8b83ae	0.06812225
239	0xbdc39ad5	-0.09551016
240	0xbe25e3df	-0.16200207
241	0x3c8ccf2d	0.017188633
242	0xbe14a1a5	-0.14514787
243	0xbcb42850	-0.021991879
244	0xbdf27ebd	-0.1184058
245	0x3c744942	0.014910044
246	0x3d6d8afd	0.057993878
247	0x3dd4b8af	0.10386788
248	0x3e051ea3	0.12999968
249	0x3d308760	0.043097854
250	0xbe3f5be0	-0.18687391
251	0x3cc4058b	0.023928424
252	0x3dbd68eb	0.09248527
253	0x3da7e2d8	0.08197564
254	0xbd79c207	-0.060976055
255	0x3bea667f	0.007153332

net.4.bias f4 [8]
0	0xbd1dc421	-0.03851712
1	0xbda2ebdb	-0.07955142
2	0xbc8b5eed	-0.017013038
3	0x3dc03e62	0.093868986
4	0xbd654f15	-0.05598362
5	0x3d699623	0.057027947
6	0xbd7d7942	-0.06188322
7	0x3c434e37	0.011920503
