model-service/models/load_dict/intent_classifier.pth (torch, 109356 bytes, 6 tensors)

net.0.weight f4 [128, 70]
0.11229213 0.09618874 -0.047518075 0.041435227 0.07331916 -0.039025858 0.098441266 -0.007823721
-0.011712052 -0.05010048 0.11279344 0.028348923 0.008488356 0.038711242 -0.14233094 0.0730582
0.14857362 0.12808028 0.020332523 -0.10891062 -0.04924756 -0.11197996 -0.08890286 -0.049243364
0.12618817 0.10854065 0.1704767 0.103232384 -0.13001755 -0.029644495 0.023680843 0.0063541904
-0.05291776 0.09896229 -0.13098028 -0.054518238 0.11327679 0.12161008 -0.096315324 0.03990525
-0.084663555 0.07213943 -0.04823854 0.022444239 -0.065984346 -0.11826316 0.026027992 0.10579338
-0.041964374 0.0227358 0.029530592 -0.021978974 0.02096475 0.08993871 -0.008846961 0.0596922
-0.14943275 0.075946316 -0.054609813 -0.0052293846 -0.00044326994 0.03853532 -0.0009048026 0.08079075
-0.00054852053 -0.06814657 -0.06034625 0.021139406 -0.027316667 0.07961894 0.046885274 0.020911582
0.06748377 0.06622236 -0.12212928 -0.050358362 0.054006618 0.024351813 -0.082621366 -0.1183253
-0.08080539 -0.13036142 0.09330001 -0.10974457 0.067815274 -0.0072175413 -0.10195252 -0.11277458
0.0024695918 -0.058228064 -0.06486159 0.059943963 0.043479845 -0.118026555 -0.10142229 0.026558094
-0.020538019 -0.05063088 -0.13039479 -0.0047630295 -0.050572574 0.11136898 0.06896316 0.10015136
0.13303496 0.026707359 0.025062405 -0.11715908 0.013119467 0.08777702 0.06974046 0.038230143
0.08074983 -0.100873135 0.042256407 -0.07137237 0.07672933 -0.10832935 -0.09119183 0.026720256
-0.025944002 0.022478051 -0.0451799 0.050494023 0.06880853 0.013886797 0.14176139 -0.017313566
0.11586515 0.06663438 -0.08194934 0.037559398 0.13764188 0.070709996 0.17431241 0.07933547
-0.05967664 -0.036170088 0.1117286 -0.057285793 0.055324472 0.016334152 -0.041176457 0.1836908
-0.059213966 0.0047649518 0.023082586 -0.0010946468 -0.028646544 0.08777337 -0.0066084596 0.121845834
0.040629737 0.08933126 -0.01805025 0.025527313 -0.098283574 -0.06573048 0.093676664 0.118400596
-0.053684957 0.01349739 0.12298734 -0.10279369 0.02975779 -0.06171552 -0.10049588 -0.14767264
0.133096 -0.07304167 -0.083965376 -0.055782028 0.15716867 0.13210511 0.042519964 0.10971535
0.03582532 0.016163027 0.015525751 0.044245657 -0.023930157 -0.021647014 0.0652517 -0.06557812
0.04346072 0.17158149 0.05128545 0.06550451 0.014341332 -0.026441514 0.15162173 -0.11193699
0.18051517 -0.033158965 -0.02375023 0.14956221 0.16453657 0.14232963 -0.022061214 0.05709693
-0.027492829 0.01678852 0.07233934 0.10180432 0.07474438 0.009723209 0.04940955 -0.11475807
-0.046927962 0.13541369 -0.098037064 -0.054454364 -0.10494686 0.102056846 -0.11039436 0.09368878
0.0597002 -0.06950547 0.110942274 0.09846415 0.008948387 0.1359551 -0.11343125 -0.02816794
0.119251825 -0.0037640918 0.0088363215 0.046136666 0.064616755 0.060279842 -0.0555496 -0.06781525
0.044950604 -0.11614331 0.06835141 0.020118989 0.06616411 0.03588076 -0.11306603 0.06530118
-0.0889319 0.10871074 0.13551521 0.09183641 0.043775693 -0.052973896 0.07211616 -0.061613187
0.043750368 -0.03527578 -0.00034944963 0.039976418 -0.07540421 -0.13318206 0.046487555 0.046558563
00000000: 6bf9 e53d 9afe c43d 50a2 42bd fcb7 293d
00000010: 5b28 963d 94d9 1fbd 939b c93d 102f 00bc
00000020: e8e3 3fbc 2936 4dbd 3f00 e73d 003c e83c
00000030: bf12 0b3c ae8f 1e3d 34bf 11be 8a9f 953d
00000040: af23 183e 7a27 033e 6490 a63c 880c dfbd
00000050: cfb7 49bd c055 e5bd b412 b6bd 69b3 49bd
00000060: 7937 013e 8f4a de3d 7291 2e3e 806b d33d
00000070: 5223 05be 03d9 f2bc 54fe c13c d036 d03b
00000080: 4bc0 58bd beac ca3d b21f 06be 844e 5fbd
00000090: a9fd e73d b50e f93d f840 c5bd b073 233d
000000a0: 1664 adbd d6bd 933d c695 45bd fbdc b73c
000000b0: cd22 87bd f533 f2bd a838 d53c 33aa d83d
000000c0: d6e2 2bbd 6e40 ba3c 24ea f13c 400d b4bc
000000d0: 44be ab3c c931 b83d d8f2 10bc cf7f 743d
000000e0: e604 19be be89 9b3d 8aae 5fbd 425b abbb
000000f0: af66 e8b9 36d7 1d3d 4630 6dba 9f75 a53d
00000100: 97ca 0fba 6e90 8bbd a12d 77bd 8c2c ad3c
00000110: 34c7 dfbc 410f a33d c60a 403d c44e ab3c
00000120: ee34 8a3d 979f 873d ea1e fabd 9244 4ebd
00000130: 0b36 5d3d 747d c73c 6435 a9bd 8954 f2bd
00000140: 4c7d a5bd 777d 05be 1314 bf3d c3c1 e0bd
00000150: bce2 8a3d 2081 ecbb 7ccc d0bd 5cf6 e6bd
00000160: e0d8 213b 8d80 6ebd 27d6 84bd cd87 753d
00000170: ec17 323d e8b7 f1bd 7db6 cfbd 5c90 d93c
00000180: 593f a8bc 5362 4fbd 3686 05be 3013 9cbb
00000190: 3025 4fbd 6b15 e43d 8f3c 8d3d 281c cd3d
000001a0: 513a 083e 64c9 da3c ac4f cd3c 1af1 efbd
000001b0: 08f3 563c 70c4 b33d 16d4 8e3d 3697 1c3d
000001c0: 2b60 a53d 9396 cebd 0e15 2d3d ad2b 92bd
000001d0: 4424 9d3d c7db ddbd c8c2 babd 70e4 da3c
000001e0: 8488 d4bc e423 b83c 8f0e 39bd d2d2 4e3d
000001f0: 7deb 8c3d 7385 633c e629 113e 2ed5 8dbc
00000200: b54a ed3d 9b77 883d 0ed5 a7bd e2d7 193d
00000210: fef1 0c3e 67d0 903d f47e 323e a37a a23d
00000220: 7e6f 74bd 1627 14bd f7d1 e43d 82a4 6abd
00000230: ea9b 623d 33cf 853c a5a8 28bd 7119 3c3e
00000240: 588a 72bd 5023 9c3b b117 bd3c 407a 8fba
00000250: 28ac eabc 86c2 b33d c78b d8bb 4f8a f93d
00000260: 5e6b 263d 4ff3 b63d 1ede 93bc a81e d13c
00000270: e648 c9bd b49d 86bd 8dd9 bf3d 037c f23d
00000280: c2e4 5bbd 2824 5d3c c9e0 fb3d 8085 d2bd
00000290: 9cc6 f33c 6ac9 7cbd c9d0 cdbd 7f37 17be
000002a0: 514a 083e df96 95bd 0af6 abbd b27b 64bd
000002b0: d3f0 203e 9046 073e 6a29 2e3d 71b2 e03d
000002c0: 92bd 123d 5368 843c b85f 7e3c ef3a 353d
000002d0: 2d09 c4bc 1455 b1bc afa2 853d d24d 86bd
000002e0: de03 323d 0fb3 2f3e b110 523d 3b27 863d
000002f0: e8f7 6a3c e09b d8bc ba42 1b3e 383f e5bd
00000300: f8d8 383e b2d1 07bd d88f c2bc d626 193e
00000310: 467c 283e dcbe 113e b8b9 b4bc 78de 693d
00000320: a438 e1bc 1488 893c a626 943d c97e d03d
00000330: 9513 993d 184e 1f3c ab61 4a3d 4706 ebbd
00000340: 8937 40bd e3a9 0a3e a8c7 c8bd 8a0b 5fbd
00000350: 61ee d6bd 2e03 d13d 7016 e2bd e7df bf3d
00000360: 3288 743d e258 8ebd b435 e33d 93a7 c93d
00000370: 419c 123c d037 0b3e a54e e8bd 74c0 e6bc
00000380: 4d3a f43d fbae 76bb 38c6 103c cdf9 3c3d
00000390: ca55 843d ffe7 763d fa87 63bd b9e2 8abd
000003a0: 201e 383d 8bdc edbd d3fb 8b3d 94d0 a43c
000003b0: 0d81 873d b4f7 123d 2a8f e7bd a0bc 853d
000003c0: ee21 b6bd bda3 de3d 80c4 0a3e ba14 bc3d
000003d0: 244e 333d 28fb 58bd a3b1 933d 1c5e 7cbd
000003e0: 9633 333d 567d 10bd 5636 b7b9 50be 233d
000003f0: 866d 9abd e160 08be bc69 3e3d 31b4 3e3d

net.0.bias f4 [128]
0.13585292 0.025080299 0.071000606 -0.018101882 0.030524204 0.025959782 0.078922085 -0.06387569
0.12511286 0.029284306 0.04711213 0.03540303 0.054220296 0.12245904 0.09089036 -0.05757544
0.13489085 0.009215589 0.09575571 0.12630914 0.009084905 0.059674304 0.008013942 -0.02128102
-0.04394777 0.16331373 0.08982755 -0.027351422 -0.0122050075 0.12378264 0.043173738 -0.055399816
0.07348658 0.061744638 0.12608223 0.015541952 -0.028718397 0.11990516 -0.0080038365 0.05914162
0.12854035 0.13408394 0.09022411 0.15447365 0.120926276 0.12889135 0.07815589 0.16023184
-0.054245308 -0.103736274 -0.03734962 0.058520105 -0.019868385 0.07746492 0.05408496 0.07004821
0.124463886 -0.018118897 -0.026419224 0.023305574 0.045788437 0.16054621 0.111572035 0.15506633
0.14177904 -0.036164235 0.113936536 0.033955123 0.14010754 0.115877286 0.0085008815 0.12935719
-0.022745464 0.105428495 0.12971948 -0.023615219 0.15721238 0.0016155217 0.057098605 0.13530946
0.05791578 0.08875193 -0.016465181 0.03641351 -0.06789576 0.073080584 0.12522072 -0.00092047575
-0.02046737 0.115104206 0.079521105 0.0404275 -0.03573159 -0.07587706 0.0157532 0.0817075
-0.020184305 -0.009471066 0.022284238 0.08749261 0.0059902817 -0.038393512 0.093500085 0.10880685
0.08694593 0.030616425 -0.025173647 0.04974858 0.075158834 0.070904665 0.10914806 -0.084514104
0.07621701 0.12477411 0.13404141 -0.014664821 0.030335618 -0.0012712833 0.11996481 -0.0064237895
0.03936805 0.097605266 -0.11303433 0.005150304 0.0018343241 0.121131115 0.05592249 0.14633986
00000000: 071d 0b3e 3375 cd3c c468 913d 664a 94bc
00000010: e50d fa3c 9ca9 d43c e7a1 a13d 42d1 82bd
00000020: 961d 003e a4e5 ef3c a6f8 403d c502 113d
00000030: 1a16 5e3d cecb fa3d ba24 ba3d 39d4 6bbd
00000040: d420 0a3e fbfc 163c 921b c43d 2f57 013e
00000050: dad8 143c 0b6d 743d e94c 033c 8955 aebc
00000060: 9402 34bd b73b 273e 82f7 b73d 1710 e0bc
00000070: 83f7 47bc c181 fd3d f2d6 303d ebea 62bd
00000080: 2280 963d f2e7 7c3d b31b 013e aca3 7e3c
00000090: d842 ebbc d690 f53d 8622 03bc 7c3e 723d
000000a0: 15a0 033e 4d4d 093e 6bc7 b83d 572e 1e3e
000000b0: 32a8 f73d 18fc 033e 3210 a03d d113 243e
000000c0: 5430 5ebd af73 d4bd eafb 18bd c7b2 6f3d
000000d0: 06c3 a2bc eea5 9e3d 3188 5d3d 7075 8f3d
000000e0: ece6 fe3d 156e 94bc 216d d8bc 55eb be3c
000000f0: a88c 3b3d 3a66 243e e17f e43d b5c9 1e3e
00000100: 862e 113e f320 14bd 8f57 e93d 8714 0b3d
00000110: 5a78 0f3e 1251 ed3d 4847 0b3c 3676 043e
00000120: b254 babc e5ea d73d 2fd5 043e b474 c1bc
00000130: 48fc 203e eabf d33a 3ae0 693d 908e 0a3e
00000140: 1939 6d3d 92c3 b53d fde1 86bc 5526 153d
00000150: ef0c 8bbd 46ab 953d dc39 003e 154c 71ba
00000160: 30ab a7bc c1bb eb3d f6db a23d 4e97 253d
00000170: 4a5b 12bd 6f65 9bbd db0c 813c 4356 a73d
00000180: 8e59 a5bc 882c 1bbc 6f8d b63c 532f b33d
00000190: 204a c43b 8442 1dbd f97c bf3d 20d6 de3d
000001a0: b510 b23d 4ccf fa3c f738 cebc 2bc5 4b3d
000001b0: e0ec 993d 7736 913d 0589 df3d bb15 adbd
000001c0: aa17 9c3d 9289 ff3d 2742 093e b844 70bc
000001d0: 6782 f83c 30a1 a6ba 1cb0 f53d a77e d2bb
000001e0: 6440 213d 45e5 c73d 8b7e e7bd e2c3 a83b
000001f0: b46d f03a 9713 f83d fb0e 653d 1eda 153e

net.2.weight f4 [128, 128]
0.0075767576 -0.046166193 -0.038511325 -0.023627654 0.009704574 -0.045559622 -0.043023054 -0.061192736
0.024712576 -0.0006813028 0.036300316 -0.012917571 -0.069321886 0.033407364 -0.042922378 0.042962007
-0.061944827 -0.018059116 0.026389007 -0.07782432 -0.075367145 -0.0470566 0.027684307 -0.06299356
-0.019951362 -0.088243484 -0.066511594 -0.050109293 -0.065920435 0.07195765 -0.013039947 0.035430767
-0.04860684 0.008233255 0.043405272 -0.07681715 0.014175838 0.08925855 0.015017346 0.08814651
-0.032069307 -0.09488862 0.07122197 -0.010624993 0.064196676 0.011140089 -0.059461527 -0.0034331793
0.010532842 0.0061371624 -0.019162469 -0.023414401 -0.026090655 0.06775361 -0.020236347 0.055292632
0.04335945 0.02642917 0.09771864 0.0019525153 0.021294966 0.013187997 -0.023625173 0.04762023
-0.01855381 0.09928966 0.014458917 -0.04987981 0.080248274 -0.055087276 0.03331115 0.096645355
-0.020750608 -0.048372567 0.008057068 0.005182195 0.106587365 0.020940503 -0.06474926 -0.058054805
-0.03270895 -0.011888339 0.05918064 0.023732059 -0.07124717 0.018767027 0.02830961 -0.07985262
0.06768223 0.0009944605 0.019091533 -0.001456365 0.06618511 0.04832791 0.001407667 -0.037314724
0.033327345 0.084219664 -0.04510014 -0.080501564 0.058251694 -0.0022456232 -0.06329141 0.0010532744
0.022999328 -0.057174806 -0.05460694 0.067212 -0.008796192 -0.011490985 -0.074829735 -0.07674764
0.059233505 -0.054760475 0.060134426 0.09877429 -0.053492177 0.039760627 -0.018172212 -0.03645838
-0.078537196 0.0025560218 -0.04916002 -0.08524823 0.05949808 0.015308094 -0.059561618 0.038348287
0.03518948 -0.04339482 0.041160878 -0.0052786195 -0.011615253 0.102187365 -0.08875657 -0.009439928
-0.060647447 0.039434772 0.03157077 0.05742324 0.03640062 0.016658062 -0.009379185 -0.064768456
0.013415398 -0.0004924221 -0.039956648 0.032885563 0.036883973 -0.035890717 0.020482386 0.104346365
-0.03190398 -0.06937782 -0.04406279 0.11103748 0.09069304 -0.06466142 0.056483258 -0.066435836
-0.047847234 -0.058834076 -0.04459593 0.015822807 -0.015090924 0.08830303 0.013649246 0.051843304
0.015127216 -0.07232578 0.018881781 -0.072510935 -0.09187307 -0.072128035 -0.06388212 -0.03789292
-0.011416188 -0.07985804 0.007022163 -0.013520614 0.043601487 -0.074958265 -0.022217678 0.03786691
0.016995156 -0.064779 0.006764058 -0.033857588 -0.076067924 -0.040554833 0.032746695 -0.035823844
-0.053410113 0.075509496 0.0006114428 0.05000647 0.048984967 0.07925689 -0.09309788 0.071169175
0.11944068 0.060218528 -0.03578597 0.081359275 -0.034233615 0.04672781 0.02143327 0.082178935
-0.05022859 -0.00012504502 0.04034952 0.050725922 0.07249322 0.007278402 0.0511479 0.025786946
0.017412744 0.018266767 0.089292124 -0.01127054 0.112217344 0.03465885 -0.053811822 0.0085036615
0.020346157 -0.044668883 -0.043298602 -0.038256273 0.11240221 -0.090479136 0.010451968 0.031093318
-0.07786099 -0.031097852 -0.0064500845 0.08386954 0.015330424 0.07667051 0.043558415 0.022265518
0.0480573 0.031508397 -0.03790029 -0.037153095 0.112759 0.029071542 -0.03336781 0.021996124
0.027351122 -0.0455519 0.014246464 -0.029623238 0.04142769 -0.0545243 -0.05138141 0.05923488
00000000: 7346 f83b c318 3dbd 0dbe 1dbd c88e c1bc
00000010: efff 1e3c ba9c 3abd f138 30bd 3ca5 7abd
00000020: 0772 ca3c 7599 32ba a4af 143d 38a4 53bc
00000030: a2f8 8dbd 29d6 083d 60cf 2fbd eef8 2f3d
00000040: dcb9 7dbd b6f0 93bc c22d d83c 5b62 9fbd
00000050: 175a 9abd 6cbe 40bd 33ca e23c c502 81bd
00000060: 0a71 a3bc 00b9 b4bd 3b37 88bd 673f 4dbd
00000070: 4b01 87bd 885e 933d 80a5 55bc da1f 113d
00000080: f717 47bd c6e4 063c bac9 313d 4f52 9dbd
00000090: c641 683c 30cd b63d 500b 763c 2886 b43d
000000a0: 1b5b 03bd f754 c2bd d3dc 913d 7314 2ebc
000000b0: 8c79 833d eb84 363c ee8d 73bd 31ff 60bb
000000c0: f191 2c3c 401a c93b 9cfa 9cbc 8fcf bfbc
000000d0: 12bc d5bc 68c2 8a3d b2c6 a5bc 877a 623d
000000e0: ae99 313d fd81 d83c b620 c83d 8beb ff3a
000000f0: c872 ae3c 7812 583c 9489 c1bc 6e0d 433d
00000100: 29fe 97bc 6158 cb3d 18e5 6c3c c64e 4cbd
00000110: 3559 a43d 32a3 61bd 4671 083d 00ee c53d
00000120: 2efd a9bc 5022 46bd cb01 043c 67cf a93b
00000130: 7a4a da3d 6b8b ab3c 439b 84bd e0ca 6dbd
00000140: d2f9 05bd 4fc7 42bc 6667 723d bc69 c23c
00000150: 09ea 91bd 4fbd 993c 8ee9 e73c c589 a3bd
00000160: fb9c 8a3d 8f58 823a d965 9c3c 80e3 beba
00000170: 0f8c 873d 7df3 453d 7781 b83a 53d7 18bd
00000180: 4182 083d 5c7b ac3d edba 38bd 01de a4bd
00000190: 5499 6e3d 4e2b 13bb ed9e 81bd 060e 8a3a
000001a0: 1669 bc3c 2130 6abd 87ab 5fbd 72a6 893d
000001b0: e71d 10bc af44 3cbc 5540 99bd de2d 9dbd
000001c0: d59e 723d 854c 60bd 844f 763d 2d4a ca3d
000001d0: 9d1a 5bbd 0adc 223d e4dd 94bc 6255 15bd
000001e0: 1cd8 a0bd ee82 273b 045c 49bd a096 aebd
000001f0: 42b4 733d cdce 7a3c e2f6 73bd 1813 1d3d
00000200: d822 103d c4be 31bd 4f98 283d 45f8 acbb
00000210: e74d 3ebc 9c47 d13d 01c6 b5bd eea9 1abc
00000220: 7569 78bd 5b86 213d 5a50 013d a234 6b3d
00000230: d118 153d 7d76 883c 27ab 19bc 53a5 84bd
00000240: 42cc 5b3c e315 01ba 95a9 23bd 03b3 063d
00000250: a613 173d 2502 13bd adca a73c 8cb3 d53d
00000260: bfad 02bd f515 8ebd 2f7b 34bd 9e67 e33d
00000270: 46bd b93d 356d 84bd fd5a 673d 830f 88bd
00000280: 76fb 43bd 00fc 70bd 39aa 36bd d59e 813c
00000290: ec3f 77bc 38d8 b43d 16a1 5f3c a559 543d
000002a0: 24d8 773c 8a1f 94bd f7ad 9a3c 9d80 94bd
000002b0: f327 bcbd ddb7 93bd a1d4 82bd 9b35 1bbd
000002c0: f70a 3bbc 9d8c a3bd 2c1a e63b 9185 5dbc
000002d0: 7997 323d b883 99bd d901 b6bc 551a 1b3d
000002e0: 6d39 8b3c daaa 84bd 08a5 dd3b 41ae 0abd
000002f0: 80c9 9bbd d31c 26bd 6621 063d 06bc 12bd
00000300: 90c4 5abd b9a4 9a3d 3b49 203a 96d3 4c3d
00000310: 76a4 483d 7051 a23d 1aaa bebd 25c1 913d
00000320: 519d f43d b4a7 763d 4f94 12bd b19f a63d
00000330: 8c38 0cbd a965 3f3d d394 af3c 6e4d a83d
00000340: 7ebc 4dbd 841e 03b9 8a45 253d fcc5 4f3d
00000350: 5377 943d a97f ee3b 7680 513d 253f d33c
00000360: 2ca5 8e3c 30a4 953c cade b63d 12a8 38bc
00000370: 35d2 e53d 70f6 0d3d c969 5cbd f152 0b3c
00000380: fcac a63c b8f6 36bd e059 31bd 9cb2 1cbd
00000390: 2133 e63d 204d b9bd bb3e 2b3c 6ab7 fe3c
000003a0: 9575 9fbd ecc0 febc 3b5b d3bb cbc3 ab3d
000003b0: 752c 7b3c 6e05 9d3d 4f6a 323d 2d66 b63c
000003c0: bbd7 443d f30e 013d 563d 1bbd d82d 18bd
000003d0: 31ee e63d 7127 ee3c afac 08bd 3731 b43c
000003e0: 760f e03c a194 3abd 006a 693c 6fac f2bc
000003f0: 15b0 293d df54 5fbd 5075 52bd 46a0 723d

net.2.bias f4 [128]
-0.031143852 -0.05019258 0.066051215 -0.085961364 0.029134465 0.07814939 0.09474031 0.110771745
0.0152843 0.016844412 0.08344912 -0.06707776 0.015692921 0.042943962 0.07306211 0.048253726
0.010649819 0.048776317 0.019838493 -0.07836616 0.012445459 -0.09622138 0.114130825 0.040652003
-0.015848631 0.08556144 -0.025822572 0.092177145 0.041048396 -0.0036790618 -0.03774448 -0.0026932806
0.020730276 0.105390206 0.09427001 -0.06031334 -0.0035106738 0.089188434 0.003131631 0.0894826
-0.041773174 -0.07074349 0.07071265 0.037733644 0.07522533 0.102917016 -0.0051961364 0.11578287
-0.07936451 0.07746723 -0.046983518 -0.065172166 -0.0028788624 0.009032903 -0.024838358 -0.03988332
-0.02458326 0.08433424 0.06807203 0.00096575427 0.08244471 -0.08068481 0.054939132 -0.02316007
0.09160044 -0.06507905 -0.07555994 0.10692516 -0.004535127 0.07393456 -0.08589287 -0.063909195
0.06978671 0.037362542 -0.028015757 0.016997786 0.108879566 0.011604328 -0.06407373 -0.07494489
0.06704137 0.04211581 0.010328789 0.034881543 0.034792587 0.047760773 0.06344449 -0.043509424
0.08987063 0.094697535 0.076570496 0.053746168 0.032055825 0.068852834 0.03385469 0.018489264
-0.042815637 -0.06217836 -0.07363647 0.03156593 0.038378026 0.06157529 0.09231518 -0.066668704
0.08989642 -0.012210679 -0.079967216 -0.050025966 0.096634544 -0.01474291 -0.052656934 -0.03425803
-0.0028222152 -0.06501293 0.0014818845 -0.0037234095 0.09694188 -0.05929636 0.05409465 -0.052256476
-0.05822731 -0.008369475 -0.026236638 0.06067425 0.0565625 0.014562326 0.066313684 -0.0464638
00000000: 6421 ffbc bc96 4dbd dc45 873d 830c b0bd
00000010: 67ab ee3c ca0c a03d 3507 c23d 4cdc e23d
00000020: 006b 7a3c 4bfd 893c 5fe7 aa3d 1160 89bd
00000030: 718e 803c 02e6 2f3d 96a1 953d b3a5 453d
00000040: 947c 2e3c adc9 473d 5684 a23c 707e a0bd
00000050: 0ae8 4b3c b70f c5bd 6cbd e93d b782 263d
00000060: fdd4 81bc d63a af3d dc89 d3bc 5fc7 bc3d
00000070: 5d22 283d 6a1c 71bb f599 1abd c081 30bb
00000080: 8ad2 a93c d2d6 d73d a310 c13d 1f0b 77bd
00000090: 5513 66bb 6da8 b63d 0d3c 4d3b a742 b73d
000000a0: 591a 2bbd f6e1 90bd cbd1 903d 988e 1a3d
000000b0: bd0f 9a3d 28c6 d23d 5a44 aabb 921f ed3d
000000c0: dc89 a2bd 24a7 9e3d ca71 40bd fc78 85bd
000000d0: 4cab 3cbb befe 133c d079 cbbc b15c 23bd
000000e0: d562 c9bc 6eb7 ac3d 5969 8b3d ac2a 7d3a
000000f0: c6d8 a83d 143e a5bd db07 613d 30ba bdbc
00000100: 0399 bb3d 2a48 85bd 2bbf 9abd 94fb da3d
00000110: 679b 94bb 016b 973d 9ae8 afbd d3e2 82bd
00000120: 56ec 8e3d 7709 193d 4d81 e5bc f13e 8b3c
00000130: 40fc de3d 1420 3e3c 1639 83bd b57c 99bd
00000140: fc4c 893d a181 2c3d 153a 293c f3df 0e3d
00000150: ac82 0e3d cda0 433d 2fef 813d f036 32bd
00000160: 180e b83d c8f0 c13d fed0 9c3d f124 5c3d
00000170: f84c 033d b702 8d3d 37ab 0a3d cc76 973c
00000180: 735f 2fbd bcae 7ebd b8ce 96bd 474b 013d
00000190: 4732 1d3d 5f36 7c3d be0f bd3d 9a89 88bd
000001a0: 9d1b b83d 4d0f 48bc dac5 a3bd 07e8 4cbd
000001b0: 55e8 c53d 3f8c 71bc ccae 57bd 2652 0cbd
000001c0: eaf4 38bb 8025 85bd cb3b c23a 7204 74bb
000001d0: 7789 c63d bde0 72bd 5a92 5d3d e30a 56bd
000001e0: c37f 6ebd 1f20 09bc 38ee d6bc 9085 783d
000001f0: 14ae 673d d296 6e3c 78cf 873d d350 3ebd

net.4.weight f4 [8, 128]
-0.0011350269 0.112485655 -0.045194104 -0.08792784 -0.15301861 -0.08651798 -0.15689248 -0.15070483
0.0581454 -0.018129911 0.07900393 0.0282439 -0.06638226 0.019174976 -0.11578708 -0.064681016
0.08175117 -0.1484069 0.04539052 -0.013657234 -0.14933558 0.026311263 -0.09740211 0.027896486
0.072626434 0.04369277 -0.008427521 0.11523371 0.009101443 0.09610401 -0.074089445 -0.011077118
-0.05442097 -0.11988473 0.0859179 0.09218033 -0.03252023 -0.102875896 0.021937387 -0.10280017
0.046132617 -0.0130914105 -0.088306524 0.1353996 0.009011288 -0.09707816 -0.13181211 0.11511842
-0.08808937 0.13284746 0.06971246 -0.12106446 0.111944556 -0.14199421 -0.0056130635 -0.059127044
-0.069924854 -0.11005479 -0.14944932 -0.093004145 0.03778249 -0.0044256747 -0.1242111 0.027960917
0.12171213 -0.027756602 -0.049595978 -0.13766266 -0.06067608 -0.01264938 -0.07954268 -0.091566816
-0.113080926 0.13182862 -0.15250519 0.016275916 -0.100254156 0.048661094 -0.0011708107 0.012437217
0.027832082 -0.028777918 0.09431252 -0.08128206 -0.051318776 -0.10981181 0.023936111 0.079343915
0.017893855 0.070489794 -0.044540264 -0.0011920595 -0.045192268 -0.14544596 0.02035463 -0.14336567
0.0017138628 0.009896653 -0.069390334 -0.1321425 0.04406541 -0.099223666 -0.015796779 -0.056769684
0.00850004 -0.052692294 -0.04586211 0.048436392 -0.12343209 -0.03245381 -0.14613397 -0.11073
-0.042394537 -0.041881554 -0.10727851 0.031177651 0.05089376 -0.035120077 -0.1365481 -0.10435377
0.035282295 -0.024617137 -0.041137353 -0.01177455 -0.007099658 0.059764672 0.05228755 0.06459097
-0.010330857 0.039018434 -0.07827917 0.07625241 0.0038948392 0.14640959 -0.12122656 0.085132375
-0.027809478 -0.08024982 -0.14803535 0.05924971 -0.15480874 -0.12287508 0.067547195 -0.05377561
-0.12429029 0.060640052 -0.05104116 -0.106489144 -0.15469812 0.014796262 0.12155391 0.044309914
-0.053296812 -0.1615454 0.038316857 0.06408182 -0.006717677 -0.087341025 -0.11862216 -0.13604562
-0.045112867 0.07794163 -0.12952316 0.03761388 -0.11421286 -0.071846515 0.10013652 0.0024382423
-0.030824773 0.11147838 -0.025832823 -0.15546305 0.14704108 -0.06598336 0.0126435 -0.042252153
-0.050895248 -0.13676818 -0.06839284 -0.13743417 -0.062439665 0.149843 0.096537486 -0.05349289
0.044399817 -0.10281399 -0.017002838 -0.02664788 0.049759928 -0.054958206 0.038246218 -0.09136293
0.11955962 0.029419526 0.05477988 -0.17048308 0.08795081 0.008177979 -0.06989494 -0.13575542
0.054924607 -0.0948251 0.0070490995 0.12146765 0.07483116 -0.11376735 0.043077424 0.045923956
-0.030267142 0.058669433 -0.036582056 -0.029934473 0.08511265 0.12053577 0.058784105 0.080182396
-0.09007869 0.06728564 -0.1624555 0.14359134 -0.10802032 -0.06045632 0.0970054 -0.016587628
-0.062385783 -0.04153562 -0.06516193 0.11950594 -0.008093158 -0.13341588 0.00818979 -0.013030478
0.013294403 0.105649486 -0.04067274 0.052766535 -0.06236901 -0.12380178 -0.13415986 0.057789054
-0.058349025 -0.055414286 0.11201372 0.048364248 0.08831851 0.14148737 -0.14077197 0.029967314
-0.007551613 -0.15216005 -0.036602188 0.15573199 0.101667926 -0.005018967 -0.006217565 0.027687088
00000000: 2fc5 94ba e15e e63d 741d 39bd 8313 b4bd
00000010: e9b0 1cbe 5730 b1bd 6ca8 20be 5e52 1abe
00000020: df29 6e3d 2e85 94bc d0cc a13d c05f e73c
00000030: 6cf3 87bd d714 9d3c c721 edbd 7b77 84bd
00000040: 286d a73d faf7 17be 69eb 393d 97c2 5fbc
00000050: 6deb 18be b88a d73c c27a c7bd 2c87 e43c
00000060: 2bbd 943d 31f7 323d 9613 0abc a7ff eb3d
00000070: 381e 153c 2ed2 c43d 35bc 97bd cd7c 35bc
00000080: 86e8 5ebd 2086 f5bd b9f5 af3d 0ac9 bc3d
00000090: ef33 05bd 99b0 d2bd 09b6 b33c e588 d2bd
000000a0: 8ef5 3c3d 5b7d 56bc 0dda b4bd 31a6 0a3e
000000b0: 15a4 133c ead0 c6bd c1f9 06be 35c3 eb3d
000000c0: 3368 b4bd 2a09 083e 68c5 8e3d a5f0 f7bd
000000d0: 3043 e53d ee66 11be caed b7bb 332f 72bd
000000e0: c334 8fbd 6864 e1bd 3e09 19be f578 bebd
000000f0: d0c1 1a3d 4005 91bb 6462 febd 4b0e e53c
00000100: 3644 f93d d061 e3bc 2725 4bbd 71f7 0cbe
00000110: 7b87 78bd 583f 4fbc 46e7 a2bd 6287 bbbd
00000120: f996 e7bd 15fe 063e 522a 1cbe 1255 853c
00000130: 0d52 cdbd db50 473d e375 99ba 78c5 4b3c
00000140: 1b00 e43c abbf ebbc ec26 c13d 3577 a6bd
00000150: a333 52bd 04e5 e0bd aa15 c43c 107f a23d
00000160: 2296 923c f45c 903d da6f 36bd e13e 9cba
00000170: 871b 39bd c9ef 14be c1be a63c 73ce 12be
00000180: b1a3 e03a 9225 223c 851c 8ebd 5d50 07be
00000190: ee7d 343d c735 cbbd 3f68 81bc 5487 68bd
000001a0: c043 0b3c e0d3 57bd e8d9 3bbd 3d65 463d
000001b0: f7c9 fcbd 49ee 04bd 25a4 15be 69c6 e2bd
000001c0: e5a5 2dbd fe8b 2bbd d6b4 dbbd 4668 ff3c
000001d0: fa75 503d 12da 0fbd 44d3 0bbe 6eb7 d5bd
000001e0: 2b84 103d e1a9 c9bc a47f 28bd 0bea 40bc
000001f0: 3fa4 e8bb cdcb 743d 782b 563d 4548 843d
00000200: c142 29bc cbd1 1f3d d450 a0bd 392a 9c3d
00000210: 8f40 7f3b 65ec 153e a145 f8bd e259 ae3d
00000220: b4d0 e3bc 055a a4bd 9496 17be d3af 723d
00000230: 2f86 1ebe eea5 fbbd 2f56 8a3d d043 5cbd
00000240: e88b febd b461 783d 8910 51bd fb16 dabd
00000250: 2f69 1ebe 056c 723c 42f1 f83d 507e 353d
00000260: c24d 5abd 286c 25be 23f2 1c3d 543d 833d
00000270: f61f dcbb dadf b2bd 2df0 f2bd 8b4f 0bbe
00000280: 45c8 38bd dc9f 9f3d b8a1 04be 0311 1a3d
00000290: 6fe8 e9bd 4424 93bd 6014 cd3d ebca 1f3b
000002a0: 3c84 fcbc c74e e43d 5b9f d3bc b531 1fbe
000002b0: f091 163e 4922 87bd af26 4f3c 9810 2dbd
000002c0: 8977 50bd f50c 0cbe 8c11 8cbd 8bbb 0cbe
000002d0: bcc0 7fbd 7270 193e 72b5 c53d 5c1b 5bbd
000002e0: 95dc 353d 2490 d2bd 8949 8bbc a84c dabc
000002f0: 11d1 4b3d db1b 61bd 11a8 1c3d 7d1c bbbd
00000300: addb f43d 3801 f13c de60 603d 1e93 2ebe
00000310: 8e1f b43d eefc 053c 1425 8fbd 7803 0bbe
00000320: a0f8 603d a933 c2bd 22fc e63b 08c4 f83d
00000330: 1441 993d dbfe e8bd f471 303d c21a 3c3d
00000340: ccf2 f7bc 5c4f 703d 11d7 15bd 2439 f5bc
00000350: 8b4f ae3d 75db f63d 9ac7 703d ab36 a43d
00000360: 2d7b b8bd 0ecd 893d bc5a 26be 9c09 133e
00000370: c239 ddbd 0ca1 77bd c4aa c63d c7e2 87bc
00000380: 3c88 7fbd 4121 2abd 9e73 85bd 88bf f43d
00000390: 2a99 04bc 2c9e 08be 782e 063c c97d 55bc
000003a0: c5d0 593c c25e d83d 7698 26bd b921 583d
000003b0: a676 7fbd ca8b fdbd 3461 09be 37b4 6c3d
000003c0: 63ff 6ebd 17fa 62bd 7367 e53d 9719 463d
000003d0: 56e0 b43d 11e2 103e 8726 10be 037e f53c
000003e0: 8573 f7bb d8cf 1bbe 2dec 15bd 3578 1f3e
000003f0: 4637 d03d 2676 a4bb b7bc cbbb 08d0 e23c

net.4.bias f4 [8]
-0.010731964 -0.024337184 -0.04089059 0.059718087 -0.0034905085 0.035823677 0.0058677667 -0.07282078
00000000: 1fd5 2fbc c65e c7bc e47c 27bd f49a 743d
00000010: 04c1 64bb d9bb 123d 6546 c03b 1023 95bd
