model-service/models/load_dict/intent-classifier/intent_classifier.pth (torch, 131884 bytes, 6 tensors)

net.0.weight f4 [128, 114]
000000 39 ed 38 3d 4c 03 2a 3d 3a 60 e2 3d 32 6b e9 bb
       0.04514811 0.04150705 0.1105351 -0.0071233744
000010 2e 4e c4 3d 6d 0e af bd dc 7e 9f bc 54 5a d8 3b
       0.09585224 -0.085476734 -0.019469671 0.006602565
000020 2a 79 0d bd 0a 03 5a 3d f4 f3 c1 bc a0 c7 62 bc
       -0.03453938 0.053225555 -0.023675896 -0.01384154
000030 86 eb 90 3c b8 c0 b7 3c b7 01 a9 bd 82 b0 9e 3d
       0.017690431 0.022430763 -0.0825228 0.0774851
000040 f5 2c e7 bd fd 36 40 bd cb 70 c8 bc 50 90 4b 3d
       -0.11287872 -0.04692744 -0.024467846 0.049698174
000050 e8 9a b1 3d 84 da be bd b9 ea 9b bd ca 6b 1e bd
       0.08672124 -0.09319022 -0.07613129 -0.038677014
000060 9c 9a f3 bc ac d8 1a 3d f4 dd 6e 3d fa 6b a5 3d
       -0.02973681 0.03780429 0.05831714 0.080772355
000070 48 8e 11 3d dc a0 80 3d 39 0a fd bb a2 c1 6a bd
       0.03553608 0.062806815 -0.007722166 -0.05731357
000080 4e fa 99 3b 53 64 10 bc bd c3 b2 bd f4 e8 b7 3d
       0.004699028 -0.008812982 -0.0872874 0.08979979
000090 9a 96 ce 3d 34 d3 18 bd fe a3 df 3d d2 4d 2d 3d
       0.10087319 -0.037310794 0.10919951 0.042310543
0000a0 b9 3d 46 3d fb 0a 6a 3d 05 29 ef 3b 67 5c 00 3e
       0.048398707 0.057139378 0.007298591 0.12535249
0000b0 87 4b 1f 3d 3c f1 f2 3d a2 a4 10 3d 19 c6 18 bd
       0.038890388 0.11862418 0.035313256 -0.037298296
0000c0 3e eb 22 bd bd cd be 3c 3b 42 df 3d 81 93 63 bd
       -0.039775126 0.023291463 0.10901304 -0.055560593
0000d0 64 f7 9f bc 48 e5 30 bc e4 7e 1e 3a b5 78 8c 3d
       -0.019527145 -0.010796852 0.000604613 0.068589605
0000e0 fb 1e 3e 3d 4e 4c 96 bd f8 8a ae bd 47 05 22 bd
       0.046416264 -0.07338773 -0.085226 -0.039555814
0000f0 86 0e 04 be 88 e8 07 3c 9a 91 6f 3d a1 ae de bd
       -0.12896165 0.008295186 0.058488466 -0.108731516
000100 08 16 dc bc d8 0e 43 bd 64 a3 83 3d 60 30 c8 3d
       -0.026865974 -0.047621578 0.06427649 0.09774852
000110 3e 18 bf 3d d4 ea 90 3d 57 39 38 3d de 88 e7 3c
       0.09330796 0.0707604 0.04497656 0.028263506
000120 d9 d6 35 3d 9b be 1a 3d 7c 03 ac bc 2a 95 d1 3d
       0.044394348 0.03777943 -0.020997755 0.10233529
000130 e8 45 20 bd a0 a7 7f bc 8d 85 4c 3d f8 a8 a5 bd
       -0.039129168 -0.01560393 0.04993205 -0.08088869
000140 cb 05 cb 3d 15 a9 c5 bb 15 1d 09 be 87 30 82 3d
       0.09913214 -0.006032119 -0.1339 0.06356912
000150 86 3e ea bd 7e 1f 31 3c 77 5e d5 3d 8a cf a6 bd
       -0.11437707 0.010810731 0.10418408 -0.08145054
000160 8a ab 9a bd 20 68 8b 3d dd 6f 23 bd e7 a8 06 3d
       -0.0755225 0.0680697 -0.039901603 0.03287592
000170 ee 99 97 3d c2 2f 6d 3d bd 52 86 bd 29 2a 0f bd
       0.07402407 0.057906874 -0.0655875 -0.034952316
000180 83 09 42 bd 0e 4f 22 bd 56 d7 bd bd 46 29 0e 3e
       -0.047372352 -0.039626174 -0.09269588 0.13882932
000190 40 51 02 3e 07 1c 0b be 04 79 b9 bd a7 8d 97 bd
       0.12726307 -0.1358491 -0.09056285 -0.07400065
0001a0 7d 95 b4 bd 12 0e b4 3d 3c 7d 01 3d a8 bb af 3d
       -0.08817575 0.08791746 0.031613573 0.085807145
0001b0 28 ed bb 3c 04 7b 10 3e 28 3c e2 3d 47 74 17 bd
       0.022940233 0.14109427 0.1104663 -0.036976125
0001c0 78 11 57 3c 7d e7 cd 3d 5e 20 e8 bd 80 54 e2 3b
       0.0131267235 0.100539185 -0.113342986 0.006907046
0001d0 08 cc 5c 3d ae ed 16 3e f0 ae 86 bb 7c 99 9c 3d
       0.053905517 0.14739105 -0.0041102096 0.07646462
0001e0 f8 49 ee bd 90 0c 8b bc 5c 35 bd 3d d5 14 23 3e
       -0.11635202 -0.016973764 0.09238693 0.15925916
0001f0 5b ec 2f 3e c7 71 e0 3d 46 c7 69 bc 0e 6d f6 3d
       0.17180006 0.10959201 -0.014268702 0.12032519
000200 52 4b 30 3c 3b f2 8a bd 69 e5 42 3e 2c 65 f8 bd
       0.010760145 -0.06784483 0.19032826 -0.12128672
000210 e0 77 9c 3d c6 01 b2 3d 10 3d 6a 3c 93 44 4d 3d
       0.07640052 0.086917445 0.014296785 0.050114226
000220 31 48 02 be 6c 3d 01 3d b9 a0 e2 3d bb 73 83 3c
       -0.12722851 0.031552717 0.11065812 0.016046396
000230 22 5c 5e bd 7e 5f 5f bd 08 51 e6 3d 64 d0 df 3c
       -0.054287083 -0.054534428 0.11245924 0.027321048
000240 cb 6b 7e bd 0d 02 bb 3d 00 72 e6 b9 60 3b e5 bd
       -0.062114518 0.091312505 -0.00043953955 -0.111929655
000250 a0 3e 04 3b 3a 03 8b bd 3c 36 e7 bc b0 2e 12 be
       0.002017893 -0.06787725 -0.028224103 -0.14275622
000260 5a ac 1f bd 82 02 e1 3c 0d b5 1c bd 7c 63 83 bc
       -0.038982727 0.027467016 -0.0382586 -0.016038649
000270 5e b3 66 bd 06 11 43 bd d4 97 41 bd ab e6 88 bd
       -0.0563234 -0.047623657 -0.047263935 -0.066846214
000280 8c bc fe 3c 51 ae 27 bd 81 f5 18 3e 91 b0 42 3d
       0.031095766 -0.040937725 0.14937402 0.047531668
000290 4a 59 a9 bd b8 28 9d 3d 83 d3 0e be f2 68 64 3d
       -0.08268984 0.07673782 -0.13947873 0.055764146
0002a0 c5 aa 6b bc d5 c6 1d 3d 8c 7e bc bd de 57 39 bc
       -0.014383976 0.0385197 -0.092038244 -0.011312453
0002b0 ff d1 e3 3d 39 8e 1e 3d 64 7a 36 bb f7 55 56 3d
       0.11124038 0.038709853 -0.0027843947 0.052328076
0002c0 86 14 dd bc b8 f1 5e 3d 68 49 16 3c a5 59 20 bd
       -0.026987325 0.05442974 0.009172775 -0.03914799
0002d0 a8 38 26 bc 7e 9d 01 3e 8a 96 3a 3b 38 9a 0c bc
       -0.010145344 0.12657735 0.0028471076 -0.0085816905
0002e0 50 96 be bd c4 1c a0 3c ff 27 dd 3d 5b 30 a7 bd
       -0.093060136 0.019544967 0.10798644 -0.0816352
0002f0 60 bb d0 3b 9a 1d c1 3d 63 56 1b 3e 33 08 14 3d
       0.006369993 0.09429474 0.15169673 0.036140632
000300 dc f4 97 bb 26 33 06 bd 02 90 74 3d a4 61 a3 bd
       -0.004637344 -0.032763623 0.05970765 -0.07977608
000310 95 09 2c 3d 20 77 28 3c 50 50 60 3d 5f be 05 3e
       0.042001326 0.010282308 0.054764092 0.13060902
000320 7f 32 cd 3c df 29 18 3c b1 4f a1 bb 38 3a 25 3c
       0.025048492 0.009287327 -0.00492283 0.010084681
000330 20 eb 6a bb 5c aa 83 3d 4a 20 00 3d 5c 4e ff 3c
       -0.0035845712 0.06428978 0.031280793 0.031165294
000340 a4 86 a8 bc 01 a1 8a bc 7d bd 1a 3d 7e 24 95 bd
       -0.020572014 -0.016922476 0.037778366 -0.07282351
000350 bf ea 9f bd cf 7a 8d bd ac 14 cf bd f3 44 e5 3d
       -0.07808446 -0.069081895 -0.10111365 0.11194792
000360 0c 98 09 be 8b 72 b1 3c 18 50 b2 3c 6a be 99 3d
       -0.13436908 0.021661064 0.021766707 0.07507022
000370 0f 3c 52 bd a3 88 aa bd 50 d5 91 bb d1 64 9c bd
       -0.051326808 -0.08326843 -0.0044504777 -0.07636417
000380 fa 6a 9c bd ea 66 ba 3b 5b ea aa bd 4f 68 ab bd
       -0.07637592 0.005688538 -0.08345481 -0.08369505
000390 98 c5 bf 3d 80 d7 88 bd fd c4 af 3c ec 6d 95 bd
       0.0936386 -0.06681728 0.021456236 -0.072963566
0003a0 65 2d dd 3c 5a 99 b5 3c c0 27 64 bc a3 61 40 3d
       0.026999185 0.02216785 -0.013925493 0.046968114
0003b0 28 69 a7 3d 70 b4 3b bd 18 0f 6e bd b6 f8 2d bd
       0.08174354 -0.045826375 -0.058119863 -0.042473517
0003c0 5c 0d af bd ac a7 ce 3d 03 ce d0 bc d0 d0 23 bc
       -0.0854747 0.100905746 -0.025488859 -0.009998515
0003d0 0e d7 9d bc d5 74 73 bd aa f1 79 bd 24 0a c8 3c
       -0.019267585 -0.05943759 -0.061021484 0.024418898
0003e0 c8 db 26 3d b7 c8 97 bd d8 66 1a 3d 9d d7 bb 3d
       0.040736943 -0.0741133 0.037695736 0.09171984
0003f0 f8 24 8b bc a8 4a ba 3d 16 8a 48 3d e8 83 87 3c
       -0.016985402 0.09096271 0.048959814 0.01654239

net.0.bias f4 [128]
000000 82 dc e3 3d 47 2b 94 3d f7 18 a5 3c 43 52 00 3e
       0.11126043 0.07234817 0.020153506 0.1253138
000010 cc 31 12 3d ad f7 e4 3d 26 f0 f5 3d 45 11 2f 3e
       0.03569202 0.11180053 0.12008695 0.17096432
000020 e2 e1 c1 3c c8 ec 06 3e 25 1a a8 3d 77 9d e0 3d
       0.02366728 0.13176262 0.08208112 0.10967534
000030 38 55 c0 3d ab 4a d2 3d 6c 74 f2 3a 5d fc 63 3d
       0.09391254 0.10268148 0.0018497831 0.055660594
000040 72 e0 b6 ba 0a 73 4f 3d db 41 24 3e dc df 61 3d
       -0.0013952388 0.05064682 0.16040747 0.05514513
000050 e1 91 69 3d e0 e8 ce 3d 47 62 18 3e b5 a1 09 3e
       0.057023887 0.10103011 0.1488124 0.13440593
000060 7f cf 09 bd 08 04 13 3c e2 52 90 3c bd fb 61 3d
       -0.03364515 0.008973129 0.017617647 0.055171717
000070 73 c5 d2 3c 0d 41 d3 3d 90 7d 7b 3d a3 44 0e 3e
       0.025728917 0.10315142 0.061399043 0.1389337
000080 87 90 8a 3d 17 62 13 3d a8 d8 b9 3d 7d 74 10 3e
       0.06765848 0.035982218 0.09074527 0.14106937
000090 e6 a5 d9 3d a2 2b 7c 3d b4 b6 bd 3d 27 07 d7 3d
       0.10627346 0.06156505 0.092633635 0.10499411
0000a0 62 7a 27 3e 71 a6 24 3e 84 88 88 3d a2 8e 03 bd
       0.16355279 0.16079117 0.06666663 -0.032118447
0000b0 a1 ed f9 3d 0c ae bb 3c 04 74 00 3e 04 02 8a 3d
       0.12203527 0.02291014 0.12544256 0.06738666
0000c0 2f 4a 97 3d fd 58 b8 3c 51 3f 3f 3e 4b dd 71 3d
       0.07387196 0.02250337 0.18676497 0.059048932
0000d0 e8 94 9f 3d f7 53 af 3d c8 21 52 3d 3f c0 d3 3d
       0.077920735 0.08560937 0.051301748 0.103394024
0000e0 50 2c 92 3d ac 6f 24 3e 7a ea 14 3e 47 7b 8b 3d
       0.07137358 0.16058224 0.1454257 0.06810623
0000f0 eb bd 42 3e 77 5e 40 3e 6f 46 be 3d 2f 5e e2 3d
       0.1901776 0.18786035 0.09290778 0.1105312
000100 77 d5 d1 3d 3d 80 e6 3c 10 c2 dc 3d a5 65 95 3d
       0.10245793 0.02813732 0.10779202 0.07294778
000110 77 30 d1 3c 17 0f 00 3d 5d 2d 72 3c 1a a0 d8 3d
       0.025535805 0.03126439 0.014781323 0.10577412
000120 d2 7e 1f 3e 2e 1a 2d 3d d2 89 ca 3d 53 f8 47 3d
       0.15575722 0.042261295 0.098895684 0.048820805
000130 b3 ce 0a 3d 15 c1 44 bd 57 94 08 3e b9 32 b6 3d
       0.03388853 -0.0480357 0.13337837 0.08896393
000140 79 6f 87 3d de 78 c6 3d fa 35 08 3e cd f8 0c 3d
       0.066130586 0.09691022 0.1330184 0.034416962
000150 55 95 00 3e 0a 67 31 3e 74 d2 e9 3d e1 ca 04 3b
       0.12556966 0.17324463 0.11417094 0.0020262527
000160 05 89 1a bd eb 25 f2 3d 25 a7 9f 3d 3e 2d 22 3e
       -0.03772833 0.118236385 0.07795552 0.15837571
000170 be b5 58 3d 65 87 14 3e e8 91 1b 3e e3 4e 0e 3c
       0.052907698 0.14504774 0.15192378 0.0086858
000180 3b 89 b0 3d 5f aa 3a 3d bb 1b cb 3c df bb d4 3d
       0.08619925 0.045572635 0.024793496 0.10387396
000190 b6 70 ae 3c e0 8c 7f 3d d0 0a db 3d d4 80 66 3c
       0.02129398 0.06239021 0.10695422 0.014068801
0001a0 8e 63 2b 3e 34 67 26 3e 72 a4 d4 3d 60 7d 16 3e
       0.16737196 0.16250306 0.10382928 0.14696264
0001b0 e9 c9 2e 3d 5f 1b ca 3d ea 9b 96 bb b8 f8 9c bc
       0.042673025 0.09868502 -0.004596223 -0.019161567
0001c0 fd f1 30 3d 59 1a d2 3d 38 da de 3d c3 b4 fd bb
       0.043199528 0.10258932 0.10881466 -0.0077424957
0001d0 f4 24 6c 3d 0b 85 b7 3d d2 bc 56 3d 8c 1a 7a 3c
       0.05765243 0.08960923 0.052426167 0.015265118
0001e0 86 6f aa 3d 23 70 95 3d 45 0e c1 3c 7d af 13 3e
       0.08322053 0.07296779 0.023566375 0.14422412
0001f0 9d c5 72 3d 06 fc 93 3d 90 1f 52 3c 1e 5e dc 3d
       0.05927049 0.07225804 0.012824908 0.10760139

net.2.weight f4 [128, 128]
000000 91 a5 8f 3d b9 97 a1 3d f9 ea 5d bd fd 1d d9 3c
       0.07014001 0.07890267 -0.054179166 0.026503557
000010 27 34 af 3b d0 55 0a 3d 58 da 36 3e f7 8c a1 3d
       0.005346793 0.033773243 0.17856729 0.07888215
000020 4c aa ae bd ad a7 4d bd fb 24 0a bd 79 c5 cf 3d
       -0.08528575 -0.050208736 -0.033726674 0.10145087
000030 c6 91 fc bc 41 62 b8 bc fb 1b 3b bc d8 f4 84 bd
       -0.030831229 -0.022507789 -0.011420245 -0.06492013
000040 c2 88 e6 bc 9e 42 b6 bc d1 c8 a0 3d 65 28 b6 bd
       -0.028141383 -0.022248562 0.07850803 -0.088944234
000050 e4 5a f3 3c 82 45 b4 3d a0 0e 5a 3d 91 a7 f2 bc
       0.029706426 0.0880232 0.053236604 -0.029620918
000060 69 33 c8 bc 7b 2f bb 3b 88 df a9 bd 0f bb c1 3d
       -0.024438577 0.005712447 -0.08294588 0.09459507
000070 4f 64 a4 bd 6b 08 ac 3d fb 4b 13 be 73 36 87 3d
       -0.08026945 0.08400043 -0.14384453 0.06602182
000080 ee 5e f9 bc d6 a9 59 3d 58 1b b9 bc db 40 cf 3d
       -0.030440774 0.053140484 -0.022596046 0.10119792
000090 e6 10 80 bd 1d 92 4d bd 5b d4 dd bd ea 0f c4 bd
       -0.06253223 -0.050188173 -0.10831519 -0.09573348
0000a0 bc ec d2 3d 58 55 de 3d 37 1b 57 bd 28 78 ac bd
       0.1029906 0.10856122 -0.05251619 -0.084213555
0000b0 e7 00 ce 3d fb 72 80 bd ae 49 8c 3d 6e 9e 2d bd
       0.10058766 -0.06271931 0.06849991 -0.04238742
0000c0 ea 5e 49 bb 6b 84 e1 bc b6 c4 57 bd 61 a8 5d 3c
       -0.003072674 -0.027528962 -0.052677833 0.013528914
0000d0 0d e1 89 bd c5 80 07 3e c2 ce 48 3d 9a 65 02 3e
       -0.06732378 0.13232715 0.049025305 0.1273407
0000e0 8f 09 72 bd a8 20 87 3d 7e 17 9c 3d 58 69 79 3c
       -0.059091147 0.065980256 0.07621668 0.01522287
0000f0 c1 22 df bc 29 22 33 3e 0c d3 9e bd 0a 23 ea bc
       -0.027238252 0.174935 -0.07755098 -0.028581161
000100 8e 44 89 3c 25 5a 45 bd 95 c0 bb 3d af 42 c8 3d
       0.016756322 -0.04818167 0.091675915 0.09778344
000110 eb 13 e0 3d 38 85 d0 bd ef e9 36 3c bc 36 a1 bd
       0.10941299 -0.101816595 0.011164173 -0.07871768
000120 4b ee 5b 3c 75 9b ed 3d b9 e6 8e bc b9 70 16 bc
       0.013423513 0.11601917 -0.017444002 -0.009182149
000130 8d 50 21 3d 50 08 99 bd 89 20 75 3d a8 3b b8 bd
       0.03938346 -0.074722886 0.05984548 -0.089957535
000140 c4 bf 5b 3d 2d b8 52 3d 49 a1 bc 3d 57 5e 87 3c
       0.05364968 0.051445175 0.0921045 0.016524477
000150 ef f7 67 3c 10 cb 2b 3e 52 52 81 3d 15 bd fd 3b
       0.014158233 0.16776681 0.063145295 0.0077434876
000160 3c 8f 92 bc 4c 7e 82 bd 32 cb 9c 3b 0e 32 0f 3d
       -0.017890565 -0.063717455 0.004784965 0.034959845
000170 f5 cc f7 3d e6 e9 ca 3d 14 d6 ee 3d c4 cb 4b 3d
       0.12099639 0.09907894 0.11661926 0.049754873
000180 1a 54 0a 3e 0f 1e ac 3d cc 39 25 be f7 ac 5d bd
       0.13508645 0.08404171 -0.16135329 -0.05412003
000190 6d b7 e9 bd 25 ab ab 3d d4 14 a2 3d 8f 58 3c be
       -0.11411939 0.083822526 0.07914129 -0.18393157
0001a0 e6 03 a8 3d df 7d a3 3d 55 7e 27 bd 04 62 f8 3c
       0.082038686 0.079829924 -0.040891964 0.030320175
0001b0 38 55 0b 3e 0f 51 a6 3c 39 46 1f bd 56 22 05 3e
       0.13606727 0.020302324 -0.03888533 0.1300138
0001c0 89 b0 c0 3d 77 83 5d bd 6e 19 ad bc 2b e7 11 be
       0.094086714 -0.054080453 -0.02113029 -0.1424834
0001d0 42 bd ee 3c fa a0 2f 3e f1 e6 94 bc 39 e3 03 3d
       0.02914298 0.17151251 -0.018176528 0.03219912
0001e0 c0 df 10 3d 6f 8d 44 bc 71 5a 88 3c 77 07 fb bd
       0.035369635 -0.011996611 0.016644688 -0.12257283
0001f0 ef f4 f8 bd 7a 4f 4d 3d 3e ec 4a bd a2 18 94 3c
       -0.121560924 0.050124623 -0.049541704 0.018078152
000200 99 e6 6d 3d 19 79 16 bd 71 ab c7 3d cd 05 8d 3d
       0.058081243 -0.03673658 0.09749497 0.06885872
000210 48 9a 5f bd 80 7b ad bd af 86 01 be ce e2 7d 3c
       -0.054590493 -0.084708214 -0.12649034 0.015495969
000220 74 98 90 3d bc 95 a2 bd d5 a2 39 bd cc bb c7 3c
       0.07060328 -0.07938716 -0.045321304 0.02438154
000230 22 f6 b7 3d c4 80 39 3e 13 58 16 bd b5 cc 67 3d
       0.08982493 0.18115526 -0.036705088 0.05659171
000240 77 3b be 3d e1 49 ac 3d ed 92 e5 3d 80 1f c6 3d
       0.09288686 0.08412529 0.112096645 0.09673977
000250 ef be 2a 3c 32 b4 14 3e 8b 6c 94 bd 4c ad c5 3d
       0.010421499 0.14521864 -0.072472654 0.096521944
000260 fa eb 24 be ae 65 9e 3c 87 c4 de 3d 9b bd 45 bd
       -0.16105643 0.019335594 0.10877328 -0.048276525
000270 fd dc e5 3b 90 e1 05 3e 1f 44 9c bd 7e ed 0c 3d
       0.0070148692 0.13074327 -0.076301806 0.034406178
000280 d4 47 f0 bb c9 17 f4 3d 43 1a 1f be af c0 e8 3d
       -0.0073327813 0.11918599 -0.15537362 0.113648765
000290 90 a4 93 3d 8d 74 d8 3d d9 c3 8e bd e0 78 e3 3c
       0.07209122 0.10569105 -0.06970949 0.027767599
0002a0 ed 14 cd bc 4d f8 45 3d 7c c5 e8 3d 9b 10 ec bd
       -0.025034392 0.0483325 0.11365792 -0.11526605
0002b0 a5 33 6e 3d ee 67 17 be 1e 10 1e bd 13 33 de bd
       0.05815472 -0.1478574 -0.03858959 -0.108495854
0002c0 90 af 31 bd a1 94 9e bd da e1 32 3d 9c b7 27 3c
       -0.04338032 -0.077431925 0.04367242 0.010236647
0002d0 ff 90 bf bc 35 a5 7b 3d 68 9f 9b bb 3e b7 54 3d
       -0.02338457 0.06143685 -0.0047492273 0.051932566
0002e0 73 1c 0d 3e 35 d0 84 bd 3e 76 a5 bd c8 ff bb bc
       0.13780384 -0.06485025 -0.080791935 -0.022949114
0002f0 2f 6d dc 3d 97 cf 02 bd 46 a8 79 3d 2d d7 bf 3c
       0.107630126 -0.031936254 0.060951494 0.023418033
000300 6d c1 09 3e db 56 97 3d b2 31 8a bc 8b a4 1f 3e
       0.13452692 0.07389613 -0.0168694 0.15590112
000310 30 48 25 3e ca 99 c4 3d 95 1a 0f 3e c8 d7 b9 bd
       0.16140819 0.095996454 0.13974984 -0.0907436
000320 2a 84 c7 3d 8b f5 36 3c 9b 1b 54 ba df 02 2f 3d
       0.09742005 0.01116694 -0.0008091272 0.042727347
000330 d9 6c 54 bd 8d e1 a7 3c 06 83 e6 bd 21 3b 3f 3d
       -0.051861618 0.020493293 -0.112554595 0.04668725
000340 a2 ea 9a 3d eb a2 73 bd c5 5a 91 bc 00 8c 01 3e
       0.07564284 -0.059481543 -0.017743478 0.12651062
000350 11 42 4b 3d df 63 4b 3d 88 f6 da 3c 9f 66 4e bd
       0.049623553 0.04965579 0.026728883 -0.050390836
000360 1c 3f 0c bd cd 0e af 3d 06 8e ca bb 3c 64 c9 3c
       -0.034239873 0.08547745 -0.0061814813 0.024583928
000370 c0 9c 33 3d 97 10 9d 3d ea 16 33 be 0d cf dd 3d
       0.04385066 0.0766918 -0.1748921 0.108305074
000380 02 7e b8 3d 07 e7 da bc c5 ef f7 3c c3 9b 40 bd
       0.09008409 -0.02672149 0.030265698 -0.047023546
000390 d2 34 05 3e 47 e9 d4 bd d3 6f d0 3d ba df fa 3c
       0.1300843 -0.103960566 0.10177579 0.03062426
0003a0 80 5b 84 bd af b8 4f bd 78 4e 66 be 71 99 12 3d
       -0.06462765 -0.050713237 -0.22490871 0.035790864
0003b0 59 0b 04 3e 2e bc 00 3e fa c0 c9 bd 83 b0 d2 3c
       0.12894954 0.12571785 -0.098512605 0.025718933
0003c0 ee a1 70 3d cc b7 f0 bc 73 68 2f bc 52 d6 10 3d
       0.05874818 -0.029384516 -0.010706055 0.03536064
0003d0 9b 66 dd bd 8b ee c0 3d 16 19 25 3d ae e7 23 3e
       -0.10810586 0.094204985 0.040307127 0.16006348
0003e0 32 b1 cd 3c c1 68 ea 3d 65 de 02 bd d3 c4 b3 bc
       0.025108907 0.114457615 -0.031950373 -0.021944439
0003f0 fa a3 2a 3d 98 2e 13 3e ac c3 d3 bc eb 12 b2 3d
       0.041660286 0.14373243 -0.02585014 0.086950146

net.2.bias f4 [128]
000000 17 73 76 3d 76 99 21 bd 23 28 19 bd 61 b1 51 3d
       0.060168352 -0.039452992 -0.037391793 0.051194552
000010 82 35 ce 3d 00 91 7d 3d 77 9d d9 3d a0 fb 11 3e
       0.100687996 0.06190586 0.10625737 0.14256144
000020 1d de 8b bd ed 43 96 3d 5d d6 88 bc 0d 10 61 bc
       -0.06829474 0.073371746 -0.016703779 -0.013736737
000030 67 e4 c4 3d f6 4c c6 3d fe 2d f4 bc e1 e3 6a bd
       0.09613877 0.09682648 -0.029807087 -0.05734623
000040 8e 3b 51 3d 02 0e ab bd 62 10 b7 3d 28 f0 f9 bc
       0.051082186 -0.08352281 0.08938672 -0.030510023
000050 7b 38 02 3d f6 25 3f 3d 80 d6 0a 3e 83 db 2c 3d
       0.031792145 0.04666706 0.13558388 0.04220153
000060 16 69 cc 3b 85 f4 be 3c 8c 41 f8 bc b8 c7 fc 3d
       0.006238113 0.023309955 -0.030304693 0.12342781
000070 38 64 84 bc 74 07 40 bd fa 99 d1 3d f0 c7 73 bd
       -0.01616107 -0.046882108 0.10234447 -0.059516847
000080 5c f1 f0 3c 22 cd b7 bd e9 df b9 3d 9d a2 22 bd
       0.029411964 -0.08974673 0.090759106 -0.03970586
000090 12 10 17 3d 70 92 e8 3d 51 1c 14 bd 81 3f a6 bd
       0.03688056 0.11356056 -0.036159817 -0.08117581
0000a0 32 50 8f 3c 87 49 de 3c d6 82 e8 bc fa d7 0d bc
       0.017494295 0.02713467 -0.0283827 -0.00865745
0000b0 ab 78 fa 3d f8 90 8e 3d ef 45 3e 3d 45 4d cb 3c
       0.12230047 0.06961244 0.046453413 0.024817118
0000c0 cb 80 15 bc 3b 10 58 3c 8e 90 ef bc be 68 56 3d
       -0.009124945 0.013187463 -0.029243734 0.052345984
0000d0 36 b4 da 3d 5c 54 d6 3d 9e 00 13 3d b1 4e 12 3c
       0.10678904 0.10465309 0.03588926 0.008929894
0000e0 25 d9 44 3d 71 53 c9 3c 61 bc 0b 3e ac a2 d9 3d
       0.048058648 0.02457592 0.1364608 0.1062673
0000f0 37 31 7b 3d de 81 76 3a 88 51 b4 bd 30 76 32 bd
       0.06132623 0.0009403507 -0.08804613 -0.043569744
000100 67 39 0f 3d 0c 1b 42 3d d1 a2 9f bd 32 69 2f 3c
       0.034966853 0.047389075 -0.07794727 0.010706233
000110 3b fb 83 3c 6b 47 33 3d 73 4e 74 bc 03 3f 85 3d
       0.016111007 0.04376928 -0.014911282 0.06506159
000120 ad 77 d1 3b 55 4b e7 3d 13 c6 9f 3d 79 b6 1b 3d
       0.0063924403 0.11293665 0.078014515 0.038015816
000130 5d f4 f1 bc 19 9d 84 bc 52 0b 20 3d 9f 7c 83 3d
       -0.029535467 -0.016188191 0.039073296 0.06420254
000140 9a e4 3e 3d ab 52 68 3b 3d b6 79 3c 70 10 b4 3d
       0.04660473 0.0035449665 0.015241203 0.08792198
000150 d1 3e b8 3c b7 b2 f9 3b 86 8e c8 3d 31 9a ff 3d
       0.02249089 0.0076201814 0.09792809 0.124805816
000160 ab 71 fb 3b 4d de db 3c 16 2b 3a bd 5c 3b 9f bd
       0.0076734624 0.0268394 -0.045451246 -0.07774994
000170 d9 e7 f3 3d d9 65 9e 3c 0d c7 c3 3d 09 cf 3e bd
       0.11909456 0.019335674 0.0955945 -0.046584163
000180 34 d1 c8 bd c1 b4 d1 bc 4f f6 98 bb 9d 7a eb 3d
       -0.09805527 -0.025598885 -0.004668034 0.11497996
000190 16 dc ac 3d 14 b8 99 bd d2 e3 73 3d d5 ea ad 3c
       0.084404156 -0.07505813 0.05954344 0.02123014
0001a0 67 f6 38 bd 7c 48 8a bd d1 b4 83 bd 37 f4 94 3a
       -0.045156863 -0.067521065 -0.06430972 0.0011364286
0001b0 5e ca 33 3d 1c 8e 40 3d 48 82 04 3d 22 67 cc 3d
       0.043894164 0.047010526 0.03235081 0.099806085
0001c0 fa 3b b5 bc 57 94 4c 3d 0e 86 25 bb 2b f4 9c 3d
       -0.022123326 0.049946155 -0.0025256905 0.07663759
0001d0 ce a4 b7 3c 3f bd 7f bd e9 23 98 3c 2a 3f d0 3d
       0.022417452 -0.06243634 0.01857181 0.101682976
0001e0 4e da 93 bd a3 65 92 bc 8e 20 09 3e a3 2c 24 3d
       -0.07219373 -0.01787073 0.13391325 0.04008163
0001f0 e2 c3 83 bd b1 fd 6e 3c 52 9c 0b 3d eb 52 a2 3d
       -0.06433846 0.014586852 0.034084626 0.079259716

net.4.weight f4 [8, 128]
000000 bc 12 b9 bd a4 2f 0b be 9c 4b 22 bc 27 fe 32 3c
       -0.090367764 -0.13592392 -0.009905722 0.010924852
000010 59 3a 20 be 14 1b 82 3c f9 3b cd bd c9 42 13 bc
       -0.15647258 0.015882052 -0.100212045 -0.008988091
000020 26 87 1f bd c3 76 53 3d 26 cb 7f bd 09 a1 1e 3e
       -0.038947247 0.051626932 -0.062449597 0.15491118
000030 95 48 b4 bd 43 f9 61 3d 28 42 24 be a9 c9 b3 3c
       -0.088029064 0.055169355 -0.16040862 0.021946745
000040 ce 0e 03 3e 1c 65 df bd d3 f4 b4 3d e1 51 83 bd
       0.12798616 -0.10907957 0.08835759 -0.064121015
000050 41 76 0c 3e 73 83 3c 3c ed 69 0d be ba 5a 54 3d
       0.13716985 0.011505949 -0.13809939 0.051844336
000060 ee 09 1a be aa b6 b7 3d 34 cc 54 be 85 60 1f be
       -0.1504285 0.08970387 -0.20781022 -0.15564163
000070 fa 4b 10 3e c5 a8 26 be be 2b af 3d f3 46 18 bd
       0.14091483 -0.16275318 0.08553265 -0.037177037
000080 bf c5 0c 3e c4 6c 31 3d a7 9b 6b bd ad d2 e7 3d
       0.13747309 0.043316618 -0.05752149 0.1131948
000090 e2 00 36 be 29 90 14 be 3e 07 30 be 01 42 3f bd
       -0.17773774 -0.14508118 -0.17190263 -0.046693806
0000a0 eb b2 c1 3d 9c 0e bb 3d 97 a0 98 3d 84 f0 e0 bd
       0.09457954 0.09133646 0.07452505 -0.10983375
0000b0 fb 25 32 be bc 8c 21 3d b9 58 9f 3d 23 69 1b be
       -0.17397301 0.039440855 0.077805944 -0.15176825
0000c0 c8 ec 9a bd 0b 4e 9a 3d 92 d3 9b 3d ab d5 20 be
       -0.07564694 0.07534417 0.07608713 -0.15706508
0000d0 3d 5d 1f 3d 84 cb 13 3e f3 39 3c be 48 c9 09 3e
       0.03890728 0.14433104 -0.18381481 0.13455689
0000e0 d5 24 23 be d3 a7 94 3d 23 d5 4c be 95 d5 b0 bd
       -0.15932019 0.072585724 -0.2000318 -0.086344875
0000f0 0c 1b 69 be 46 12 9d 3d 98 e8 c8 3c f9 42 88 3d
       -0.22764224 0.07669501 0.024524972 0.06653399
000100 3d cc 07 3d 01 72 0b 3d b4 0f 02 3e 47 7a 8a bd
       0.03315376 0.03404427 0.12701303 -0.06761604
000110 6b 3e 89 3d a2 b0 0c be 30 93 72 bd 56 87 29 3d
       0.067013584 -0.13739255 -0.0592224 0.041388832
000120 56 d1 21 be 34 36 2e 3d c9 1f 1d be a1 84 f0 bd
       -0.15802512 0.04253216 -0.15344156 -0.11744047
000130 42 b2 01 3e a0 19 18 be 5c 7d 19 be 7a d2 d7 bd
       0.12665656 -0.14853525 -0.14989227 -0.10538192
000140 9f f8 47 3d 3a b7 68 bd a2 7a 20 be 22 cd 0c 3e
       0.048821088 -0.056815363 -0.1567178 0.13750127
000150 a9 47 be bd 43 e9 5e be 3e c1 16 be 40 d1 5f be
       -0.09291012 -0.2176867 -0.14722154 -0.21857166
000160 36 c4 40 be 3f 4b ae b9 af 91 4a be 2b f9 be bc
       -0.18824849 -0.0003324393 -0.19782136 -0.023312172
000170 d9 4f 2d be 76 0d 3d be d4 84 91 bd a3 d2 07 bd
       -0.1692499 -0.18462166 -0.07105413 -0.033159863
000180 72 ce 52 bd 36 fb 36 3b 9a ba 05 bd 4c 65 ff 3d
       -0.051466413 0.002792073 -0.03264866 0.12470493
000190 cb 49 0a 3e 94 cb bb bc d6 56 51 be 9a bf 1d be
       0.13504712 -0.022924222 -0.20443282 -0.15405121
0001a0 19 fa 03 be 44 c9 d6 3c 68 a4 92 3d 8e 15 fa bd
       -0.12888373 0.026219018 0.07160264 -0.122111425
0001b0 f2 01 8f bc 4d 8b 2c be b5 77 0a 3e f0 2c ef bd
       -0.017456982 -0.16850014 0.13522227 -0.11678493
0001c0 f7 ee da 3d 88 cf 46 be 0f c9 ab 3d 9e b3 ea bc
       0.1069011 -0.19415104 0.08387958 -0.028650101
0001d0 50 58 1a be dd cc 36 3d 20 75 22 be 65 96 b9 3d
       -0.15072751 0.044628967 -0.15864992 0.090618886
0001e0 7b 1d 55 bd b3 4c e8 3c 2c 2c 40 be 02 3f 0b 3e
       -0.052030068 0.028356886 -0.1876685 0.13598254
0001f0 3d e5 ec 3d 3c f5 10 be 31 49 ef bd d3 19 3a be
       0.11567161 -0.1415605 -0.11683882 -0.18173914
000200 82 b7 49 be 18 ca f1 b8 c3 b9 dc bc 37 b8 68 bd
       -0.19698909 -0.000115294184 -0.026944047 -0.056816306
000210 d4 d3 4e bd 48 51 dd bd 1a 2f ce 3d 81 a8 9d 3d
       -0.050494984 -0.10806519 0.10067578 0.07698155
000220 87 f2 5f bd d3 06 8e bc 6e e3 82 3c ed dd 55 be
       -0.05467465 -0.017337238 0.015977588 -0.20885439
000230 b0 bb 74 be 1d 9b 22 3d d3 46 53 be 05 a2 41 bd
       -0.23899722 0.03969871 -0.20632486 -0.047273654
000240 6d 4c 11 be e8 a2 c7 3d cf 10 3b be f1 aa 8f 3d
       -0.1418931 0.09747869 -0.1826813 0.07015026
000250 5b 2a 42 3d 32 94 e8 bd 19 ff 65 bd 77 63 90 3d
       0.047403675 -0.11356391 -0.056151483 0.070502214
000260 ab ad f9 bd 80 3f f7 bd e7 a0 72 be 9a b6 17 3e
       -0.12191328 -0.120726585 -0.23694192 0.1481575
000270 27 03 72 be ae 44 2a bd 9b 8b 5f be 78 48 8d 3c
       -0.23634015 -0.041569404 -0.21830599 0.01724647
000280 67 c0 8c bd af 44 b3 3c 1c 48 17 be d2 03 04 be
       -0.06872635 0.021883337 -0.14773601 -0.12892082
000290 5d 05 da 3d 57 f7 e5 3d ce 96 12 3e ec 85 10 be
       0.10645554 0.11228817 0.1431534 -0.14113587
0002a0 53 e1 a3 bd 47 da 53 be 2a 97 3e bd c1 cf e7 bd
       -0.080019616 -0.20688735 -0.04653088 -0.11318923
0002b0 44 5f 86 3d f1 42 63 bb 49 7e 45 be be b6 12 3e
       0.06561139 -0.0034677351 -0.19286455 0.14327523
0002c0 ff f4 12 bd f9 13 8b 3d 24 b8 44 be 0c 85 b3 bc
       -0.035878178 0.06790919 -0.19210869 -0.021914028
0002d0 0d 6d b4 bd 4b 0a 5e be 2f 58 38 be 81 3f 3f be
       -0.08809862 -0.21683614 -0.1800239 -0.18676569
0002e0 77 52 7a be 88 80 9a 3d 9a 5a be 3d e2 99 e0 3b
       -0.2444552 0.07544047 0.092946246 0.0068542818
0002f0 0e 24 e5 3d b5 20 04 be 06 04 81 3d c7 54 eb bd
       0.111885175 -0.12903102 0.062995955 -0.11490779
000300 5e b0 9d 3d 76 5b 1e be a6 1b 3c be 5a a8 14 3e
       0.07699655 -0.15464577 -0.18369922 0.14517346
000310 03 0e 80 be a0 af 24 3d 92 e4 ff bd 2a 2f 27 be
       -0.2501069 0.04020655 -0.12494768 -0.16326585
000320 d6 fc 14 3e 0b 7a 00 be 70 5b ab 3d f4 41 51 be
       0.14549574 -0.12546556 0.0836705 -0.20435315
000330 51 05 de bc 04 1f 18 3e 58 6c eb 3c 8c 38 f6 bd
       -0.027102144 0.14855582 0.028738186 -0.12022504
000340 69 33 6e 3d 7b 9d 09 be 69 49 4c be 49 c6 7a 3c
       0.058154497 -0.1343898 -0.19949879 0.015306064
000350 b7 76 95 bd 37 26 d2 bd d1 d8 4c be ab e0 f3 bd
       -0.07298034 -0.10261195 -0.20004584 -0.119080864
000360 aa 45 bd 3d f5 f5 3c be f0 28 a3 3d 5e 85 7a 3d
       0.09241803 -0.184532 0.079667926 0.061162345
000370 31 f1 df bd 08 86 1b bd ff 78 ea bb b7 c8 25 bd
       -0.109346755 -0.03796962 -0.007155537 -0.04047462
000380 0f 34 0d 3d 63 96 26 3e a9 9d ee 3d 32 a9 54 be
       0.034473475 0.16268305 0.11651165 -0.20767668
000390 31 ea 59 be ac c2 a0 3d 66 4e 25 be 86 cd fd bd
       -0.21280743 0.07849631 -0.16143188 -0.12392716
0003a0 39 c4 40 be be 64 36 3d 2f 40 86 3d 14 dd 84 bd
       -0.18824853 0.04452967 0.06555211 -0.0648748
0003b0 ea 6a 39 3d ed e1 27 be f6 17 5f be 3a c7 60 3d
       0.045267977 -0.16394778 -0.21786484 0.054877497
0003c0 a7 ab 48 be 6b 59 5a 3d 4f a5 ad bd d5 8d 4e be
       -0.1959673 0.053307932 -0.08478796 -0.20171292
0003d0 96 6a 08 be 38 81 26 bd 2d 17 19 3e 50 ce 53 be
       -0.1332191 -0.040650576 0.14950247 -0.2068417
0003e0 b8 a1 f6 3c 2b 07 24 be a7 0f d4 3d b5 38 b9 3d
       0.03010641 -0.1601836 0.10354548 0.09044019
0003f0 ff 7b c4 3d 50 c6 49 bc 93 03 62 be 94 67 e9 bc
       0.09593963 -0.012315348 -0.22071676 -0.028491773

net.4.bias f4 [8]
000000 02 02 a5 3a b7 b6 92 3c d5 3a 25 3d 35 b1 7c 3d
       0.0012589099 0.01790939 0.04033931 0.061692435
000010 63 00 20 3d d5 0f f5 3c 24 ae 1b 3b 84 db aa 3c
       0.03906287 0.029914776 0.002375492 0.020856626
